output_mfcc/b1c33376e4b9e3e7d98e33232ac9f072_seg3.npy (npy, 7460 bytes, 1 tensors)

array f4 [39, 47]
000000 75 ab 91 c3 eb 04 91 c3 89 91 98 c3 08 ac 91 c3
       -291.3395 -290.03842 -305.137 -291.344
000010 67 16 98 c3 81 21 a2 c3 32 75 8d c3 c6 8e 89 c3
       -304.17502 -324.26175 -282.9156 -275.11542
000020 ad 71 94 c3 31 52 90 c3 57 a7 8c c3 02 f0 97 c3
       -296.8881 -288.64212 -281.30734 -303.87506
000030 9a 22 af c3 b9 16 d3 c3 3f 86 a8 c3 56 56 6f c3
       -350.27032 -422.17752 -337.0488 -239.33725
000040 88 1d 72 c3 1a 13 a4 c3 53 c2 b0 c3 79 a4 90 c3
       -242.11536 -328.14923 -353.51816 -289.28494
000050 6c 92 83 c3 47 3d 9c c3 24 5e b1 c3 16 64 ab c3
       -263.14392 -312.47873 -354.73547 -342.78192
000060 a5 36 c8 c3 49 0f b8 c3 19 e1 81 c3 10 76 59 c3
       -400.4269 -368.11942 -259.75858 -217.46118
000070 bb 8d 82 c3 6e 4e 94 c3 0a c1 3a c3 eb a7 0a c3
       -261.10727 -296.61273 -186.75406 -138.65593
000080 d2 c4 27 c3 c5 86 70 c3 d1 ba ad c3 f2 37 a0 c3
       -167.76883 -240.52644 -347.4595 -320.43707
000090 02 8f 66 c3 67 22 57 c3 32 7c 68 c3 a4 5f 48 c3
       -230.55862 -215.13438 -232.48514 -200.3736
0000a0 c2 82 48 c3 5c b6 56 c3 85 89 8b c3 5e 05 a8 c3
       -200.51077 -214.71234 -279.07437 -336.04193
0000b0 a5 d2 c0 c3 ca 36 e3 c3 10 5d b9 c3 42 3f 07 43
       -385.64566 -454.42804 -370.72705 135.2471
0000c0 28 59 1d 43 46 2b 41 43 88 5a 38 43 57 d1 2c 43
       157.34827 193.16904 184.35364 172.81773
0000d0 df e2 39 43 42 19 44 43 94 cf 30 43 2a b8 0e 43
       185.88622 196.09866 176.81085 142.71939
0000e0 bc 88 ea 42 82 c7 b6 42 0e b4 71 42 7e d5 94 41
       117.26706 91.38966 60.425835 18.604244
0000f0 92 d8 30 42 36 58 0c 43 24 14 2d 43 ee 35 3c 43
       44.211494 140.34457 173.07867 188.21066
000100 2b e4 31 43 95 02 1d 43 75 02 18 43 c2 38 c5 42
       177.89128 157.01009 152.0096 98.610855
000110 7c 3c d6 41 44 a4 3e c2 dc 31 52 c1 4d 05 8f 42
       26.779533 -47.660416 -13.137173 71.51035
000120 3b e4 2a 43 24 b9 2a 43 89 6b 22 43 9c 91 19 43
       170.89153 170.7232 162.42006 153.56879
000130 98 7d 2b 42 c4 47 93 42 3f 61 01 43 1a 81 34 43
       42.87265 73.64017 129.37987 180.5043
000140 ff 5c 44 43 e2 32 4c 43 16 1b 38 43 44 3b f7 42
       196.36327 204.19876 184.1058 123.61575
000150 40 2a 8b 42 a0 4b 9c 41 68 3a 29 42 cf 24 ab 42
       69.58252 19.536926 42.307037 85.57189
000160 06 40 5f 42 f4 38 34 be 8d 9b 86 c2 0e ce 9c c2
       55.812523 -0.17599851 -67.30381 -78.40245
000170 d8 85 47 c1 4c 01 af 42 93 b8 63 41 89 ba 08 c1
       -12.470177 87.50253 14.232562 -8.545541
000180 db d1 57 c2 20 5f e0 c1 e6 31 2b 41 b0 7e 5a 41
       -53.954937 -28.046448 10.699682 13.65593
000190 88 b9 36 c2 ea f4 9f c2 58 de 97 c2 8a c8 5a c2
       -45.681183 -79.97835 -75.934265 -54.69584
0001a0 be 5a 97 c1 10 2c 83 c1 05 7b 62 c2 1a 0d 70 c2
       -18.919308 -16.396515 -56.620136 -60.012794
0001b0 28 d9 5f c1 be 70 ea c1 5c 65 0d c2 c8 32 4b c1
       -13.990517 -29.30505 -35.348984 -12.699898
0001c0 1f 41 e0 c1 ac ad 14 c2 90 f2 13 41 a6 bd 72 42
       -28.031797 -37.1696 9.246719 60.685204
0001d0 a5 0a 1d 42 0e d7 da 41 85 7d 10 42 05 63 af 41
       39.260395 27.355007 36.122578 21.92335
0001e0 e5 65 f0 c1 dc 09 31 c2 b2 77 05 c2 c2 67 80 c1
       -30.049753 -44.25963 -33.36689 -16.050663
0001f0 4b ee 19 c2 42 24 81 c2 ca c5 b0 c2 42 03 80 c2
       -38.482708 -64.570816 -88.38631 -64.00636
000200 97 2b 85 c1 61 86 f7 c1 4e d0 b9 c1 38 19 d9 bf
       -16.646284 -30.940615 -23.226711 -1.6960821
000210 ee b4 76 41 78 ba d4 bd 2a ed ac c1 68 69 26 41
       15.419172 -0.103871286 -21.615803 10.400734
000220 3c 93 58 42 76 8a 31 40 ff 71 0b c2 ea 93 24 c2
       54.143784 2.774076 -34.861324 -41.144447
000230 d4 57 12 c2 ce 52 cc 41 ec e2 ad 41 42 03 9a 41
       -36.58577 25.540432 21.735802 19.25159
000240 01 0e 00 40 ae a5 09 c0 37 56 00 c0 05 16 ff 40
       2.0008547 -2.1507373 -2.0052621 7.971438
000250 71 98 1d 42 08 f4 d3 42 4c 71 f4 42 76 42 c2 42
       39.39887 105.97662 122.22128 97.12981
000260 1c 3f 5b 42 c6 70 5a 41 36 39 ac c1 10 fb 4f c1
       54.81163 13.652533 -21.527935 -12.998795
000270 46 b2 a3 41 6f 9f e9 41 64 59 2e 41 1a 63 44 41
       20.462048 29.202848 10.896824 12.274195
000280 16 70 d6 41 6e e0 3c 41 90 3c a0 41 14 88 04 42
       26.80473 11.804792 20.029572 33.13289
000290 06 ec 20 42 1c 9b 1a 42 54 c2 d8 41 84 f9 04 42
       40.23049 38.651474 27.094887 33.243668
0002a0 01 1a 09 42 3e 84 e0 41 11 26 14 41 37 90 dc bf
       34.275394 28.064571 9.259294 -1.7231511
0002b0 d1 05 07 41 6a af d1 41 35 3e e7 41 42 5a e5 41
       8.43892 26.210651 28.905375 28.669071
0002c0 3a 67 0b 42 9c e9 95 41 6f 0a b8 41 84 3b 46 42
       34.850807 18.739067 23.005095 49.55812
0002d0 8a ba 40 42 50 f8 6b 42 c6 0a 3e 42 9c 3a 15 42
       48.182167 58.992493 47.51052 37.307236
0002e0 33 ca b2 41 f8 95 40 41 64 bc 4e c1 ae f1 eb c0
       22.34873 12.036613 -12.920994 -7.373252
0002f0 aa 02 e6 c0 d0 36 ce c1 e5 53 7f c2 b0 76 86 c2
       -7.187825 -25.776764 -63.83193 -67.23181
000300 36 04 9f c2 8b 4e ab c2 d6 53 50 c2 a8 0a 97 c1
       -79.508224 -85.653404 -52.08187 -18.880203
000310 06 fc 11 c1 48 79 6b c1 c7 4d 1c 40 98 0c be 41
       -9.124029 -14.71711 2.4422472 23.75615
000320 4d 24 39 41 86 84 39 c1 ed 5e 53 c2 67 22 8c c2
       11.5713625 -11.594854 -52.8427 -70.06719
000330 3a d9 93 c2 8b 3e 61 c2 fa a4 f3 c0 05 1a 79 c1
       -73.92427 -56.311077 -7.6138887 -15.568852
000340 a0 32 fe c0 35 b2 27 c0 4c 67 12 41 b4 74 bd 41
       -7.94368 -2.620252 9.150219 23.681984
000350 e4 76 86 41 48 c0 55 c2 b0 4b 85 c2 19 b4 5a c2
       16.808052 -53.437775 -66.64783 -54.675877
000360 76 53 15 c2 f8 54 d8 c1 d2 55 10 c2 34 2e 33 c2
       -37.331505 -27.041489 -36.08381 -44.79512
000370 f8 08 85 c2 91 3c 97 c2 4a 8d 8a c2 1e 8f 9a c2
       -66.51752 -75.61829 -69.275955 -77.279526
000380 00 98 1f c2 08 2e 97 c1 fc 5b 7e c0 f5 9e 9c 3f
       -39.898438 -18.897476 -3.9743643 1.223601
000390 49 c1 67 c0 73 fc 2d 3f 65 9b 94 41 f4 88 09 42
       -3.6211722 0.6796333 18.575876 34.383743
0003a0 3e 64 28 42 44 04 c4 41 96 dd 60 c1 b1 49 2e 41
       42.097893 24.502083 -14.054098 10.892991
0003b0 08 c7 b4 40 6c 68 5f 41 d8 15 4e 41 de 4f 3b 41
       5.649296 13.962994 12.880333 11.706999
0003c0 b4 63 7f 41 e0 80 27 41 87 3a 5e c1 ac 05 b0 c1
       15.961842 10.468964 -13.889289 -22.00277
0003d0 ae ac 8a c1 40 af 01 c1 f0 62 9f 41 be 83 ea 41
       -17.334316 -8.105286 19.92331 29.314327
0003e0 de 79 f7 41 66 d7 8a 41 b9 db 00 41 6a a1 d3 40
       30.934505 17.355175 8.053643 6.613454
0003f0 49 18 9b c0 77 f6 22 40 64 ea 3c 41 2d bd 9f 41
       -4.8467145 2.546293 11.807224 19.967371
