output_mfcc/b2fc7c2e676a157402b490758bdb507d_seg3.npy (npy, 7460 bytes, 1 tensors)

array f4 [39, 47]
-231.15831 -234.43765 -240.30904 -273.6486 -294.33133 -270.15024 -264.68604 -290.80038
-377.49506 -353.717 -313.5429 -295.9398 -316.89584 -384.24628 -499.39093 -621.136
-699.0993 -713.6926 -718.0607 -591.75305 -479.90408 -309.95984 -266.47736 -317.64328
-383.50952 -272.8061 -167.09906 -157.28003 -189.26859 -207.39723 -226.30217 -254.48671
-262.59732 -248.02489 -288.44232 -333.1971 -231.31844 -188.26048 -175.10748 -203.85132
-270.943 -358.75262 -367.75034 -380.64365 -452.50967 -587.6396 -683.0935 112.45647
96.606026 11.677651 -62.52354 -44.520275 72.08855 131.43457 139.21758 142.66183
142.45844 159.86314 165.89066 155.65308 148.53381 135.4513 86.47128 38.576775
21.730091 10.534733 -47.171463 -75.292114 74.63157 136.54227 172.79956 124.6346
97.095474 120.370255 125.484055 115.34972 134.99379 148.48433 142.80534 97.29739
91.10141 112.77028 168.01163 172.4811 175.63855 165.07292 158.12712 163.70042
186.18446 145.3223 122.09497 117.52252 101.42578 45.45572 25.718616 14.101435
-11.022278 -32.377304 -8.200152 11.559044 -26.892017 -35.969597 -9.395201 -24.091377
-40.962246 -37.055008 -39.478962 -39.539993 -19.318256 11.428758 24.880226 16.81332
-0.56058013 -56.497 -80.14944 -3.7510405 7.6744657 3.6365528 38.041214 -30.900024
-57.078484 -82.38165 -96.92248 -96.94669 -90.20813 -57.528915 4.225734 15.440344
8.885607 -11.065628 -36.91659 -59.422653 -79.04836 -82.77099 -64.33998 -36.71071
-15.594925 13.014919 24.5695 29.165607 21.31385 14.430128 22.802113 57.330048
61.187084 71.51784 66.63437 74.87814 78.007545 76.766846 88.34206 81.49263
68.913635 63.501442 55.741383 32.792496 8.619589 9.870026 10.369562 -1.4426599
-1.3536009 11.874135 32.393017 43.298805 57.82879 10.699568 -0.3982098 40.771175
68.58478 68.542755 62.38874 62.52876 53.53795 24.88741 25.884834 36.297874
41.615654 35.73286 27.708714 26.236994 33.64627 38.05815 30.299162 71.40234
92.13452 87.34841 38.963028 10.787714 1.2815748 14.951008 31.81812 22.68084
-0.08855021 -11.143692 -18.493217 -22.040937 -0.17218551 -12.249664 -37.981552 -45.628887
-37.337532 -11.913719 13.276234 5.2094965 -1.3605952 4.1865005 6.3445044 28.606188
23.231981 1.6052985 -33.487343 -52.44613 -39.86807 -22.744823 -33.24477 -46.942238
-52.621216 -53.995567 -52.659264 -32.13204 -21.256212 -17.662804 -17.762566 -11.333405
-11.633091 -18.572845 -41.72193 -52.027054 -41.36244 -27.441498 -57.431324 -70.62923
-65.46656 -31.384686 -14.658981 -0.2811868 -6.6204495 -9.611451 -20.506863 -44.43779
-39.19874 -24.384464 -13.934704 -12.913752 -27.357609 -24.75709 -14.263348 -9.189112
-2.4319012 1.3708508 6.7560983 -7.3618937 -0.40516284 8.570903 48.760513 50.73127
00000000: 8728 67c3 0a70 6ac3 1d4f 70c3 05d3 88c3
00000010: 692a 93c3 3b13 87c3 d057 84c3 7366 91c3
00000020: 5ebf bcc3 c7db b0c3 7ec5 9cc3 4bf8 93c3
00000030: ab72 9ec3 861f c0c3 0ab2 f9c3 b448 1bc4
00000040: 5bc6 2ec4 546c 32c4 e383 33c4 32f0 13c4
00000050: b9f3 efc3 dcfa 9ac3 1a3d 85c3 57d2 9ec3
00000060: 38c1 bfc3 2e67 88c3 5c19 27c3 b047 1dc3
00000070: c244 3dc3 b165 4fc3 5b4d 62c3 997c 7ec3
00000080: 754c 83c3 5f06 78c3 9e38 90c3 3b99 a6c3
00000090: 8551 67c3 af42 3cc3 841b 2fc3 f0d9 4bc3
000000a0: b478 87c3 5660 b3c3 0be0 b7c3 6352 bec3
000000b0: 3d41 e2c3 efe8 12c4 fcc5 2ac4 b6e9 e042
000000c0: 4936 c142 a9d7 3a41 1b18 7ac2 c314 32c2
000000d0: 562d 9042 406f 0343 b337 0b43 6ea9 0e43
000000e0: 5c75 0e43 f7dc 1f43 02e4 2543 30a7 1b43
000000f0: a888 1443 8873 0743 4cf1 ac42 9e4e 1a42
00000100: 3ad7 ad41 448e 2841 94af 3cc2 9095 96c2
00000110: 5d43 9542 d28a 0843 b0cc 2c43 ea44 f942
00000120: e230 c242 92bd f042 d6f7 fa42 0eb3 e642
00000130: 69fe 0643 fd7b 1443 2bce 0e43 4498 c242
00000140: ec33 b642 628a e142 fa02 2843 297b 2c43
00000150: 78a3 2f43 ab12 2543 8b20 1e43 4fb3 2343
00000160: 392f 3a43 8252 1143 a030 f442 880b eb42
00000170: 00da ca42 a8d2 3542 babf cd41 7a9f 6141
00000180: 405b 30c1 5c82 01c2 d333 03c1 d8f1 3841
00000190: da22 d7c1 dee0 0fc2 be52 16c1 24bb c0c1
000001a0: 57d9 23c2 5438 14c2 75ea 1dc2 f428 1ec2
000001b0: ca8b 9ac1 31dc 3641 b40a c741 ae81 8641
000001c0: 2e82 0fbf eefc 61c2 834c a0c2 0c11 70c0
000001d0: 3995 f540 48bd 6840 342a 1842 4033 f7c1
000001e0: 5e50 64c2 68c3 a4c2 4fd8 c1c2 b5e4 c1c2
000001f0: 906a b4c2 9c1d 66c2 3739 8740 a60b 7741
00000200: 722b 0e41 d00c 31c1 97aa 13c2 ccb0 6dc2
00000210: c318 9ec2 bf8a a5c2 12ae 80c2 c4d7 12c2
00000220: d084 79c1 1c3d 5041 568e c441 2a53 e941
00000230: c482 aa41 cee1 6641 ba6a b641 f851 6542
00000240: 93bf 7442 2209 8f42 cc44 8542 9cc1 9542
00000250: dd03 9c42 a088 9942 22af b042 3afc a242
00000260: c8d3 8942 7a01 7e42 2df7 5e42 842b 0342
00000270: d6e9 0941 a0eb 1d41 bae9 2541 14a9 b8bf
00000280: cb42 adbf 75fc 3d41 7392 0142 fa31 2d42
00000290: ae50 6742 6e31 2b41 28e2 cbbe af15 2342
000002a0: 682b 8942 e415 8942 128e 7942 731d 7a42
000002b0: dc26 5642 6a19 c741 2414 cf41 0631 1142
000002c0: 6e76 2642 73ee 0e42 72ab dd41 5de5 d141
000002d0: c895 0642 8c3b 1842 af64 f241 00ce 8e42
000002e0: e044 b842 63b2 ae42 24da 1b42 7a9a 2c41
000002f0: a50a a43f 5437 6f41 828b fe41 5c72 b541
00000300: d059 b5bd 904c 32c1 1cf2 93c1 d753 b0c1
00000310: 6651 30be a0fe 43c1 1ced 17c2 fb83 36c2
00000320: a259 15c2 989e 3ec1 746b 5441 32b4 a640
00000330: fc27 aebf d0f7 8540 2e06 cb40 79d9 e441
00000340: 19db b941 6c7a cd3f 0af3 05c2 d6c8 51c2
00000350: e778 1fc2 66f5 b5c1 a5fa 04c2 dac4 3bc2
00000360: 207c 52c2 76fb 57c2 16a3 52c2 3587 00c2
00000370: b90c aac1 6c4d 8dc1 bc19 8ec1 a055 35c1
00000380: 2421 3ac1 3095 94c1 42e3 26c2 b41b 50c2
00000390: 2373 25c2 3088 dbc1 adb9 65c2 2a42 8dc2
000003a0: e1ee 82c2 d613 fbc1 308b 6ac1 b7f7 8fbe
000003b0: b9da d3c0 81c8 19c1 0e0e a4c1 4cc0 31c2
000003c0: 82cb 1cc2 6213 c3c1 8cf4 5ec1 ba9e 4ec1
000003d0: 62dc dac1 850e c6c1 ac36 64c1 9a06 13c1
000003e0: 45a4 1bc0 0a78 af3f f531 d840 a294 ebc0
000003f0: 8171 cfbe 6b22 0941 c40a 4342 d2ec 4a42
