output_mfcc/b30af064d08361d3bbe6bd37290211b7_seg3.npy (npy, 7460 bytes, 1 tensors)

array f4 [39, 47]
000000 c6 d5 b6 c3 31 8c b4 c3 ae e4 aa c3 60 b3 85 c3
       -365.6701 -361.09525 -341.78656 -267.40137
000010 b8 89 87 c3 0f c3 94 c3 bd 13 9b c3 ec 97 a6 c3
       -271.07593 -297.5239 -310.1542 -333.1869
000020 4e 32 ca c3 06 84 b3 c3 f2 f9 64 c3 b1 ff 1c c3
       -404.393 -359.03143 -228.97635 -156.9988
000030 cc 28 1c c3 e1 67 48 c3 a7 14 99 c3 ac 22 bd c3
       -156.15936 -200.40578 -306.16135 -378.27087
000040 70 ec cc c3 2a 34 b6 c3 a4 c8 a7 c3 b6 4e bc c3
       -409.84717 -364.40753 -335.5675 -376.61493
000050 02 ab d4 c3 ba 37 9a c3 82 45 8e c3 8a 60 a6 c3
       -425.336 -308.43536 -284.54303 -332.7542
000060 a2 c9 da c3 25 fd ce c3 b9 6d a5 c3 24 29 87 c3
       -437.57526 -413.9777 -330.8572 -270.3214
000070 2f b7 73 c3 a7 5c 6d c3 9d 8c 8d c3 0f 1f ad c3
       -243.71556 -237.36192 -283.09854 -346.24265
000080 d0 71 cc c3 76 6e 01 c4 30 74 10 c4 d4 e0 1b c4
       -408.88916 -517.72595 -577.8154 -623.51294
000090 3f 93 29 c4 20 cb 30 c4 3e aa 33 c4 11 bb 33 c4
       -678.3007 -707.1738 -718.66003 -718.9229
0000a0 ff 73 33 c4 74 dc 32 c4 4d 82 24 c4 9d 49 00 c4
       -717.81244 -715.4446 -658.03595 -513.1502
0000b0 5c ad d4 c3 81 82 d3 c3 05 a2 d6 c3 61 79 0d 43
       -425.35437 -423.01956 -429.26578 141.47414
0000c0 94 1d e4 42 0c d3 7a 42 3c bb 07 43 5c a8 3b 43
       114.05777 62.7061 135.73138 187.65765
0000d0 aa c2 36 43 f3 9f 1b 43 d0 d1 0b 43 ac 4c fd 42
       182.7604 155.6248 139.81958 126.64975
0000e0 89 a3 85 42 c6 0b e1 42 c4 bd 0a 43 5d de 13 43
       66.819405 112.522995 138.74127 147.8686
0000f0 fc 86 11 43 ee 50 ef 42 23 20 aa 42 a8 5f 64 42
       145.52728 119.658066 85.06277 57.093414
000100 de 44 ac 42 84 ee e6 42 e2 d6 12 43 60 cc 2d 43
       86.13451 115.46585 146.83939 173.79834
000110 82 7c 3a 43 81 18 43 43 be b2 43 43 82 03 14 43
       186.48636 195.09572 195.69821 148.0137
000120 e0 a8 89 42 18 a1 dd 42 da fe 12 43 34 10 16 43
       68.829834 110.81464 146.99551 150.0633
000130 54 fe 07 43 1a f5 0d 43 1b 99 38 43 b4 10 3f 43
       135.99347 141.95743 184.59807 191.06525
000140 6e 9c 3a 43 4b 09 29 43 d2 91 f1 42 ed 68 7d 42
       186.61105 169.0363 120.784805 63.352467
000150 c5 c5 00 42 88 cb 88 41 bc b5 85 41 f2 fc 7e 41
       32.193134 17.09938 16.713737 15.936754
000160 55 03 46 41 80 cb b0 42 7d 67 15 43 ca 74 0b 43
       12.3758135 88.39746 149.40425 139.4562
000170 0c ff 03 43 44 fb ce 42 11 66 00 42 4e 69 33 42
       131.99628 103.49075 32.099674 44.852837
000180 8a 8e 57 41 7e 85 a0 bf 68 89 1a c2 82 43 71 c2
       13.4723 -1.2540739 -38.634186 -60.315926
000190 3a 13 3f c2 7e 82 4e c1 74 d1 79 41 ee cd f9 c1
       -47.768776 -12.906858 15.613636 -31.225552
0001a0 6c b8 44 c2 71 15 ae c2 6e c5 c9 c2 9e e1 90 c2
       -49.1801 -87.04188 -100.885605 -72.44066
0001b0 62 9d f2 c1 f2 05 9a c1 88 a6 e1 c1 ae 8d 63 41
       -30.326847 -19.252903 -28.206314 14.22209
0001c0 30 78 31 41 be 0d 65 c0 b4 35 ef 40 3f c4 9b c1
       11.091843 -3.5789638 7.4753056 -19.470823
0001d0 ef 12 0a c2 b0 22 eb c1 f6 da 1f 41 36 78 e7 bf
       -34.51849 -29.391937 9.990957 -1.808356
0001e0 76 e0 a0 41 9e 9a 0d c1 02 25 aa c1 22 47 81 c1
       20.1096 -8.850248 -21.26807 -16.159733
0001f0 be f1 02 c1 68 2e bd bf 90 49 a9 41 3c 47 83 42
       -8.184019 -1.4779787 21.16092 65.63913
000200 db 74 82 42 48 61 43 42 92 72 0e 42 42 06 d7 41
       65.22823 48.845 35.611885 26.878056
000210 77 27 6d 41 f1 f9 66 41 a6 9f 62 41 0e 3f 12 41
       14.822135 14.436021 14.163977 9.140394
000220 78 59 8b 42 c4 a0 92 42 b2 7d 8e 42 16 88 84 42
       69.67474 73.313995 71.2455 66.26579
000230 6b 6f 91 42 50 61 df 41 b1 59 0b 42 04 a1 b1 41
       72.71761 27.922516 34.83759 22.20362
000240 0c 5f aa 3f da 84 24 41 1a 62 bd 41 fc 3e 58 42
       1.3310256 10.282434 23.672901 54.06151
000250 f2 96 a2 42 59 b6 a7 42 8f 80 bf 41 a8 25 18 41
       81.294815 83.85615 23.937773 9.509193
000260 a3 e1 bd 41 76 ff 09 42 1d 31 cc 41 4a 9d da 41
       23.735174 34.499474 25.523981 27.326801
000270 15 12 58 41 ce 14 0c 42 d6 1d cd 42 02 80 ef 42
       13.504415 35.020317 102.55827 119.750015
000280 b0 c9 e8 42 b6 39 aa 41 18 bb 24 40 33 51 14 41
       116.39392 21.27818 2.5739193 9.269824
000290 24 c3 5b 41 ae 89 25 41 fc e9 8b 42 02 f6 da 42
       13.735142 10.346113 69.957 109.480484
0002a0 18 84 c8 42 ce 49 9d 42 4c 9b 69 42 18 43 34 42
       100.257996 78.64415 58.401657 45.06552
0002b0 3a d1 02 42 96 b3 ef 41 1d 97 03 40 32 79 86 c1
       32.704323 29.962688 2.0560982 -16.809177
0002c0 a0 d6 62 c1 88 4a fc 40 f4 56 9d 41 3e f6 37 41
       -14.177399 7.884098 19.667458 11.497618
0002d0 32 8c 33 41 ae c4 5d 41 42 83 72 41 4d 86 6a 42
       11.221727 13.8605175 15.157045 58.631153
0002e0 e5 70 bd 42 da 18 c2 42 fd c2 b7 42 f8 fd 4a 42
       94.7205 97.04854 91.88084 50.748016
0002f0 26 1c ec bf fc 94 b0 c1 57 c7 ce c1 d6 6a 1f c2
       -1.844609 -22.072746 -25.847334 -39.854332
000300 da 27 1e c2 fe f0 e6 c1 7e cb 01 c2 d2 01 04 c2
       -39.538918 -28.867672 -32.448723 -33.001778
000310 bc cf 9e c1 15 ff 0d 41 c0 eb 55 c1 46 ad f8 c1
       -19.851433 8.874776 -13.370056 -31.084606
000320 0f 2f 08 c2 c2 85 40 c1 a6 5a 82 bf 16 94 8d c0
       -34.045956 -12.032656 -1.0183914 -4.424327
000330 da 92 81 c1 5e a6 95 c1 25 7e 8e c1 0e b7 2f c1
       -16.196705 -18.706234 -17.811594 -10.982191
000340 9a 8b f4 c0 41 2c ec c1 f6 ad 0f c2 04 d9 0b c2
       -7.642041 -29.521608 -35.919884 -34.96193
000350 02 1d 23 c1 28 2d 76 41 16 01 13 c1 f8 d7 12 c2
       -10.194582 15.386024 -9.187765 -36.710907
000360 f2 cc 20 c2 05 88 f9 c1 4c 4e 93 c1 34 d7 64 c1
       -40.20014 -31.191416 -18.41323 -14.30254
000370 ca f8 ba c1 30 8c 09 c2 3a 68 11 c2 b8 22 09 c2
       -23.371479 -34.3869 -36.351784 -34.283905
000380 49 9f cd c0 60 a2 44 41 f8 af f5 40 06 c1 f6 40
       -6.425694 12.289642 7.6777306 7.7110624
000390 22 6e 01 41 96 e8 ab 40 6f 95 05 42 0f 86 00 c2
       8.089388 5.372142 33.39593 -32.130917
0003a0 08 9e 61 c2 42 6c 56 c2 58 27 9d c0 46 81 5a 41
       -56.404327 -53.60572 -4.9110527 13.656561
0003b0 4e 11 f2 41 04 09 f9 41 e7 e1 ee 41 92 c2 01 42
       30.25845 31.129402 29.860304 32.44001
0003c0 b8 d8 cd 41 a4 96 0e 41 58 c3 f2 c0 5e 3c 2d c1
       25.73082 8.9117775 -7.5863457 -10.827238
0003d0 20 77 58 41 74 29 c8 40 e9 0c 37 41 41 7f 6a 41
       13.529083 6.25506 11.440652 14.656068
0003e0 bd b0 01 41 7c 49 80 41 cb 5e 0f 42 f9 a7 c4 41
       8.105649 16.035881 35.84257 24.582018
0003f0 5a 8f fe 40 ec 8b 3d c0 80 62 f2 c0 36 64 98 40
       7.954999 -2.9616652 -7.574524 4.762233
