output_mfcc/b30af064d08361d3bbe6bd37290211b7_seg5.npy (npy, 7460 bytes, 1 tensors)

array f4 [39, 47]
000000 a1 d9 b6 c3 c8 0e b0 c3 ad b4 90 c3 fb 45 55 c3
       -365.70023 -352.11548 -289.41153 -213.27336
000010 f1 2e 4b c3 77 68 65 c3 dc 1c 8a c3 ac 58 af c3
       -203.18336 -229.40807 -276.22546 -350.69275
000020 63 f2 c3 c3 4e 32 ca c3 54 df bf c3 40 03 9d c3
       -391.89365 -404.393 -383.74475 -314.0254
000030 aa 7d 94 c3 cc 8e a9 c3 9e d6 dc c3 49 41 05 c4
       -296.98175 -339.1156 -441.6767 -533.0201
000040 49 62 1b c4 32 5a 34 c4 ec 0d 3b c4 2f 90 3b c4
       -621.5357 -721.4093 -748.2175 -750.25287
000050 01 c0 3b c4 d6 f6 3b c4 34 87 3c c4 10 f3 3c c4
       -751.00006 -751.8568 -754.11255 -755.79785
000060 37 e5 3d c4 8e ec 3d c4 8e ec 3d c4 8e ec 3d c4
       -759.5815 -759.69617 -759.69617 -759.69617
000070 8e ec 3d c4 8e ec 3d c4 8e ec 3d c4 8e ec 3d c4
       -759.69617 -759.69617 -759.69617 -759.69617
000080 8e ec 3d c4 8e ec 3d c4 8e ec 3d c4 8e ec 3d c4
       -759.69617 -759.69617 -759.69617 -759.69617
000090 8e ec 3d c4 8e ec 3d c4 8e ec 3d c4 8e ec 3d c4
       -759.69617 -759.69617 -759.69617 -759.69617
0000a0 8e ec 3d c4 8e ec 3d c4 8e ec 3d c4 8e ec 3d c4
       -759.69617 -759.69617 -759.69617 -759.69617
0000b0 8e ec 3d c4 8e ec 3d c4 8e ec 3d c4 54 40 db 41
       -759.69617 -759.69617 -759.69617 27.40641
0000c0 3a b0 dc 41 da 19 90 42 77 db a9 42 5a d4 a6 42
       27.586048 72.05049 84.92864 83.41475
0000d0 8c 7c b5 42 02 33 db 42 8f 41 f7 42 f3 62 d0 42
       90.743256 109.599625 123.628044 104.19326
0000e0 6c dd 22 42 09 c8 1d c2 0e 7f 5b 41 22 c9 94 42
       40.716232 -39.445347 13.718519 74.39284
0000f0 aa 88 d2 42 ca 82 cb 42 98 da c9 42 16 63 9e 42
       105.26692 101.75545 100.92694 79.19353
000100 38 7c c4 41 68 f0 6e 41 73 1a 4b 41 78 5f 3d 41
       24.560654 14.933693 12.693957 11.835808
000110 b5 d1 2a 41 a5 f1 f0 40 3a 35 a7 40 1a 35 1b 3e
       10.676198 7.5294976 5.2252474 0.15156975
000120 00 00 00 00 00 00 00 00 00 00 00 00 00 00 00 00
       0.0 0.0 0.0 0.0
000130 00 00 00 00 00 00 00 00 00 00 00 00 00 00 00 00
       0.0 0.0 0.0 0.0
000140 00 00 00 00 00 00 00 00 00 00 00 00 00 00 00 00
       0.0 0.0 0.0 0.0
000150 00 00 00 00 00 00 00 00 00 00 00 00 00 00 00 00
       0.0 0.0 0.0 0.0
000160 00 00 00 00 00 00 00 00 00 00 00 00 00 00 00 00
       0.0 0.0 0.0 0.0
000170 00 00 00 00 00 00 00 00 d5 83 7a 42 f3 e3 6b 42
       0.0 0.0 62.628742 58.972607
000180 d9 2f 0d 41 f2 4b 3e c1 6b 82 59 c1 2b 6f 92 c1
       8.824182 -11.893541 -13.59434 -18.304281
000190 fd bc 44 c1 1c 82 f3 3e 62 12 1c 42 fc 41 a3 42
       -12.29614 0.47560203 39.017952 81.628876
0001a0 32 63 0d 42 a2 6a 18 42 fe 36 d7 41 32 29 ce 40
       35.34687 38.104134 26.901852 6.4425287
0001b0 78 b8 d5 41 cd d2 33 42 86 13 1c 42 66 ec 26 41
       26.715073 44.95586 39.019066 10.432714
0001c0 5e 28 47 41 08 08 2d 41 50 2a 28 41 f4 f1 17 41
       12.447355 10.814461 10.51033 9.496571
0001d0 12 37 cf 40 0c d3 8c 40 a9 c1 f7 3d 00 00 00 00
       6.4754725 4.4007626 0.120974846 0.0
0001e0 00 00 00 00 00 00 00 00 00 00 00 00 00 00 00 00
       0.0 0.0 0.0 0.0
0001f0 00 00 00 00 00 00 00 00 00 00 00 00 00 00 00 00
       0.0 0.0 0.0 0.0
000200 00 00 00 00 00 00 00 00 00 00 00 00 00 00 00 00
       0.0 0.0 0.0 0.0
000210 00 00 00 00 00 00 00 00 00 00 00 00 00 00 00 00
       0.0 0.0 0.0 0.0
000220 00 00 00 00 00 00 00 00 00 00 00 00 00 00 00 00
       0.0 0.0 0.0 0.0
000230 00 00 00 00 16 a1 6f 42 ae eb 9a 42 a0 8c c8 42
       0.0 59.90731 77.46031 100.27466
000240 b2 e5 d2 42 d4 86 bf 42 97 94 9d 42 fa 3d 8d 42
       105.44862 95.763336 78.790215 70.62105
000250 23 43 95 42 18 bb 80 42 fc 58 3e 42 e8 d6 14 42
       74.63113 64.36542 47.5869 37.20987
000260 52 5d 0f 42 96 54 69 42 ea 5a bb 42 d4 97 eb 42
       35.841133 58.332603 93.67757 117.79654
000270 ee b1 e3 42 1e f1 89 42 04 7a c0 41 e6 78 19 41
       113.84752 68.97093 24.059578 9.592016
000280 c2 22 00 41 6e f5 07 41 81 3d f6 40 12 ca 9b 40
       8.008486 8.497419 7.695008 4.868417
000290 ce 9c 49 40 de 61 9a 3d 00 00 00 00 00 00 00 00
       3.1501956 0.07538198 0.0 0.0
0002a0 00 00 00 00 00 00 00 00 00 00 00 00 00 00 00 00
       0.0 0.0 0.0 0.0
0002b0 00 00 00 00 00 00 00 00 00 00 00 00 00 00 00 00
       0.0 0.0 0.0 0.0
0002c0 00 00 00 00 00 00 00 00 00 00 00 00 00 00 00 00
       0.0 0.0 0.0 0.0
0002d0 00 00 00 00 00 00 00 00 00 00 00 00 00 00 00 00
       0.0 0.0 0.0 0.0
0002e0 00 00 00 00 00 00 00 00 00 00 00 00 00 00 00 00
       0.0 0.0 0.0 0.0
0002f0 7e 2b 09 41 40 3c 78 41 2a f5 80 c1 e8 a8 2b c2
       8.573118 15.514709 -16.119709 -42.914948
000300 8e d1 3e c2 5a 74 16 c2 1d d7 c9 c1 cd 55 cb c1
       -47.704643 -37.613625 -25.230036 -25.416895
000310 4e b4 0b c1 28 c7 70 40 fa d0 7f 41 d4 a2 36 be
       -8.73152 3.7621555 15.98852 -0.17835552
000320 00 c1 af c0 2c 2d 87 c1 d8 16 9b c1 f8 f8 13 c2
       -5.4923096 -16.897057 -19.386154 -36.993134
000330 ef e0 27 c2 44 12 d9 c0 86 bd ac 40 da 8d 96 40
       -41.96966 -6.7834797 5.398135 4.704816
000340 22 eb c1 40 62 c5 af 40 68 4a 3a 40 ba cb d1 3f
       6.0599527 5.4928446 2.9107914 1.6390297
000350 91 69 b3 3c 00 00 00 00 00 00 00 00 00 00 00 00
       0.021900924 0.0 0.0 0.0
000360 00 00 00 00 00 00 00 00 00 00 00 00 00 00 00 00
       0.0 0.0 0.0 0.0
000370 00 00 00 00 00 00 00 00 00 00 00 00 00 00 00 00
       0.0 0.0 0.0 0.0
000380 00 00 00 00 00 00 00 00 00 00 00 00 00 00 00 00
       0.0 0.0 0.0 0.0
000390 00 00 00 00 00 00 00 00 00 00 00 00 00 00 00 00
       0.0 0.0 0.0 0.0
0003a0 00 00 00 00 00 00 00 00 00 00 00 00 3e 62 87 41
       0.0 0.0 0.0 16.92297
0003b0 9a 82 0a 41 fc 12 ca c1 5c ab c7 c1 be c5 c2 c1
       8.656885 -25.25927 -24.958672 -24.346554
0003c0 88 74 80 c1 de 01 2b c1 40 25 6c c1 60 98 ba c1
       -16.0569 -10.687956 -14.759094 -23.324402
0003d0 43 dc 51 c0 dc 1a a5 41 20 92 45 bf 08 d6 e6 c0
       -3.2790687 20.638115 -0.77176094 -7.213627
0003e0 3a cb ee bf 17 21 a1 c1 ef 7b 33 c2 7a 7a 35 c2
       -1.865577 -20.141157 -44.87103 -45.369606
0003f0 22 1a a6 c1 1c 40 90 3f d2 62 b2 3f d3 86 60 40
       -20.76276 1.1269565 1.3936408 3.508229
