output_mfcc/b31de3b16716ba698dc1a9abcba7a533_seg5.npy (npy, 7460 bytes, 1 tensors)

array f4 [39, 47]
000000 b5 00 8a c3 83 92 78 c3 f5 95 81 c3 09 ae 9d c3
       -276.00552 -248.57231 -259.17154 -315.35965
000010 9d 44 ae c3 61 54 93 c3 12 e6 91 c3 39 4d ad c3
       -348.53604 -294.6592 -291.79742 -346.6033
000020 cf a3 b3 c3 86 49 8d c3 f5 2f 7b c3 19 79 75 c3
       -359.27975 -282.5744 -251.18733 -245.47304
000030 61 ab 8a c3 60 24 a5 c3 ee 65 ae c3 a1 09 bc c3
       -277.3389 -330.28418 -348.79633 -376.07523
000040 bd 6d c9 c3 67 01 e3 c3 e3 39 0b c4 30 1b 2b c4
       -402.85733 -454.01096 -556.9045 -684.4248
000050 9f 55 39 c4 24 7b 41 c4 31 2f 45 c4 e2 25 46 c4
       -741.3378 -773.9241 -788.73737 -792.5919
000060 c2 f3 46 c4 dd 41 47 c4 dd 41 47 c4 dd 41 47 c4
       -795.8087 -797.0291 -797.0291 -797.0291
000070 dd 41 47 c4 dd 41 47 c4 dd 41 47 c4 dd 41 47 c4
       -797.0291 -797.0291 -797.0291 -797.0291
000080 dd 41 47 c4 dd 41 47 c4 dd 41 47 c4 dd 41 47 c4
       -797.0291 -797.0291 -797.0291 -797.0291
000090 dd 41 47 c4 dd 41 47 c4 dd 41 47 c4 dd 41 47 c4
       -797.0291 -797.0291 -797.0291 -797.0291
0000a0 dd 41 47 c4 dd 41 47 c4 dd 41 47 c4 dd 41 47 c4
       -797.0291 -797.0291 -797.0291 -797.0291
0000b0 dd 41 47 c4 dd 41 47 c4 dd 41 47 c4 72 ef 46 43
       -797.0291 -797.0291 -797.0291 198.93533
0000c0 11 3a 33 43 0e fd f8 42 bc 41 44 42 c6 1a 0e 42
       179.22682 124.49425 49.064194 35.526146
0000d0 2e 1b e9 42 63 e6 2c 43 58 09 3f 43 98 74 20 43
       116.553085 172.89995 191.0365 160.45544
0000e0 ab e3 2b 43 50 77 23 43 c8 ab 29 43 50 85 4a 43
       171.88933 163.46606 169.67102 202.52075
0000f0 6d ce 6b 43 b9 9b 74 43 9d 58 64 43 37 bf 4b 43
       235.80635 244.60829 228.34615 203.74693
000100 4c f0 34 43 ea 44 15 43 12 6a d2 42 10 5b 83 42
       180.93866 149.2692 105.20717 65.67786
000110 60 99 e8 41 06 27 31 41 9e 73 c7 40 72 af dc 3f
       29.07489 11.072027 6.2328634 1.7241042
000120 00 00 00 00 00 00 00 00 00 00 00 00 00 00 00 00
       0.0 0.0 0.0 0.0
000130 00 00 00 00 00 00 00 00 00 00 00 00 00 00 00 00
       0.0 0.0 0.0 0.0
000140 00 00 00 00 00 00 00 00 00 00 00 00 00 00 00 00
       0.0 0.0 0.0 0.0
000150 00 00 00 00 00 00 00 00 00 00 00 00 00 00 00 00
       0.0 0.0 0.0 0.0
000160 00 00 00 00 00 00 00 00 00 00 00 00 00 00 00 00
       0.0 0.0 0.0 0.0
000170 00 00 00 00 00 00 00 00 9a 7b 75 c2 10 99 50 c2
       0.0 0.0 -61.370705 -52.149475
000180 8a 48 bc c1 da ff 86 c1 18 ed d1 c1 26 a2 49 40
       -23.53542 -16.874928 -26.240768 3.1505218
000190 ba 6e ad 41 1e ca cd 41 14 76 c2 41 e5 32 4a c1
       21.679066 25.72369 24.307655 -12.637425
0001a0 96 75 45 c2 d8 54 5e c2 a3 13 e2 c1 d8 75 30 c1
       -49.36483 -55.582855 -28.259588 -11.02877
0001b0 94 1a e1 c1 4b 1d 05 c2 ce ac b1 c1 85 3b 23 c1
       -28.137978 -33.278606 -22.209377 -10.202031
0001c0 4c a6 ab 40 42 80 3a 42 ee 65 17 42 67 b4 9e 41
       5.36405 46.62525 37.84954 19.838087
0001d0 cf 37 15 41 21 a4 c3 40 4b fa db 3f 00 00 00 00
       9.326125 6.1137853 1.7185758 0.0
0001e0 00 00 00 00 00 00 00 00 00 00 00 00 00 00 00 00
       0.0 0.0 0.0 0.0
0001f0 00 00 00 00 00 00 00 00 00 00 00 00 00 00 00 00
       0.0 0.0 0.0 0.0
000200 00 00 00 00 00 00 00 00 00 00 00 00 00 00 00 00
       0.0 0.0 0.0 0.0
000210 00 00 00 00 00 00 00 00 00 00 00 00 00 00 00 00
       0.0 0.0 0.0 0.0
000220 00 00 00 00 00 00 00 00 00 00 00 00 00 00 00 00
       0.0 0.0 0.0 0.0
000230 00 00 00 00 ca 07 28 c1 e9 ca 9f c1 6d a3 bf c1
       0.0 -10.501902 -19.974077 -23.954798
000240 d9 1f 44 c0 05 69 a2 3f 4a 6f 53 41 f2 13 80 40
       -3.0644438 1.26883 13.21467 4.0024347
000250 91 f7 bf 3e 22 81 a6 c0 c0 ae a4 c1 0a 8a 69 c1
       0.37493566 -5.2032633 -20.585327 -14.596201
000260 1b ee 17 c1 ae 8c 25 40 45 a3 b4 be 7f 31 96 c0
       -9.495631 2.5867114 -0.35280815 -4.693542
000270 f6 e0 1d 40 8c 6f 2e 41 25 e2 2a 41 9e 0a 0f 3e
       2.4668555 10.902233 10.680211 0.13968894
000280 ed 98 5b 40 5b d5 09 41 14 f1 0b 41 5c 3c e1 40
       3.4312088 8.614589 8.746357 7.038618
000290 70 fe bd 40 58 cd da 3f 00 00 00 00 00 00 00 00
       5.9373093 1.7093916 0.0 0.0
0002a0 00 00 00 00 00 00 00 00 00 00 00 00 00 00 00 00
       0.0 0.0 0.0 0.0
0002b0 00 00 00 00 00 00 00 00 00 00 00 00 00 00 00 00
       0.0 0.0 0.0 0.0
0002c0 00 00 00 00 00 00 00 00 00 00 00 00 00 00 00 00
       0.0 0.0 0.0 0.0
0002d0 00 00 00 00 00 00 00 00 00 00 00 00 00 00 00 00
       0.0 0.0 0.0 0.0
0002e0 00 00 00 00 00 00 00 00 00 00 00 00 00 00 00 00
       0.0 0.0 0.0 0.0
0002f0 41 d9 8a c1 0a 68 e8 c1 57 9f e5 c1 f2 ba b6 c1
       -17.356081 -29.0508 -28.702803 -22.841282
000300 70 ee 16 c2 0e a2 57 c2 c3 39 80 c2 5b 3f 75 c2
       -37.73285 -53.908257 -64.112816 -61.31187
000310 cb e8 39 c2 8f 18 68 c2 84 0f 8e c2 a2 dc 9d c2
       -46.477337 -58.023983 -71.030304 -78.93092
000320 30 d7 a3 c2 cf 74 9f c2 05 b4 80 c2 d5 39 4d c2
       -81.92029 -79.72814 -64.3516 -51.306477
000330 71 2c 00 c2 71 e4 a4 c1 42 fd 81 c1 50 bb c8 c1
       -32.0434 -20.611544 -16.248661 -25.091461
000340 60 23 3c c1 4e 75 9f be ee 13 9b 40 0c 35 b7 40
       -11.758636 -0.31144184 4.846183 5.7252254
000350 8e 29 d9 3f 00 00 00 00 00 00 00 00 00 00 00 00
       1.6965806 0.0 0.0 0.0
000360 00 00 00 00 00 00 00 00 00 00 00 00 00 00 00 00
       0.0 0.0 0.0 0.0
000370 00 00 00 00 00 00 00 00 00 00 00 00 00 00 00 00
       0.0 0.0 0.0 0.0
000380 00 00 00 00 00 00 00 00 00 00 00 00 00 00 00 00
       0.0 0.0 0.0 0.0
000390 00 00 00 00 00 00 00 00 00 00 00 00 00 00 00 00
       0.0 0.0 0.0 0.0
0003a0 00 00 00 00 00 00 00 00 00 00 00 00 2e 6c c0 40
       0.0 0.0 0.0 6.0132055
0003b0 ea 15 5b 41 7a 71 8b 41 ea ea 20 41 8e 1e 3d bf
       13.69285 17.430408 10.057352 -0.7387475
0003c0 71 be 8e 41 43 1b 9e 41 be e8 6c 41 ab c4 e6 40
       17.842989 19.763311 14.806822 7.2115073
0003d0 62 8e 93 41 8a 8b f1 41 8e a3 c4 41 72 a3 ff 40
       18.444523 30.193134 24.57986 7.988702
0003e0 51 43 37 c1 18 13 57 c1 40 ff 2d 40 1b b6 59 41
       -11.453935 -13.442162 2.7187042 13.606959
0003f0 29 a6 9b 41 85 50 bd 41 86 55 ac c0 d0 62 83 c1
       19.456133 23.664316 -5.38544 -16.423248
