output_mfcc/b3543def02513f36ff9022c9a403d0d8_seg3.npy (npy, 7460 bytes, 1 tensors)

array f4 [39, 47]
000000 44 fe 38 c4 5c 8b 38 c4 c6 43 37 c4 01 d7 12 c4
       -739.9729 -738.1775 -733.05896 -587.35944
000010 b2 05 c7 c3 f6 2e 9d c3 40 f9 93 c3 10 7a b1 c3
       -398.0445 -314.36688 -295.94727 -354.9536
000020 06 50 e9 c3 b8 59 cb c3 da 40 86 c3 ee aa 79 c3
       -466.62518 -406.70093 -268.50665 -249.6677
000030 7a 80 8f c3 33 0d 85 c3 07 e9 85 c3 b6 47 9d c3
       -287.00372 -266.10312 -267.82053 -314.56024
000040 20 b8 b5 c3 05 03 c1 c3 96 aa af c3 14 53 85 c3
       -363.43848 -386.0236 -351.3327 -266.64905
000050 be 58 72 c3 56 6c 92 c3 8b 75 b2 c3 37 6c 98 c3
       -242.34665 -292.84637 -356.9183 -304.84543
000060 6d c1 71 c3 dc fe 7c c3 a9 e8 91 c3 58 7b a1 c3
       -241.75557 -252.99554 -291.81766 -322.96362
000070 a4 90 a1 c3 c7 b1 95 c3 0a b3 6e c3 86 94 54 c3
       -323.13 -299.3889 -238.69937 -212.58017
000080 ba 03 85 c3 50 b6 ac c3 67 1e 7b c3 2e c5 40 c3
       -266.0291 -345.42432 -251.11876 -192.77023
000090 a8 cd 46 c3 f2 fc 6e c3 31 90 9b c3 18 3b a2 c3
       -198.80334 -238.98807 -311.1265 -324.46167
0000a0 0f 00 96 c3 d8 86 a9 c3 e3 7b e2 c3 fb e9 11 c4
       -300.00046 -339.05347 -452.96786 -583.65594
0000b0 0a 43 2c c4 6d 96 36 c4 09 2d 39 c4 3a 73 fd 3f
       -689.0475 -730.3504 -740.7037 1.9800789
0000c0 de 33 b9 40 88 8d e2 40 c8 db a6 42 fc db 0f 43
       5.7875814 7.079777 83.42926 143.85931
0000d0 ae f7 11 43 74 53 18 43 c4 36 29 43 60 b4 09 43
       145.9675 152.32599 169.21393 137.70459
0000e0 13 79 e8 42 d6 55 0a 43 d2 a4 18 43 ea 29 1a 43
       116.23647 138.3353 152.64383 154.16373
0000f0 7c 54 12 43 ec 11 15 43 a0 a2 2d 43 c9 9f 30 43
       146.33002 149.07 173.63525 176.62416
000100 ca 51 31 43 12 d7 bb 42 b6 84 62 42 9e ef 8b 42
       177.31949 93.92006 56.6296 69.968
000110 d9 3a 9e 42 14 62 81 41 60 0a e5 c0 64 cb 5c 42
       79.11494 16.17289 -7.1575165 55.198624
000120 3e fe d6 42 6a 65 e9 42 3a 4c db 42 ac 8c cc 42
       107.49657 116.698074 109.64888 102.27475
000130 46 ba d3 42 b8 31 05 43 06 03 06 43 98 55 03 43
       105.863815 133.19421 134.01181 131.33435
000140 76 f8 bf 42 6e 8b cd 42 da cc f5 42 2b 1d 04 43
       95.985275 102.77232 122.9001 132.11394
000150 2c 42 fe 42 03 e9 05 43 4c 9d f0 42 86 3c e1 42
       127.12924 133.9102 120.30722 112.61821
000160 64 c9 f7 42 a8 a0 f9 42 3f d1 9b 42 62 96 40 42
       123.89334 124.81378 77.90868 48.14686
000170 35 cb a5 41 ea bb 19 41 90 e0 af 3f 60 c9 3f 40
       20.724222 9.608377 1.3740406 2.996666
000180 be 17 2c c1 1e 98 9e 40 b0 c6 ef c1 96 2a 64 c2
       -10.755796 4.956069 -29.972015 -57.041588
000190 56 09 7f c2 0e 5f 4f c2 3d 18 4d 40 96 53 a8 41
       -63.759117 -51.842827 3.2046044 21.040813
0001a0 85 5f a8 c1 5c d6 43 c2 3c cf 86 c2 60 a5 86 c2
       -21.04664 -48.959335 -67.404755 -67.323
0001b0 dc b2 7b c2 dd cd f7 c1 90 00 ce 41 5a bf 2b 42
       -62.924667 -30.97552 25.750275 42.936867
0001c0 fa 18 a4 41 82 28 3e 3f d1 df 62 c0 ee 16 61 3f
       20.512196 0.7428056 -3.5449107 0.8792561
0001d0 76 ae 65 42 16 bc 2e 42 9c 9d 2c 41 7e 0f 03 c2
       57.420372 43.683678 10.788479 -32.76513
0001e0 18 27 34 c2 a6 c7 31 c2 f0 8a 1b c2 34 f5 11 c2
       -45.038177 -44.44497 -38.88568 -36.489456
0001f0 0a 84 5a c2 cc 29 67 c2 b7 ea 16 c2 72 1e e6 c1
       -54.628944 -57.790817 -37.729214 -28.764866
000200 6e 8d 8d c2 80 a2 c8 c2 df 0f f6 c2 06 f2 e1 c2
       -70.77623 -100.31738 -123.031 -112.9727
000210 f4 96 88 c2 f6 40 46 c2 8d 17 75 c2 f2 8e 7e c2
       -68.29483 -49.56344 -61.273 -63.639595
000220 58 59 85 c2 d6 d7 68 c2 dc b6 30 40 9e d4 40 41
       -66.6745 -58.210777 2.7611609 12.0519085
000230 84 41 0e 41 da 6e f5 40 32 fb f3 40 8c cd 57 c0
       8.890995 7.6697817 7.6244135 -3.3719206
000240 68 78 4e 42 fe 04 9d 42 c8 b0 a7 42 e7 02 91 42
       51.617584 78.50975 83.845276 72.50567
000250 78 36 71 42 53 b0 44 41 ae f1 d4 c1 ca 86 38 40
       60.303192 12.293048 -26.618008 2.8832269
000260 0d 16 e0 41 58 00 37 42 1e 4a 03 42 36 75 79 41
       28.010767 45.750336 32.82238 15.591116
000270 3c 09 46 41 61 ef 8e 41 68 da 7c 41 2e b1 e6 40
       12.3772545 17.866884 15.803322 7.2091284
000280 98 e4 57 42 46 de a4 42 75 44 be 42 64 3f b2 42
       53.973236 82.43413 95.133705 89.12381
000290 9c aa a1 42 e3 a1 6f 42 3b 21 8c 42 67 f6 95 42
       80.83322 59.908092 70.0649 74.981255
0002a0 4c 23 98 42 87 49 94 42 98 18 74 42 90 f8 bd 41
       76.06894 74.14361 61.024017 23.746368
0002b0 02 e8 35 41 92 6a 1c 40 64 eb 81 c1 54 9a c2 c1
       11.369143 2.4440045 -16.239937 -24.325356
0002c0 e0 92 2e c0 41 57 60 41 80 f3 bf 41 19 8b 04 42
       -2.7277145 14.021302 23.993896 33.135838
0002d0 ce 69 46 42 d6 5d 01 42 64 a6 6f 41 f4 d8 53 c0
       49.603325 32.341637 14.978123 -3.3101168
0002e0 f4 ba a0 c1 a0 ab d4 c0 fb 4e 7b 40 28 fd fa 40
       -20.091286 -6.6459503 3.9266956 7.843403
0002f0 96 10 0a c0 dc 08 51 40 20 54 77 41 60 47 04 c1
       -2.1572623 3.2661657 15.458038 -8.267426
000300 62 dd ab c1 f6 29 95 c1 ee 56 40 c1 64 e6 09 c0
       -21.483097 -18.645489 -12.021223 -2.154687
000310 42 36 21 c1 9e 09 5e c2 91 86 57 c2 80 4e 67 c2
       -10.075747 -55.50939 -53.881413 -57.82666
000320 44 d2 43 c2 f4 f4 6e c2 84 c4 91 c2 3d 68 a5 c2
       -48.955338 -59.739212 -72.88382 -82.70359
000330 3c 26 af c2 a2 f7 aa c2 eb f7 d1 c1 52 68 25 c0
       -87.57468 -85.48366 -26.246054 -2.5844922
000340 68 09 7e be d7 3c 8d 3f 70 cf ea 40 8c bb 27 be
       -0.24808276 1.1034192 7.337822 -0.16380137
000350 b2 e8 e2 3f fe 3a 43 c1 52 a6 90 c1 c4 91 3d c1
       1.7727263 -12.201902 -18.081211 -11.848087
000360 51 b6 84 c1 6e 36 ec c1 64 85 3d c2 72 00 2a c2
       -16.589022 -29.526577 -47.380264 -42.500435
000370 74 3b f2 c1 f1 1a 13 c1 5c 46 b6 c1 50 18 1c c2
       -30.27903 -9.1940775 -22.784355 -39.023743
000380 9a e9 36 c2 18 5b 0b c2 5c 60 d3 c1 85 dc f0 c1
       -45.728127 -34.83896 -26.42205 -30.107676
000390 41 fa 2f c1 0a 1f 46 40 e3 7b fc 3f e4 df 1a c1
       -10.998597 3.0956445 1.9725307 -9.679661
0003a0 4b 21 8e c0 c8 f6 70 be ea 92 d4 40 26 c2 f3 be
       -4.441564 -0.2353164 6.642934 -0.4760906
0003b0 30 12 8e 40 5e ea 5a 41 0a 11 04 c1 14 fd ae 40
       4.43972 13.682219 -8.25416 5.4683933
0003c0 44 80 1e 41 bd 01 e2 40 fe 70 a8 c0 79 90 2f c1
       9.906315 7.062712 -5.263793 -10.972772
0003d0 24 ff b1 c0 ca b4 47 41 6e 7b ad 41 96 4c 7f 41
       -5.562395 12.481638 21.685268 15.956198
0003e0 46 2a df 41 4d 4c ff 41 5a ff 9f 41 c8 2d 71 41
       27.895641 31.912256 19.999683 15.073677
0003f0 86 db a3 41 a4 a5 94 41 00 1c 86 41 5a 00 3f 41
       20.48219 18.58088 16.763672 11.937586
