output_mfcc/b413667edd0894d8923c761b20cbe27b_seg0.npy (npy, 7460 bytes, 1 tensors)

array f4 [39, 47]
-833.114 -832.5053 -832.26447 -832.95184 -832.84515 -832.4083 -830.3847 -829.4316
-832.83124 -830.3256 -827.03784 -827.84955 -826.4855 -570.1449 -384.1971 -313.12674
-347.73605 -428.74756 -391.338 -312.8346 -271.95282 -242.87204 -238.22418 -250.39279
-286.40952 -310.41736 -319.82642 -348.74588 -309.15714 -284.1319 -298.96988 -343.96048
-415.8239 -464.09912 -395.71756 -323.53186 -312.262 -344.67398 -354.87585 -330.1329
-349.9205 -394.09283 -454.93906 -539.9597 -637.3841 -701.3693 -751.08325 0.015329845
0.87399775 1.2033008 0.24384879 0.39530864 1.0112863 3.8509731 5.1764536 0.41108835
3.7591193 7.913 7.007115 8.704937 -20.573654 20.131357 77.63674 123.49187
154.11661 159.79312 165.7926 155.06512 144.37173 128.4406 87.84508 48.89278
37.381687 75.045906 141.60123 162.71451 160.90913 173.87683 190.90009 183.9455
157.5012 158.39334 162.5605 156.94519 164.7745 188.24887 208.73093 218.79335
202.05887 185.31012 169.34082 151.62708 129.14148 88.61798 0.015161924 0.86735284
1.1663847 0.2412249 0.3942157 1.0050207 3.7787962 5.039368 0.39877218 3.2227778
6.0707664 5.829841 7.094453 -59.1866 -16.818619 0.11563164 -0.3044104 20.80611
20.284672 -10.168974 -38.645676 -65.68791 -83.71663 -53.711334 -16.646679 4.6684933
-1.8945726 -7.8715277 -31.548319 -64.26032 -72.18938 -47.414 -25.432419 -5.2447214
-12.624477 -42.225903 -66.39699 -52.994217 -42.00135 -56.24781 -59.22016 -44.618153
-21.868477 -10.181612 5.1634884 27.174143 34.24424 0.014878461 0.8563578 1.1144463
0.23686829 0.3924027 0.9946496 3.6602144 4.8198495 0.37852758 2.510903 3.7076788
4.3864417 5.4727535 18.172256 48.034737 37.897743 34.66481 26.720863 30.24246
27.251415 19.340343 29.44355 51.168926 62.684547 70.389496 75.75324 57.73153
30.890984 6.9811897 14.880451 22.35347 28.46593 41.188076 22.404718 1.5227056
7.0569496 12.133411 25.850334 32.271553 11.581963 8.41871 11.569384 9.590943
-0.78178275 -21.16943 -24.75753 0.37871665 0.014488904 0.8411341 1.056201 0.23081839
0.3898766 0.98028255 3.4977624 4.52999 0.3507716 1.8169607 1.5660505 3.1884255
4.4887753 -12.042912 -3.512708 -21.176094 -41.58545 -61.88129 -87.663704 -68.569534
-25.079277 -23.306877 -30.454182 -11.28559 -3.646534 -2.6157768 -2.6174362 -28.837797
-54.785637 -67.136314 -68.74585 -66.441986 -54.175953 -27.049606 -37.373592 -53.43788
-56.036095 -43.201958 -33.487152 -37.226204 -41.94241 -46.78556 -27.303837 -16.298569
-24.416004 -18.283745 -2.8579884 0.013988987 0.8218362 0.9962539 0.22311273 0.3866712
0.96205616 3.294889 4.1842403 0.31607583 1.2962396 0.2113153 2.5621128 4.251001
38.625908 42.134346 41.89182 47.998116 39.991547 18.687984 23.448444 15.649746
00000000: 4c47 50c4 5720 50c4 ed10 50c4 eb3c 50c4
00000010: 1736 50c4 221a 50c4 9f98 4fc4 9f5b 4fc4
00000020: 3335 50c4 d794 4fc4 6cc2 4ec4 5ff6 4ec4
00000030: 129f 4ec4 4689 0ec4 3b19 c0c3 3990 9cc3
00000040: 37de adc3 b05f d6c3 44ab c3c3 d46a 9cc3
00000050: f6f9 87c3 3edf 72c3 6439 6ec3 8e64 7ac3
00000060: 6b34 8fc3 6c35 9bc3 c8e9 9fc3 795f aec3
00000070: 1d94 9ac3 e210 8ec3 257c 95c3 f1fa abc3
00000080: 76e9 cfc3 b00c e8c3 d9db c5c3 14c4 a1c3
00000090: 8921 9cc3 4556 acc3 1c70 b1c3 0311 a5c3
000000a0: d3f5 aec3 e20b c5c3 3378 e3c3 6cfd 06c4
000000b0: 9558 1fc4 a357 2fc4 54c5 3bc4 082a 7b3c
000000c0: 51be 5f3f c305 9a3f 7fb3 793e e565 ca3e
000000d0: d471 813f 5876 7640 82a5 a540 2c7a d23e
000000e0: 6995 7040 4c37 fd40 493a e040 6c47 0b41
000000f0: d896 a4c1 050d a141 0346 9b42 d6fb f642
00000100: da1d 1a43 0acb 1f43 e8ca 2543 ac10 1b43
00000110: 2a5f 1043 cb70 0043 aeb0 af42 3592 4342
00000120: d986 1542 8117 9642 ea99 0d43 eab6 2243
00000130: bde8 2043 78e0 2d43 6ce6 3e43 0cf2 3743
00000140: 4f80 1d43 b264 1e43 7d8f 2243 f8f1 1c43
00000150: 46c6 2443 b63f 3c43 1ebb 5043 19cb 5a43
00000160: 120f 4a43 644f 3943 4057 2943 88a0 1743
00000170: 3824 0143 683c b142 b869 783c d60a 5e3f
00000180: 184c 953f a903 773e a4d6 c93e 85a4 803f
00000190: ccd7 7140 8142 a140 de2b cc3e fe41 4e40
000001a0: b843 c240 0f8e ba40 c205 e340 14bf 6cc2
000001b0: 888c 86c1 48d0 ec3d aedb 9bbe ea72 a641
000001c0: 0247 a241 1eb4 22c1 2c95 1ac2 3660 83c2
000001d0: ea6e a7c2 68d8 56c2 662c 85c1 4c64 9540
000001e0: 5b81 f2bf 8ee3 fbc0 f562 fcc1 4985 80c2
000001f0: f660 90c2 f0a7 3dc2 9875 cbc1 c2d4 a7c0
00000200: dcfd 49c1 53e7 28c2 42cb 84c2 14fa 53c2
00000210: 6201 28c2 c2fd 60c2 72e1 6cc2 fd78 32c2
00000220: a4f2 aec1 e2e7 22c1 4c3b a540 a564 d941
00000230: 1afa 0842 cac4 733c 443a 5b3f 2da6 8e3f
00000240: 9a8d 723e 02e9 c83e 5ba1 7e3f f440 6a40
00000250: 353c 9a40 5ece c13e a2b2 2040 9c4a 6d40
00000260: bb5d 8c40 cc20 af40 c860 9141 9223 4042
00000270: 4a97 1742 c4a8 0a42 54c4 d541 8ff0 f141
00000280: e602 da41 06b9 9a41 648c eb41 fbac 4c42
00000290: fabc 7a42 6cc7 8c42 a981 9742 16ed 6642
000002a0: bc20 f741 e865 df40 5416 6e41 e8d3 b241
000002b0: 3aba e341 97c0 2442 dd3c b341 04e8 c23f
000002c0: 88d2 e140 7422 4241 7ccd ce41 1216 0142
000002d0: b84f 3941 09b3 0641 321c 3941 8174 1941
000002e0: ea22 48bf fe5a a9c1 6c0f c6c1 26e7 c13e
000002f0: de62 6d3c 9054 573f 9831 873f a85b 6c3e
00000300: e89d c73e ccf3 7a3f 57db 5f40 aef5 9040
00000310: 5698 b33e 2b92 e83f 5874 c83f 2a0f 4c40
00000320: 0ca4 8f40 c4af 40c1 35d0 60c0 a468 a9c1
00000330: 8057 26c2 7186 77c2 d153 afc2 9a23 89c2
00000340: 5ca2 c8c1 7c74 bac1 2aa2 f3c1 c791 34c1
00000350: d060 69c0 e368 27c0 1384 27c0 cfb3 e6c1
00000360: 7e24 5bc2 cb45 86c2 e07d 89c2 4ce2 84c2
00000370: 2db4 58c2 9865 d8c1 8f7e 15c2 64c0 55c2
00000380: f624 60c2 cece 2cc2 d8f2 05c2 a2e7 14c2
00000390: 07c5 27c2 6a24 3bc2 426e dac1 7863 82c1
000003a0: fa53 c3c1 1c45 92c1 48e9 36c0 1032 653c
000003b0: db63 523f 7f0a 7f3f aa77 643e c4f9 c53e
000003c0: 5049 763f 76df 5240 4ce5 8540 b1d4 a13e
000003d0: 2eeb a53f 0a63 583e a8f9 2340 3308 8840
000003e0: ee80 1a42 9289 2842 3991 2742 12fe 3f42
000003f0: 58f7 1f42 fe80 9541 6a96 bb41 5c65 7a41
