output_mfcc/b45f576da6a11d0f8c09f5c8bdf3ae2f_seg8.npy (npy, 7460 bytes, 1 tensors)

array f4 [39, 47]
-267.4419 -298.26334 -296.1474 -255.00262 -278.8576 -294.7286 -263.54205 -260.51364
-311.44406 -372.13535 -278.774 -241.85042 -263.8535 -278.57617 -252.96344 -242.20547
-276.20767 -380.8117 -382.28995 -345.40588 -406.70093 -565.8051 -669.2352 -696.3365
-605.0838 -449.92664 -296.0208 -248.49292 -262.11206 -272.69458 -279.79675 -295.44095
-320.44412 -335.22552 -256.65933 -208.459 -202.40193 -250.27444 -381.94888 -402.3647
-375.61884 -362.5209 -269.1194 -175.00653 -183.11937 -246.86044 -371.32043 134.5531
158.90094 189.68927 188.13126 188.19865 175.72565 159.12659 173.87888 184.02432
175.4003 175.60751 169.59653 172.05681 157.02982 142.92505 154.52835 166.23093
175.90569 91.64549 73.48108 78.78319 105.18245 69.0129 52.05897 156.17911
209.24161 189.32755 182.97775 189.50586 190.13129 158.27347 110.18773 60.25524
25.006489 66.01825 107.18775 141.74791 159.72089 183.03665 119.52629 39.534027
-49.321373 -44.68466 40.169186 102.22579 132.42618 156.07625 6.2016582 5.5850086
-41.58895 -65.60327 -63.014523 -38.154697 -43.54202 -44.376045 -27.804903 1.349259
-45.181732 -61.82592 -56.152893 -39.961304 -46.755672 -47.161953 -37.8366 -11.486301
3.620902 -6.755708 -10.4965515 -21.48283 6.4291906 17.25805 65.52882 33.697372
-29.601225 -48.721157 -48.32315 -47.290565 -12.161566 34.83869 66.28151 72.84267
25.080242 -28.241764 -57.101284 -49.405415 -19.412022 24.993359 44.491096 58.459713
23.129885 -10.71608 -48.795403 -50.726074 -9.70363 -8.077928 -16.015347 -22.435364
-9.1252575 4.946194 4.1669044 -6.0596704 -6.3332415 -12.169289 -12.606921 -10.654873
4.1165395 22.7271 26.991846 22.074753 25.816315 33.65504 32.26611 4.206423
3.853961 7.1371803 -11.09075 -17.961124 -14.912312 -17.34418 -13.081225 -11.451004
-8.531017 -2.2416332 -11.161751 -41.238396 -43.535088 -22.946049 8.364937 -4.5974693
4.3041186 36.02292 57.93628 58.048325 67.49844 108.30318 123.42813 79.92464
52.808723 54.63507 61.475082 74.57652 -8.394044 -17.008196 -52.70974 -59.725662
-56.266964 -60.865738 -68.22523 -61.645115 -45.535103 -25.240475 -26.315514 -44.576973
-45.69056 -36.351456 -37.39044 -34.72178 -27.074455 -12.667301 -30.266703 -27.174444
-19.634792 -10.876623 -7.345706 -26.697563 -50.805607 -77.429504 -56.68406 -37.69963
-28.794683 -27.91896 -4.9266233 5.7281103 9.234625 19.024845 16.474548 -0.05908537
-23.580406 -20.595537 -2.4922814 15.179371 19.791477 23.182095 -12.603339 -9.203061
-16.775066 -22.434711 -2.1603372 -1.78864 -2.7933264 6.482503 8.93177 5.296572
7.8748975 12.626331 13.191023 4.0214725 -2.7556367 -3.4824505 1.6041892 3.515067
3.1101172 -7.5645556 -5.737097 -2.7383428 -6.6797686 2.8584838 6.3794518 4.8791065
00000000: 90b8 85c3 b521 95c3 de12 94c3 ac00 7fc3
00000010: c66d 8bc3 435d 93c3 62c5 83c3 bf41 82c3
00000020: d7b8 9bc3 5311 bac3 1263 8bc3 b5d9 71c3
00000030: 3fed 83c3 c049 8bc3 a4f6 7cc3 9a34 72c3
00000040: 951a 8ac3 e667 bec3 1d25 bfc3 f4b3 acc3
00000050: b859 cbc3 8773 0dc4 0e4f 27c4 8915 2ec4
00000060: 5d45 17c4 9cf6 e0c3 aa02 94c3 307e 78c3
00000070: 580e 83c3 e858 88c3 fce5 8bc3 71b8 93c3
00000080: d938 a0c3 de9c a7c3 6554 80c3 8175 50c3
00000090: e566 4ac3 4246 7ac3 75f9 bec3 ae2e c9c3
000000a0: 36cf bbc3 ad42 b5c3 488f 86c3 ac01 2fc3
000000b0: 8f1e 37c3 46dc 76c3 04a9 b9c3 988d 0643
000000c0: a4e6 1e43 74b0 3d43 9a21 3c43 db32 3c43
000000d0: c4b9 2f43 6820 1f43 fee0 2d43 3a06 3843
000000e0: 7a66 2f43 869b 2f43 b698 2943 8b0e 2c43
000000f0: a207 1d43 d0ec 0e43 4287 1a43 1e3b 2643
00000100: dbe7 2f43 7e4a b742 50f6 9242 fe90 9d42
00000110: 6a5d d242 9b06 8a42 633c 5042 da2d 1c43
00000120: da3d 5143 da53 3d43 4efa 3643 8081 3d43
00000130: 9c21 3e43 0246 1e43 1e60 dc42 5e05 7142
00000140: 4a0d c841 5809 8442 2160 d642 77bf 0d43
00000150: 8cb8 1f43 6209 3743 760d ef42 d822 1e42
00000160: 1649 45c2 18bd 32c2 3fad 2042 9b73 cc42
00000170: 1a6d 0443 8513 1c43 fc73 c640 64b8 b240
00000180: 165b 26c2 e034 83c2 df0e 7cc2 699e 18c2
00000190: 072b 2ec2 1281 31c2 7170 dec1 85b4 ac3f
000001a0: 18ba 34c2 be4d 77c2 909c 60c2 60d8 1fc2
000001b0: cf05 3bc2 d7a5 3cc2 ae58 17c2 e4c7 37c1
000001c0: dcbc 6740 c32e d8c0 e0f1 27c1 d6dc abc1
000001d0: eebb cd40 7d10 8a41 c10e 8342 1cca 0642
000001e0: 4fcf ecc1 77e2 42c2 e84a 41c2 8a29 3dc2
000001f0: c695 42c1 d25a 0b42 2290 8442 72af 9142
00000200: 56a4 c841 22ef e1c1 b767 64c2 259f 45c2
00000210: d24b 9bc1 66f2 c741 e2f6 3142 bfd6 6942
00000220: 010a b941 1075 2bc1 7e2e 43c2 80e7 4ac2
00000230: 1242 1bc1 313f 01c1 6e1f 80c1 a07b b3c1
00000240: 0e01 12c1 3947 9e40 4857 8540 d2e8 c1c0
00000250: eaa9 cac0 68b5 42c1 f3b5 49c1 5c7a 2ac1
00000260: b1ba 8340 1ad1 b541 4def d741 1899 b041
00000270: d087 ce41 c39e 0642 7f10 0142 049b 8640
00000280: 4ca7 7640 c863 e440 b673 31c1 62b0 8fc1
00000290: d498 6ec1 e1c0 8ac1 b34c 51c1 5037 37c1
000002a0: 0c7f 08c1 eb76 0fc0 8896 32c1 1ef4 24c2
000002b0: ee23 2ec2 8291 b7c1 c8d6 0541 781e 93c0
000002c0: 57bb 8940 7817 1042 c0be 6742 7c31 6842
000002d0: 34ff 8642 3a9b d842 34db f642 6ad9 9f42
000002e0: 223c 5342 508a 5a42 7ce6 7542 2e27 9542
000002f0: 014e 06c1 c910 88c1 c6d6 52c2 14e7 6ec2
00000300: 5f11 61c2 8476 73c2 5173 88c2 9994 76c2
00000310: f223 36c2 7eec c9c1 2c86 d2c1 d24e 32c2
00000320: 22c3 36c2 e467 11c2 d08f 15c2 1ae3 0ac2
00000330: 7c98 d8c1 44ad 4ac1 3522 f2c1 4365 d9c1
00000340: 0e14 9dc1 a606 2ec1 0610 ebc0 9c94 d5c1
00000350: f138 4bc2 e8db 9ac2 7abc 62c2 6ccc 16c2
00000360: 835b e6c1 085a dfc1 e6a6 9dc0 ae4c b740
00000370: 06c1 1341 e232 9841 e0cb 8341 8003 72bd
00000380: aca4 bcc1 a9c3 a4c1 8a81 1fc0 b4de 7241
00000390: f254 9e41 ee74 b941 47a7 49c1 bd3f 13c1
000003a0: 5633 86c1 4a7a b3c1 f742 0ac0 28f2 e4bf
000003b0: dcc5 32c0 aa70 cf40 88e8 0e41 857d a940
000003c0: 29ff fb40 7405 4a41 6e0e 5341 e7af 8040
000003d0: 5a5c 30c0 78e0 5ec0 1256 cd3f dcf6 6040
000003e0: 290c 4740 d710 f2c0 4c96 b7c0 0241 2fc0
000003f0: aac0 d5c0 66f1 3640 7824 cc40 a421 9c40
