output_mfcc/b556657699f552a135fffc08f730eb08_seg1.npy (npy, 7460 bytes, 1 tensors)

array f4 [39, 47]
000000 ad 60 b5 c3 c1 6e a2 c3 58 b2 b5 c3 01 7f e3 c3
       -362.75528 -324.86526 -363.3933 -454.99222
000010 97 e7 f4 c3 27 6e b6 c3 a0 ec a0 c3 12 43 49 c3
       -489.8093 -364.86057 -321.84863 -201.262
000020 2e f9 1c c3 33 a6 3a c3 86 0b 80 c3 aa 78 a8 c3
       -156.97336 -186.64922 -256.09003 -336.9427
000030 58 bd b6 c3 7d 11 99 c3 65 34 9d c3 5c bf b7 c3
       -365.47925 -306.13663 -314.40933 -367.495
000040 41 91 cc c3 a6 26 9b c3 1a fa 8d c3 78 82 a5 c3
       -409.1348 -310.30194 -283.95392 -331.0193
000050 4b 06 b9 c3 f5 42 a8 c3 5c fe a2 c3 be 5a bb c3
       -370.04916 -336.5231 -325.98718 -374.70892
000060 60 b4 d3 c3 21 7b ca c3 db f0 d0 c3 b6 2b d2 c3
       -423.40918 -404.96194 -417.88168 -420.3415
000070 6d a6 c2 c3 04 88 af c3 b3 f7 9c c3 f4 3c 84 c3
       -389.3002 -351.06262 -313.93515 -264.4762
000080 0c bf 55 c3 82 ff 62 c3 60 ba 88 c3 a8 b2 b1 c3
       -213.74628 -226.99808 -273.45605 -355.39575
000090 2a 22 be c3 9d c9 d9 c3 b6 ef c2 c3 a7 48 93 c3
       -380.2669 -435.5751 -389.87274 -294.5676
0000a0 c2 83 84 c3 2c 13 95 c3 48 54 bd c3 d2 a1 c1 c3
       -265.02936 -298.14978 -378.65845 -387.26422
0000b0 d5 01 be c3 24 46 e2 c3 b1 7f 17 c4 c0 f2 8f 42
       -380.0143 -452.54797 -605.9952 71.97412
0000c0 9a d7 66 42 a4 6b ff 41 e6 04 f6 41 45 55 6e 40
       57.71055 31.927559 30.752392 3.7239544
0000d0 78 b7 5c c2 07 78 c2 c2 e9 b3 3d 41 21 fb b5 42
       -55.17917 -97.23443 11.856423 90.990486
0000e0 ea c0 14 43 00 8b 24 43 ac 78 26 43 c8 f9 1e 43
       148.75357 164.54297 166.47137 158.97571
0000f0 d3 6d 78 42 44 7a 30 c1 bb 18 32 c2 38 2f cd c1
       62.10725 -11.02985 -44.52415 -25.648056
000100 de ba b1 42 fd 88 07 43 2c 70 25 43 db b7 26 43
       88.864975 135.53511 165.43817 166.71819
000110 8a 17 24 43 df b3 21 43 ac 1a 1f 43 29 00 0e 43
       164.09195 161.70262 159.10419 142.00063
000120 f0 d4 09 43 3e 42 1f 43 13 4e 24 43 ae b1 1b 43
       137.83179 159.25876 164.30498 155.69406
000130 e5 fe f2 42 96 f0 70 42 10 b3 3e 42 af f1 a1 42
       121.49784 60.234947 47.674866 80.97204
000140 12 9a dc 42 5e 32 ef 42 93 b8 bd 42 fc a3 5c 42
       110.30092 119.59837 94.8605 55.16014
000150 1c 7e 42 42 c6 84 8a 42 ce f4 cc 42 20 ea 0a 43
       48.623154 69.25932 102.478134 138.91455
000160 ff 0c 15 43 41 e7 21 43 38 67 3a 43 f8 75 3a 43
       149.05077 161.90334 186.4032 186.46082
000170 62 12 36 43 68 99 2b 43 79 d3 70 40 e7 44 8e c1
       182.07181 171.59924 3.7629073 -17.783644
000180 50 2b 3f c2 2c ba 31 c2 0e e4 09 c2 20 b9 48 c2
       -47.792297 -44.43181 -34.47271 -50.180786
000190 6a 14 4a c2 c4 64 44 c1 d1 2e fc c1 98 55 6d c2
       -50.519936 -12.274601 -31.52286 -59.333588
0001a0 e9 db 56 c2 86 00 d8 c1 40 62 e6 be d2 1f 58 41
       -53.714756 -27.000256 -0.44996834 13.507769
0001b0 45 84 12 41 1e f0 a4 41 5a c8 c9 41 dc 20 70 3f
       9.157292 20.617245 25.222828 0.9380014
0001c0 aa 62 ad c1 89 42 3d c2 fd 97 13 c2 03 b1 fb c1
       -21.673176 -47.314976 -36.898426 -31.461432
0001d0 9b d6 fc c1 8e 75 88 c1 30 6b 00 be 8c 7c b0 c1
       -31.604788 -17.0574 -0.12540889 -22.060814
0001e0 02 29 12 c2 a8 b4 13 c2 76 6a 45 c2 60 28 ec c1
       -36.540047 -36.926422 -49.353966 -29.519714
0001f0 e3 d7 0a 40 67 e2 ba 40 ea b2 e1 c1 2b cc 71 c2
       2.1694267 5.840137 -28.21236 -60.449383
000200 a4 67 11 c2 b7 46 91 40 85 4e 8b 40 10 90 55 c0
       -36.35121 4.539882 4.353335 -3.3369179
000210 04 61 94 41 a0 32 24 c1 7e 4d 3b c2 62 45 3b c2
       18.54737 -10.26236 -46.825676 -46.817757
000220 04 49 a6 c1 b4 8a 5e 41 5a 99 9b 41 28 f4 ca 41
       -20.785652 13.908863 19.449879 25.369217
000230 a0 72 3f 42 ac 65 62 42 6d 6d 10 42 80 45 4c 41
       47.86194 56.59929 36.10686 12.766968
000240 3c b7 33 41 ad 30 ce 41 e2 c6 1d 42 62 62 35 42
       11.232235 25.773767 39.44422 45.346077
000250 44 44 0f 42 9e 7c c2 40 f8 d8 8e 41 3a d2 9e 41
       35.816666 6.077712 17.855942 19.85265
000260 2a 91 d8 41 de fb 61 41 1f de d9 40 6e aa c7 40
       27.07088 14.123991 6.8083644 6.2395544
000270 72 b7 02 c0 f0 56 ab c0 a2 ca 9e c0 6c 07 04 40
       -2.0424466 -5.3543625 -4.9622355 2.062953
000280 92 0e d2 41 e6 0c 22 42 15 2a cb 41 74 52 9e 41
       26.257114 40.512596 25.395548 19.79026
000290 98 ba a8 41 0d 92 23 42 be e5 60 42 84 fa 5e 42
       21.09111 40.892628 56.224358 55.744644
0002a0 64 50 3c 42 98 db 43 42 1c 68 19 42 da fb 33 42
       47.078506 48.964447 38.35167 44.99595
0002b0 30 f7 47 42 e2 cf a4 41 61 0d cb 41 50 44 ac 41
       49.991394 20.601505 25.381533 21.533356
0002c0 31 e3 0f 41 5a 70 81 41 fa c1 d4 41 54 17 9c 42
       8.992967 16.17986 26.594715 78.04556
0002d0 d2 7a c8 42 fb 0b be 42 d0 4e 84 42 4a 41 73 41
       100.23988 95.0234 66.15393 15.20344
0002e0 1e c8 3d 3f 32 de d4 3f d4 9a 17 3e c7 d4 d8 c1
       0.7413348 1.6630309 0.14805156 -27.103895
0002f0 11 06 69 41 51 e0 ed 40 4a ea ec c0 d0 fa 62 c0
       14.563981 7.4336324 -7.4035997 -3.5465584
000300 2c c1 64 40 9c 7f 1d 41 50 48 4c 40 56 4b 5b c1
       3.5742903 9.843655 3.1919136 -13.705893
000310 18 d3 e7 c1 9c e5 6f c2 78 91 95 c2 9a 7f 86 c2
       -28.978073 -59.974228 -74.78412 -67.24922
000320 12 22 20 c2 49 30 07 c1 7a f7 d2 c0 f7 2d 88 c1
       -40.03327 -8.449288 -6.5927095 -17.022444
000330 c7 9d 60 c1 8e 68 02 c2 38 7d 27 c2 4a cf 5d c2
       -14.03852 -32.602104 -41.872284 -55.45243
000340 46 64 83 c2 a4 5a a0 c2 5a 2a 9b c2 88 7b 7d c2
       -65.69585 -80.17703 -77.58272 -63.370636
000350 d0 40 c9 c1 b8 54 96 bf 6c ae d7 c0 f6 75 a0 c1
       -25.156647 -1.1744604 -6.7400417 -20.057598
000360 70 81 77 c1 b4 3a dd c0 32 43 9d c0 b6 d5 2b c1
       -15.469101 -6.913416 -4.9144526 -10.7396755
000370 ea d3 09 c2 00 5f 47 c2 0c 39 30 c2 ea 23 c7 c1
       -34.456947 -49.842773 -44.05571 -24.892536
000380 de 10 8b c1 53 3d c7 c1 b8 7e 10 c2 74 51 e7 c1
       -17.383236 -24.904943 -36.12375 -28.914772
000390 b0 0e 28 c2 fa 90 1f c2 9e c7 5c c2 5a f4 9a c2
       -42.014343 -39.89158 -55.19494 -77.47725
0003a0 28 92 98 c2 e1 01 82 c2 c6 ef 66 c2 f2 82 27 41
       -76.28546 -65.00367 -57.734154 10.469469
0003b0 b6 52 96 41 a4 78 6f 41 b5 f5 88 41 b2 db 9b c0
       18.790386 14.966953 17.119974 -4.8705683
0003c0 fa a9 b2 c0 92 b4 5c c1 da cc ac c1 3e e1 28 c1
       -5.583249 -13.794085 -21.600025 -10.554991
0003d0 f6 14 ae 3e 90 62 c6 c0 20 f8 cd c0 eb e4 f6 bf
       0.34000367 -6.1995316 -6.4365387 -1.928861
0003e0 a8 e3 b5 41 d2 dd 97 41 40 dd 9a 40 f0 43 0e 41
       22.73616 18.98331 4.839508 8.891586
0003f0 9a 61 c5 41 3c 4c ef 41 5d 4d d5 41 f4 b4 a6 41
       24.672657 29.912224 26.662775 20.838356
