output_mfcc/b655b533b8de43cd9cca8a6d6ae33240_seg0.npy (npy, 7460 bytes, 1 tensors)

array f4 [39, 47]
0	0xc444bb9d	-786.93146
1	0xc444bb9d	-786.93146
2	0xc444bb9d	-786.93146
3	0xc444ae16	-786.7201
4	0xc444a083	-786.508
5	0xc444bb9d	-786.93146
6	0xc444bb9d	-786.93146
7	0xc444a45a	-786.568
8	0xc4397c48	-741.9419
9	0xc4080072	-544.00696
10	0xc3c46b39	-392.83768
11	0xc399710d	-306.8832
12	0xc38ebcff	-285.47653
13	0xc38de239	-283.76736
14	0xc38996c2	-275.1778
15	0xc36e7922	-238.47318
16	0xc32ceeb1	-172.93239
17	0xc328fcbf	-168.98729
18	0xc355eb71	-213.9197
19	0xc388114f	-272.13522
20	0xc37fc3a1	-255.76418
21	0xc36e53cf	-238.32738
22	0xc37f6401	-255.39064
23	0xc3992727	-306.30588
24	0xc381d565	-259.66714
25	0xc382faff	-261.9609
26	0xc39bda40	-311.70508
27	0xc3c024de	-384.28802
28	0xc3ab4bd3	-342.59238
29	0xc393bdd5	-295.48306
30	0xc37af61c	-250.96136
31	0xc3759e0b	-245.61736
32	0xc38eea95	-285.83267
33	0xc3a4aa63	-329.33115
34	0xc375e880	-245.9082
35	0xc33bf276	-187.94711
36	0xc34567e6	-197.40585
37	0xc36ff318	-239.94958
38	0xc39ea1ca	-317.26398
39	0xc3acee15	-345.86002
40	0xc3a3194c	-326.19763
41	0xc397de65	-303.73746
42	0xc398bb03	-305.46103
43	0xc3ae6e06	-348.85956
44	0xc3a32221	-326.26663
45	0xc36bd87d	-235.84566
46	0xc3581e69	-216.11879
47	0x00000000	0.0
48	0x00000000	0.0
49	0x00000000	0.0
50	0x3e990a8d	0.29890862
51	0x3f194bac	0.5988109
52	0x00000000	0.0
53	0x00000000	0.0
54	0x3f013d4f	0.50484174
55	0x425cf3ba	55.238014
56	0x431490c4	148.56549
57	0x430f89e1	143.53859
58	0x42de0d64	111.02615
59	0x429d3713	78.60757
60	0x419e3ecb	19.78066
61	0xc21151fa	-36.330055
62	0xc022d461	-2.5442126
63	0x4296b80e	75.35948
64	0x42fb71b4	125.72208
65	0x4322fa8c	162.9787
66	0x4333fd5d	179.9897
67	0x433038bb	176.2216
68	0x4332d3cc	178.82733
69	0x4322354a	162.20816
70	0x42fa1422	125.03932
71	0x430890be	136.5654
72	0x431dc085	157.75203
73	0x432dd5f2	173.83572
74	0x43142c2e	148.17258
75	0x42e4792c	114.236664
76	0x42eb39e5	117.613075
77	0x42febeff	127.37304
78	0x4301b46a	129.70474
79	0x42d81807	108.04693
80	0x42941b88	74.05377
81	0x42d41172	106.03407
82	0x43008904	128.53522
83	0x4300dd86	128.86533
84	0x42ffa6fc	127.82614
85	0x431650f4	150.31622
86	0x42c625bc	99.0737
87	0x40e9d61b	7.307386
88	0x418d0038	17.625107
89	0x42a5d453	82.914696
90	0x430163e2	129.39017
91	0x430debf7	141.92174
92	0x4316981c	150.59418
93	0x432938fa	169.22256
94	0x00000000	0.0
95	0x00000000	0.0
96	0x00000000	0.0
97	0x3e9901b3	0.2988411
98	0x3f1942ce	0.5986756
99	0x00000000	0.0
100	0x00000000	0.0
101	0x3ef4905c	0.47766387
102	0x421e5e3a	39.59202
103	0x41d4123c	26.508904
104	0xc156e50c	-13.43092
105	0xc0d6150a	-6.6900682
106	0x4099bc62	4.804246
107	0xc14383c0	-12.219666
108	0xc1de4580	-27.783936
109	0xc0ba6803	-5.8251967
110	0xc19e9376	-19.822002
111	0xc27243e8	-60.566315
112	0xc299d131	-76.90858
113	0xc277d49a	-61.95762
114	0xc27260d0	-60.594543
115	0xc28be8a2	-69.95436
116	0xc20ef41e	-35.738396
117	0xbfa2c84b	-1.2717375
118	0xc20b97e0	-34.898315
119	0xc272e084	-60.719254
120	0xc24f82ee	-51.87786
121	0xc0d6b5f2	-6.70971
122	0xc1199c7d	-9.600705
123	0xc1fe25df	-31.768492
124	0xc24795b0	-49.89618
125	0xc233775c	-44.86656
126	0xc208b1a5	-34.17348
127	0xc2139edc	-36.905136
128	0xc24e8090	-51.62555
129	0xc2a06d14	-80.21304
130	0xc2b235b1	-89.104866
131	0xc28a1373	-69.03799
132	0xc211be40	-36.43579
133	0x41b20fda	22.25774
134	0x41ec8d92	29.569126
135	0x4212ea4a	36.728798
136	0x41116000	9.0859375
137	0xc18b254e	-17.393215
138	0xc1dde5ff	-27.737303
139	0xc29eae70	-79.3407
140	0xc2c3a1ae	-97.81578
141	0x00000000	0.0
142	0x00000000	0.0
143	0x00000000	0.0
144	0x3e98f2f3	0.29872856
145	0x3f193408	0.5984502
146	0x00000000	0.0
147	0x00000000	0.0
148	0x3eddee3e	0.43345827
149	0x41dd3358	27.65007
150	0x4278e12c	62.219894
151	0x42da07ae	109.015
152	0x42bed2c0	95.41162
153	0x42844908	66.14264
154	0x41d261a1	26.29767
155	0x41691a6b	14.56895
156	0x413a099e	11.627348
157	0xc1016976	-8.088247
158	0xbf98a9d1	-1.1926824
159	0x41894b5e	17.1618
160	0x41f4ac86	30.58424
161	0x41b00dee	22.006802
162	0x411d584c	9.834057
163	0xc1228186	-10.156622
164	0xc1661614	-14.38039
165	0xc0e2d50a	-7.0885057
166	0x41707766	15.02915
167	0x4204932b	33.14372
168	0x41d0d996	26.106243
169	0x425d7103	55.360363
170	0x42821b15	65.052895
171	0x422775de	41.865105
172	0x41d93d58	27.154953
173	0x40d19228	6.5490913
174	0xc1325c3f	-11.147521
175	0x42081a1e	34.025505
176	0x4258fe92	54.248604
177	0x428abb8e	69.36632
178	0x4296ed26	75.46318
179	0x4289287c	68.57907
180	0x4234d566	45.208397
181	0x4267285e	57.78942
182	0x42a16b78	80.7099
183	0x42848a36	66.26994
184	0x4266a7c4	57.663834
185	0x40c30084	6.093813
186	0x40cb2ec8	6.3494606
187	0x41d8ef36	27.116802
188	0x00000000	0.0
189	0x00000000	0.0
190	0x00000000	0.0
191	0x3e98de4e	0.29857105
192	0x3f191f3a	0.5981327
193	0x00000000	0.0
194	0x00000000	0.0
195	0x3ebf64e8	0.37381673
196	0x418d9244	17.696419
197	0xc1af9b06	-21.950695
198	0xc262ef90	-56.733948
199	0xc242f8e4	-48.743057
200	0xc1b32f9c	-22.398247
201	0x416c3896	14.763815
202	0x41797f55	15.593587
203	0x413adc4a	11.6787815
204	0x40a1b5e0	5.0534515
205	0xc17a4523	-15.641879
206	0xc21994aa	-38.39518
207	0xc237b01e	-45.92199
208	0xc25920b0	-54.28192
209	0xc25e3f08	-55.561554
210	0xc1f9f1ae	-31.243008
211	0xc16970ba	-14.590021
212	0xc1927670	-18.30783
213	0xc1f0c1fe	-30.094723
214	0xc1d51dd7	-26.63957
215	0xc026dcbe	-2.607223
216	0x40867a0b	4.202398
217	0xc198e826	-19.113354
218	0xc23e84a6	-47.62954
219	0xc2163fb4	-37.56221
220	0xc157615d	-13.46127
221	0xc0e64020	-7.1953278
222	0xbf89a02f	-1.0752009
223	0xc18b6b8c	-17.427513
224	0xc20bbd95	-34.93514
225	0xc223f8b8	-40.99289
226	0xc1f78644	-30.94056
227	0xc10d8d1c	-8.846951
228	0xc143d6e6	-12.239965
229	0x41212eac	10.0738945
230	0x4006f21b	2.108527
231	0xc16a3280	-14.637329
232	0xc2054c18	-33.32431
233	0xc2296f8f	-42.358944
234	0xc20e4724	-35.569473
235	0x00000000	0.0
236	0x00000000	0.0
237	0x00000000	0.0
238	0x3e98c3c4	0.29836857
239	0x3f1904c4	0.59772897
240	0x00000000	0.0
241	0x00000000	0.0
242	0x3e9a0f35	0.30089727
243	0x4110d7b3	9.052661
244	0xc0e3c8e7	-7.118274
245	0xbe111322	-0.14167455
246	0xc175c562	-15.360689
247	0xc188a9e8	-17.082962
248	0xc17028da	-15.009974
249	0xc1e8731a	-29.056202
250	0xc1aad370	-21.353241
251	0xc129a6fa	-10.603266
252	0xc0bc1f8c	-5.878851
253	0x40366f98	2.8505611
254	0xc0606c07	-3.5065935
255	0xbf91b76d	-1.1384102
