output_mfcc/b6bf24b4ec3336a6eddaa16eefb82605_seg1.npy (npy, 7460 bytes, 1 tensors)

array f4 [39, 47]
000000 15 39 4c c3 cb 69 58 c3 75 03 91 c3 dd 19 b3 c3
       -204.22298 -216.41325 -290.027 -358.20206
000010 29 3a b5 c3 5d 1c a2 c3 58 20 91 c3 e6 62 85 c3
       -362.45438 -324.2216 -290.2527 -266.77264
000020 07 d1 8b c3 53 c5 9b c3 90 16 b5 c3 03 03 e1 c3
       -279.63303 -311.5416 -362.17627 -450.02353
000030 83 53 fa c3 ca 8b fb c3 45 e2 e0 c3 e7 d7 b2 c3
       -500.65244 -503.0921 -449.76773 -357.68674
000040 c8 77 84 c3 c0 b0 5c c3 28 38 54 c3 c9 7d 81 c3
       -264.9358 -220.69043 -212.21936 -258.9827
000050 80 b4 a7 c3 0c 91 d2 c3 a3 db da c3 50 a4 8c c3
       -335.41016 -421.13318 -437.7159 -281.2837
000060 ae dd 65 c3 de d4 53 c3 e9 6a 5f c3 00 15 78 c3
       -229.86594 -211.83151 -223.41762 -248.08203
000070 0f 43 84 c3 38 5f 98 c3 94 b0 be c3 03 dc d6 c3
       -264.5239 -304.7439 -381.37952 -429.71884
000080 16 ff ec c3 cb 44 ff c3 7d e4 09 c4 69 9e 1a c4
       -473.99286 -510.53745 -551.5701 -618.47516
000090 f8 6e 32 c4 e4 4d 37 c4 f0 ab 37 c4 d9 ac 37 c4
       -713.7339 -733.21704 -734.6865 -734.70074
0000a0 73 bf 37 c4 99 c1 37 c4 99 c1 37 c4 99 c1 37 c4
       -734.9914 -735.02496 -735.02496 -735.02496
0000b0 99 c1 37 c4 99 c1 37 c4 99 c1 37 c4 2d b4 f1 42
       -735.02496 -735.02496 -735.02496 120.851906
0000c0 e0 86 03 43 34 93 28 43 9a 96 3a 43 6b be 2c 43
       131.52686 168.57501 186.58829 172.74382
0000d0 fd 6b 19 43 77 9e 14 43 7a 6e 1b 43 14 72 23 43
       153.42183 148.619 155.43155 163.44562
0000e0 e6 fb 35 43 74 60 43 43 7c 33 38 43 30 ae 28 43
       181.98398 195.37677 184.20111 168.68042
0000f0 ac 24 23 43 04 b0 ed 42 d0 be 41 42 c0 e6 57 42
       163.14325 118.84378 48.43634 53.97534
000100 4a 11 a8 42 92 5b 90 42 5e c7 aa 41 f2 80 1e c2
       84.03377 72.17885 21.347347 -39.625923
000110 cd f9 79 c2 48 ae 14 41 8b 68 ca 42 50 cb 0e 43
       -62.493946 9.292549 101.204185 142.79419
000120 0c 83 33 43 9a cc 3d 43 7c c9 35 43 d8 a9 16 43
       179.5119 189.79922 181.78705 150.66345
000130 64 94 b3 42 ce 53 ae 41 c5 3a 79 41 64 d6 46 41
       89.789825 21.79092 15.576848 12.427341
000140 c8 79 40 41 b8 5d 6b 41 f7 66 a9 41 2b 11 5f 41
       12.029732 14.710381 21.175276 13.941691
000150 52 f4 18 40 17 d7 f2 3e f0 2a e8 3e 89 f0 40 3d
       2.3899121 0.47429726 0.4534526 0.047104392
000160 00 00 00 00 00 00 00 00 00 00 00 00 00 00 00 00
       0.0 0.0 0.0 0.0
000170 00 00 00 00 00 00 00 00 90 70 b2 bf eb 75 9b c1
       0.0 0.0 -1.3940601 -19.432577
000180 84 60 30 c2 4d 44 14 c1 fc ee 87 3f ae 34 a6 c1
       -44.094254 -9.266675 1.0619807 -20.775723
000190 f2 8d 23 c2 a4 8c 3c c2 36 20 39 c2 43 1e 02 c2
       -40.88862 -47.137344 -46.281456 -32.529552
0001a0 b4 f0 6c c1 b4 9e cf 3e de 32 bd 40 55 10 59 41
       -14.808765 0.40550768 5.9124594 13.566487
0001b0 04 6a 18 42 59 b2 12 42 30 01 28 c1 8c 65 16 c2
       38.10353 36.674168 -10.50029 -37.599167
0001c0 4f af 9b c1 e0 8e 83 41 54 ad 85 41 fc cf 0e 40
       -19.4606 16.444763 16.709633 2.2314444
0001d0 01 00 23 40 bc 1d 25 c1 cb cf 38 c2 0b 5a c7 c2
       2.5468752 -10.319759 -46.202923 -99.675865
0001e0 dc f5 f7 c2 84 f3 d9 c2 ce 3f 90 c2 52 dd 4e c2
       -123.980194 -108.97562 -72.12462 -51.716133
0001f0 17 a7 8d c2 b7 1c 85 c2 09 12 7f c2 0f 08 92 c2
       -70.82635 -66.55608 -63.767612 -73.01574
000200 c6 a2 a3 c2 f6 f2 79 c2 96 4a 10 c1 fa d0 f7 3f
       -81.81792 -62.487267 -9.018209 1.936065
000210 a2 2f ec 3e 76 8c e0 3e 7a a6 3b 3d 00 00 00 00
       0.4613009 0.43857163 0.04581306 0.0
000220 00 00 00 00 00 00 00 00 00 00 00 00 00 00 00 00
       0.0 0.0 0.0 0.0
000230 00 00 00 00 ca 2b 33 42 13 75 59 42 8a f4 51 42
       0.0 44.792763 54.36433 52.488808
000240 1a f6 12 42 15 94 1a 42 2e e2 28 42 a8 63 1b 42
       36.740334 38.64461 42.22088 38.84732
000250 47 f4 d2 41 f6 8f a6 41 7c df 92 41 e4 54 79 40
       26.369276 20.820293 18.359123 3.8958063
000260 25 96 d7 c0 c4 70 da c0 a6 08 35 41 3b dd 12 42
       -6.737078 -6.8262653 11.314611 36.716045
000270 b0 17 7d 42 10 c1 e8 41 aa 03 dd 41 76 d1 8c 41
       63.273132 29.094269 27.62679 17.602276
000280 b7 25 42 40 9a fc ba be 0e 14 26 c1 5a 25 c0 c0
       3.033552 -0.36520845 -10.379896 -6.0045595
000290 82 b9 08 c1 2a ff af c0 b8 0b 01 bf ba 94 c1 40
       -8.54529 -5.499898 -0.50408506 6.049405
0002a0 c6 fb 9a bf d3 da 0d c1 78 c3 38 c1 c6 15 ec c1
       -1.2108085 -8.865924 -11.547722 -29.510632
0002b0 57 d0 0f c2 7d b0 02 c2 5e 5c 7f c1 cc 97 17 c1
       -35.953457 -32.67235 -15.960051 -9.47456
0002c0 f2 e2 5d c1 be e2 f0 c0 3c 11 a9 3f 08 45 e1 3e
       -13.867907 -7.5276785 1.3208385 0.4399798
0002d0 f2 18 d4 3e 2a f6 32 3d 00 00 00 00 00 00 00 00
       0.41425282 0.04369179 0.0 0.0
0002e0 00 00 00 00 00 00 00 00 00 00 00 00 00 00 00 00
       0.0 0.0 0.0 0.0
0002f0 c9 40 3b c1 20 9a 7d c1 6a 0a 38 c2 19 20 63 c2
       -11.703317 -15.850128 -46.01017 -56.781345
000300 c6 ff 92 c2 c5 f1 b4 c2 ba ba bb c2 eb aa bf c2
       -73.49956 -90.472206 -93.8647 -95.833824
000310 d8 85 b6 c2 a8 0d a6 c2 e7 d3 92 c2 f4 cf 38 c2
       -91.26141 -83.02667 -73.41387 -46.20308
000320 8a e2 95 c1 52 f8 cd c0 ba bd d7 bf ca 31 ce c0
       -18.735615 -6.4365625 -1.6854775 -6.443578
000330 1c a7 fc c0 70 c0 58 c1 5d ae 35 c0 b2 a2 73 41
       -7.895399 -13.546982 -2.8387673 15.227221
000340 ec 38 21 41 bd 1c c9 40 b4 e1 8b bf 22 93 8a 40
       10.076397 6.284758 -1.0928254 4.3304605
000350 60 f4 56 40 63 0c 48 c1 01 73 00 c2 5b 53 25 c2
       3.3586655 -12.503024 -32.11231 -41.3314
000360 28 77 0a c2 04 84 fd c1 a0 9f 1f c2 74 ed 02 c2
       -34.616364 -31.68946 -39.905884 -32.731888
000370 e8 ad b7 c1 50 b6 75 c1 d6 fd db c0 da 3a 78 bf
       -22.959915 -15.35701 -6.874736 -0.969648
000380 a4 d7 da 40 84 47 35 3f 12 5c d2 3e 4f 2e c3 3e
       6.8388233 0.7081225 0.4108587 0.38121268
000390 08 04 27 3d 00 00 00 00 00 00 00 00 00 00 00 00
       0.04077533 0.0 0.0 0.0
0003a0 00 00 00 00 00 00 00 00 00 00 00 00 46 65 c2 40
       0.0 0.0 0.0 6.0748625
0003b0 8c 81 17 41 b6 e3 87 41 86 a8 10 41 6b 84 e8 c0
       9.469128 16.986187 9.041143 -7.2661643
0003c0 41 f1 56 c1 9f 79 ed c0 39 a2 e8 bf 8c a2 3d 3e
       -13.4339 -7.4210963 -1.8174506 0.18519038
0003d0 5a b3 93 40 39 28 b0 40 cd ce 89 40 a4 ec 75 41
       4.6156435 5.50491 4.306494 15.370274
0003e0 30 74 a7 41 18 86 06 41 ff e0 c9 3d 6b f2 3e 40
       20.931732 8.407738 0.09857368 2.983546
0003f0 c7 43 f2 40 dd 8c b1 40 74 cc e3 bf 5c 26 42 c1
       7.5707736 5.548445 -1.7796769 -12.134365
