output_mfcc/b797625d1ae702ed850a80a07c8e8732_seg1.npy (npy, 7460 bytes, 1 tensors)

array f4 [39, 47]
0	0xc3b8c554	-369.54163
1	0xc3ac68fe	-344.82025
2	0xc3ac0e0d	-344.10977
3	0xc39bbbc2	-311.46686
4	0xc39c783f	-312.93942
5	0xc3afaa3c	-351.32996
6	0xc3d1edd1	-419.85794
7	0xc3c46802	-392.81256
8	0xc3aab4f0	-341.41357
9	0xc3a68fc9	-333.12332
10	0xc3a6f9af	-333.95065
11	0xc37fcb34	-255.79376
12	0xc3660d1c	-230.05121
13	0xc38cd1af	-281.63815
14	0xc3a6aced	-333.35098
15	0xc38c6c0a	-280.84406
16	0xc37d369f	-253.21336
17	0xc35b2076	-219.1268
18	0xc3626495	-226.3929
19	0xc386e5bd	-269.79483
20	0xc3acb6c4	-345.42786
21	0xc3bacc10	-373.59424
22	0xc3b82500	-368.28906
23	0xc3cba548	-407.29126
24	0xc3ff6f9c	-510.87195
25	0xc41f40be	-637.0116
26	0xc4354e61	-725.2247
27	0xc44018d0	-768.3877
28	0xc443d6a5	-783.3538
29	0xc4469e1a	-794.47034
30	0xc4489799	-802.3687
31	0xc4489799	-802.3687
32	0xc4489799	-802.3687
33	0xc4489799	-802.3687
34	0xc4489799	-802.3687
35	0xc4489799	-802.3687
36	0xc4489799	-802.3687
37	0xc4489799	-802.3687
38	0xc4489799	-802.3687
39	0xc4489799	-802.3687
40	0xc4489799	-802.3687
41	0xc4489799	-802.3687
42	0xc4489799	-802.3687
43	0xc4489799	-802.3687
44	0xc4489799	-802.3687
45	0xc4489799	-802.3687
46	0xc4489799	-802.3687
47	0x40d094be	6.518157
48	0xc1b76b3f	-22.927366
49	0xc1c030b8	-24.023788
50	0x422bacef	42.91888
51	0x42a17cc2	80.74367
52	0x42a7d322	83.91237
53	0x42d51fe6	106.5623
54	0x42cf9a0c	103.80087
55	0x42c1776b	96.73324
56	0x42a9dbd1	84.92933
57	0x42b068a1	88.20435
58	0x42d21241	105.03565
59	0x42ff05e5	127.51151
60	0x4320b5c3	160.71
61	0x43304132	176.25467
62	0x4330ee7c	176.93158
63	0x433451de	180.3198
64	0x432fc57c	175.77142
65	0x4325222c	165.13348
66	0x431e3db5	158.24104
67	0x4320024c	160.00897
68	0x430dc336	141.76254
69	0x42deb585	111.35453
70	0x42d389dc	105.76926
71	0x42ed42c9	118.63044
72	0x42d25fde	105.18724
73	0x428f601a	71.6877
74	0x422d9e7e	43.404778
75	0x41cba676	25.45628
76	0x412ab322	10.668734
77	0x00000000	0.0
78	0x00000000	0.0
79	0x00000000	0.0
80	0x00000000	0.0
81	0x00000000	0.0
82	0x00000000	0.0
83	0x00000000	0.0
84	0x00000000	0.0
85	0x00000000	0.0
86	0x00000000	0.0
87	0x00000000	0.0
88	0x00000000	0.0
89	0x00000000	0.0
90	0x00000000	0.0
91	0x00000000	0.0
92	0x00000000	0.0
93	0x00000000	0.0
94	0x411b9c01	9.725587
95	0x400979e4	2.1480646
96	0x4117ecbd	9.495297
97	0x41af03e4	21.8769
98	0xc101e670	-8.118759
99	0xc1390b90	-11.565323
100	0x4103c638	8.235893
101	0xc0afeda9	-5.4977612
102	0xc18be13a	-17.484974
103	0x407293d0	3.7902718
104	0x418b8b20	17.442932
105	0xc211f44c	-36.48857
106	0xc287664d	-67.69981
107	0xc291f043	-72.96926
108	0xc1bb413e	-23.406857
109	0xc214fc4e	-37.24639
110	0xc256b3f8	-53.67575
111	0xc284c67f	-66.38769
112	0xc2792a3c	-62.291245
113	0xc25018ce	-52.024223
114	0xc2162da2	-37.544563
115	0xc1a7fb0d	-20.997583
116	0xc011bb4e	-2.2770572
117	0x4138747a	11.528437
118	0x406a070a	3.6566796
119	0x406d6c4c	3.709735
120	0x41be5a67	23.794142
121	0x42021b4c	32.526657
122	0x41ac225c	21.516777
123	0x4113d46e	9.239363
124	0x00000000	0.0
125	0x00000000	0.0
126	0x00000000	0.0
127	0x00000000	0.0
128	0x00000000	0.0
129	0x00000000	0.0
130	0x00000000	0.0
131	0x00000000	0.0
132	0x00000000	0.0
133	0x00000000	0.0
134	0x00000000	0.0
135	0x00000000	0.0
136	0x00000000	0.0
137	0x00000000	0.0
138	0x00000000	0.0
139	0x00000000	0.0
140	0x00000000	0.0
141	0x42a64ae6	83.146286
142	0x42a8cca6	84.399704
143	0x429fa9d7	79.83172
144	0x42aaf416	85.47673
145	0x42c60d27	99.02569
146	0x42d5fb11	106.990364
147	0x42c4e800	98.453125
148	0x42a7db9a	83.92891
149	0x428f37e0	71.60913
150	0x421cb0b6	39.17257
151	0x40f51808	7.6591835
152	0x409ff3ca	4.9985094
153	0x41a61323	20.759344
154	0x42174c7e	37.8247
155	0x415911c0	13.5668335
156	0x413ee034	11.929737
157	0x41056668	8.337502
158	0x41884bac	17.03695
159	0x419e9c34	19.826271
160	0x41cf156b	25.885458
161	0x421611a6	37.517235
162	0x4279075c	62.257187
163	0x42a99526	84.791306
164	0x42ac4762	86.13942
165	0x428a27ad	69.07749
166	0x4183c71e	16.472225
167	0x40bc44fb	5.8834205
168	0x419d9a2e	19.700283
169	0x41802991	16.020296
170	0x40e2e3bb	7.090299
171	0x00000000	0.0
172	0x00000000	0.0
173	0x00000000	0.0
174	0x00000000	0.0
175	0x00000000	0.0
176	0x00000000	0.0
177	0x00000000	0.0
178	0x00000000	0.0
179	0x00000000	0.0
180	0x00000000	0.0
181	0x00000000	0.0
182	0x00000000	0.0
183	0x00000000	0.0
184	0x00000000	0.0
185	0x00000000	0.0
186	0x00000000	0.0
187	0x00000000	0.0
188	0xc0ccfeab	-6.4060874
189	0xc151a1de	-13.102018
190	0xc167c001	-14.484376
191	0xc0bb33f1	-5.8500905
192	0xc1a22764	-20.269234
193	0xc22279dc	-40.619003
194	0xc27e0c6c	-63.51213
195	0xc24adab1	-50.713566
196	0xc2050194	-33.25154
197	0xc0a9895b	-5.298017
198	0x40d1bfbd	6.5546556
199	0xc161c04e	-14.109449
200	0xc1ec5876	-29.543194
201	0xc21740ed	-37.813404
202	0xc1c6b3cc	-24.837791
203	0xc1cf3916	-25.902874
204	0xc2043f73	-33.061962
205	0xc266b6b1	-57.67841
206	0xc288882a	-68.265945
207	0xc263fe80	-56.998535
208	0xc1f8e436	-31.111431
209	0xc2045e56	-33.092125
210	0xc2512efe	-52.29589
211	0xc26ecb18	-59.698334
212	0xc2549174	-53.142044
213	0xc1e8a592	-29.080845
214	0xc117434e	-9.453932
215	0x41035658	8.20858
216	0x412217aa	10.130777
217	0x4090de44	4.527132
218	0x00000000	0.0
219	0x00000000	0.0
220	0x00000000	0.0
221	0x00000000	0.0
222	0x00000000	0.0
223	0x00000000	0.0
224	0x00000000	0.0
225	0x00000000	0.0
226	0x00000000	0.0
227	0x00000000	0.0
228	0x00000000	0.0
229	0x00000000	0.0
230	0x00000000	0.0
231	0x00000000	0.0
232	0x00000000	0.0
233	0x00000000	0.0
234	0x00000000	0.0
235	0x40ace265	5.402636
236	0x409feb48	4.997471
237	0xc0eac097	-7.3360095
238	0xc1824580	-16.283936
239	0xc156795e	-13.404631
240	0xc0e30258	-7.094036
241	0xc06ba8fa	-3.6821885
242	0xc161552b	-14.083293
243	0xc1696505	-14.587163
244	0xc153de91	-13.2418375
245	0x409d0456	4.9067793
246	0x3fd89211	1.6919576
247	0x40b1d59c	5.5573254
248	0x418785da	16.940357
249	0x3f812529	1.0089465
250	0x40c4be56	6.1482344
251	0x4093cfc0	4.61911
252	0x40eef930	7.4679184
253	0x417709f9	15.439935
254	0x41af72bf	21.931028
255	0x4156a382	13.414919
