output_mfcc/b7e7cd2cc524d57fe9dbfb820a818053_seg0.npy (npy, 7460 bytes, 1 tensors)

array f4 [39, 47]
0	0xc43b4a31	-749.15924
1	0xc43b4a31	-749.15924
2	0xc43b4a31	-749.15924
3	0xc43b4a31	-749.15924
4	0xc43b4a31	-749.15924
5	0xc43b4a31	-749.15924
6	0xc43b4a31	-749.15924
7	0xc43b4a31	-749.15924
8	0xc43b4a31	-749.15924
9	0xc43af502	-747.82825
10	0xc4393e9a	-740.97815
11	0xc43a677d	-745.617
12	0xc4352a33	-724.65936
13	0xc408db30	-547.4248
14	0xc3fb7f7b	-502.99594
15	0xc403183d	-524.3787
16	0xc3e775fa	-462.9217
17	0xc38b894e	-279.0727
18	0xc33a02b9	-186.01064
19	0xc3255ba3	-165.35796
20	0xc3469d46	-198.61435
21	0xc34ee8f1	-206.90993
22	0xc3372dc8	-183.17883
23	0xc354d929	-212.84828
24	0xc397b06a	-303.37823
25	0xc3930060	-294.00293
26	0xc3972600	-302.29688
27	0xc3b87886	-368.9416
28	0xc391ee5b	-291.86215
29	0xc36abdd3	-234.7415
30	0xc37666eb	-246.40202
31	0xc3924174	-292.51135
32	0xc39ee2e4	-317.77258
33	0xc3713933	-241.22343
34	0xc3412e1f	-193.18016
35	0xc358b08f	-216.68968
36	0xc39c6815	-312.81314
37	0xc3c39044	-391.12708
38	0xc3879132	-271.13434
39	0xc35bcc00	-219.79688
40	0xc3352c4f	-181.17308
41	0xc34d5553	-205.3333
42	0xc38984e5	-275.03824
43	0xc39d320b	-314.39096
44	0xc3a17f1e	-322.9931
45	0xc398c930	-305.57178
46	0xc3967243	-300.89267
47	0x00000000	0.0
48	0x00000000	0.0
49	0x00000000	0.0
50	0x00000000	0.0
51	0x00000000	0.0
52	0x00000000	0.0
53	0x00000000	0.0
54	0x00000000	0.0
55	0x00000000	0.0
56	0x3db7ca14	0.0897409
57	0x3e555dc6	0.20836553
58	0x3ffaeaf9	1.9602958
59	0x409976de	4.79576
60	0x42175164	37.829483
61	0x422971c2	42.36109
62	0x426dc41c	59.441513
63	0x42de57a1	111.17115
64	0x43074632	135.2742
65	0x42f30dce	121.52696
66	0x42d71b80	107.55371
67	0x42d56b80	106.70996
68	0x42db4f58	109.65497
69	0x42df4f16	111.654465
70	0x42e2b0d6	113.34538
71	0x42c7ffac	99.99936
72	0x42d84c02	108.14845
73	0x430b55cb	139.33513
74	0x43322352	178.13797
75	0x431ff3d9	159.95253
76	0x430b9eeb	139.62077
77	0x42eb9d71	117.8075
78	0x42859baa	66.80403
79	0x4088f324	4.2796803
80	0x424126fa	48.288063
81	0x42c7fb22	99.99049
82	0x431171b2	145.44412
83	0x4321219e	161.13132
84	0x4306e4cf	134.89378
85	0x4321e200	161.88281
86	0x432e1dfc	174.11713
87	0x43089148	136.5675
88	0x42b50411	90.50794
89	0x4170b9be	15.045347
90	0xc1c764ae	-24.92416
91	0x418536ed	16.65182
92	0x42f5dde8	122.93341
93	0x43197d09	153.48842
94	0x00000000	0.0
95	0x00000000	0.0
96	0x00000000	0.0
97	0x00000000	0.0
98	0x00000000	0.0
99	0x00000000	0.0
100	0x00000000	0.0
101	0x00000000	0.0
102	0x00000000	0.0
103	0x3e1c23ea	0.15248075
104	0x3fec00cc	1.8437743
105	0x400c706c	2.1943617
106	0xc016ee60	-2.3582993
107	0xc1b1f089	-22.242449
108	0xc16f5d8e	-14.9603405
109	0xbfa24c94	-1.267962
110	0xc1ed9617	-29.698286
111	0xc28dbe3e	-70.87157
112	0xc2b63413	-91.10171
113	0xc2b24d6f	-89.15124
114	0xc28caede	-70.34154
115	0xc263f140	-56.985596
116	0xc2467edd	-49.62389
117	0xc20bd814	-34.961014
118	0x40b31d42	5.5973215
119	0x418edb38	17.85704
120	0x41b51a28	22.637772
121	0x41122e68	9.13633
122	0xc1c0f25f	-24.118345
123	0xc20ee35e	-35.72204
124	0xc1a885c3	-21.065313
125	0x4225d412	41.4571
126	0x427e99ef	63.650326
127	0x42117d9e	36.372673
128	0x4019efb0	2.4052544
129	0xc1fa46bf	-31.284544
130	0xc1e824ff	-29.018064
131	0x40b8fb62	5.7806864
132	0xc13f648f	-11.96205
133	0xc25ac2f4	-54.690384
134	0xc1f0d0d2	-30.101963
135	0x41a15534	20.166603
136	0x4205b28e	33.42437
137	0x415a47c6	13.642523
138	0x41db805a	27.437672
139	0x41c7c223	24.969793
140	0x419aa48a	19.330341
141	0x00000000	0.0
142	0x00000000	0.0
143	0x00000000	0.0
144	0x00000000	0.0
145	0x00000000	0.0
146	0x00000000	0.0
147	0x00000000	0.0
148	0x00000000	0.0
149	0x00000000	0.0
150	0x3fc87cd1	1.5663091
151	0x4114a0f4	9.289295
152	0x406b4686	3.6761794
153	0x40fdfd71	7.9371877
154	0x41d86414	27.048866
155	0x420f02c7	35.752712
156	0x42156ddc	37.357285
157	0xc1aa9bf5	-21.32615
158	0x4139d2d3	11.613971
159	0x41d7d6ef	26.979948
160	0x42098ba3	34.386364
161	0x425f64ab	55.84831
162	0x4268e474	58.2231
163	0x424a4704	50.56935
164	0x422173f0	40.36322
165	0x414aec37	12.68267
166	0xc06712da	-3.6105256
167	0x406780d0	3.617237
168	0x41905168	18.03975
169	0x42007218	32.11142
170	0x4227a386	41.90969
171	0x422a7fe4	42.624893
172	0x41062730	8.384567
173	0x4190946e	18.072475
174	0xc13eaa38	-11.916557
175	0xc1c4fc4e	-24.623196
176	0xc09ff687	-4.9988437
177	0x3f702f9e	0.9382266
178	0xc0cb6bf1	-6.3569264
179	0xc144c8ae	-12.298994
180	0xc037e01a	-2.873053
181	0xc1c5f0dc	-24.742607
182	0xc2185ba3	-38.08949
183	0xc1ad236a	-21.642292
184	0xc1c494b0	-24.572601
185	0x40801ccc	4.0035152
186	0x413439c9	11.264108
187	0x4176aad8	15.41671
188	0x00000000	0.0
189	0x00000000	0.0
190	0x00000000	0.0
191	0x00000000	0.0
192	0x00000000	0.0
193	0x00000000	0.0
194	0x00000000	0.0
195	0x00000000	0.0
196	0x00000000	0.0
197	0xbec10975	-0.37702528
198	0xc052a180	-3.2911072
199	0xbe0def01	-0.13860704
200	0xc1441e09	-12.257333
201	0xc20a390a	-34.555702
202	0xc218e1ac	-38.220383
203	0xc1e64c18	-28.787155
204	0xc1f74378	-30.907944
205	0xc244fa22	-49.24427
206	0xc2655c70	-57.34027
207	0xc2751491	-61.270084
208	0xc25b3517	-54.801846
209	0xc236f445	-45.738544
210	0xc21775ea	-37.86515
211	0xc18bd494	-17.478798
212	0x40921758	4.5653496
213	0xc1a4451c	-20.533745
214	0xc2040178	-33.001434
215	0xc1f10b24	-30.13044
216	0xc1949356	-18.571941
217	0xc1b427a6	-22.51936
218	0xc153b423	-13.231479
219	0x4184816a	16.56319
220	0x41b0057f	22.002684
221	0x4020b704	2.5111704
222	0xc1ad9a86	-21.70045
223	0xc22eda77	-43.713345
224	0xc2274480	-41.816895
225	0xc1f8305c	-31.023613
226	0xc23a8d6c	-46.638107
227	0xc27d5f21	-63.3429
228	0xc25213e1	-52.519413
229	0xc1ddfe0a	-27.749043
230	0xc10d8a45	-8.846257
231	0xc1e42452	-28.517735
232	0xc19bcea2	-19.475895
233	0xc1e58e28	-28.694412
234	0xc2153a56	-37.30697
235	0x00000000	0.0
236	0x00000000	0.0
237	0x00000000	0.0
238	0x00000000	0.0
239	0x00000000	0.0
240	0x00000000	0.0
241	0x00000000	0.0
242	0x00000000	0.0
243	0x00000000	0.0
244	0xbe5571b8	-0.20844162
245	0x3f822103	1.0166324
246	0x3f1631b0	0.5866957
247	0x40908e3b	4.517362
248	0x40f4c70e	7.6492987
249	0x4161a4e4	14.1027565
250	0x40a3e8ac	5.1221523
251	0x4137c84e	11.4864025
252	0x41bcd1e2	23.602482
253	0x420c8452	35.12922
254	0x41c95cce	25.170315
255	0x416683f6	14.407217
