output_mfcc/b8028933bc975d6b5703e0c61fb81b68_seg6.npy (npy, 7460 bytes, 1 tensors)

array f4 [39, 47]
-526.2286 -532.3762 -318.97592 -200.65498 -185.46953 -218.8158 -280.45938 -313.4807
-274.45755 -307.88327 -401.6569 -411.03964 -352.55872 -298.6241 -287.06683 -280.2662
-331.1378 -442.85443 -530.1998 -422.63657 -274.91638 -195.96443 -221.43573 -294.15457
-401.7933 -290.26932 -192.57915 -168.28156 -204.09592 -291.4778 -395.83707 -432.67514
-476.29242 -515.5667 -589.60785 -671.6272 -729.38806 -749.15314 -753.883 -753.86957
-753.8717 -754.90295 -755.171 -755.75195 -756.48334 -756.48334 -756.48334 28.16663
43.44809 166.02591 168.03949 168.20631 156.18645 98.93016 40.851685 84.31076
146.59135 187.59157 201.1561 167.26471 97.39279 54.124252 80.90747 133.30374
176.90558 151.136 163.44662 132.15814 55.84056 -16.828182 -51.7889 -5.0519495
97.43982 111.50229 113.55492 108.608795 116.12923 113.03322 167.45859 196.54373
187.9229 167.32945 97.70914 33.04191 9.571403 3.6068745 3.6826706 3.6826777
2.2114356 1.8401747 1.0330694 0.0 0.0 0.0 49.560257 54.050613
-38.17708 -76.24318 -98.723785 -73.24605 -10.263337 35.430443 47.292637 23.818926
-4.907565 -1.6832384 21.282276 21.18187 10.218731 8.238183 4.841355 16.200842
53.057755 40.743713 17.732218 5.8425064 -16.00791 -42.92637 -28.010399 -6.5900154
-31.784424 -48.27466 -41.82582 -20.178717 -5.5092587 59.25425 119.338326 127.022125
92.09822 45.002357 19.71065 7.4891486 3.4029434 3.6416683 3.6508565 2.1423016
1.794193 1.0291803 0.0 0.0 0.0 100.992676 99.51515 0.48578906
7.4472103 13.329655 7.8858805 -7.750865 -6.901844 5.727231 15.292214 37.619232
47.3913 24.965193 34.945175 55.00897 54.729935 57.538734 60.67103 57.461227
-1.8941559 15.874699 44.156845 64.77359 60.167362 68.38149 88.98094 90.97276
79.40237 55.56919 8.225452 -46.363968 -16.672901 -13.584741 -8.131123 -1.9546902
-6.2858257 4.4292464 4.8850093 3.0879488 3.574206 3.5982754 2.0309987 1.721133
1.0227157 0.0 0.0 0.0 63.180748 53.073418 -25.042912 -34.39617
-33.84781 -12.502779 -2.1573281 -6.978807 -4.5054874 -9.207617 -10.389159 -12.20063
-21.048946 -12.43453 9.57683 4.7875943 -0.53055286 -8.725233 -7.5365963 -22.965681
-13.376883 1.7419574 26.311554 37.49395 47.482117 0.292663 -23.704914 -34.18122
-26.283588 -18.661963 -35.757828 -32.190002 -40.824104 -45.285908 -39.512794 -29.90924
-6.430461 2.6296728 2.6954985 3.4815507 3.5255852 1.8831623 1.6260328 1.0137278
0.0 0.0 0.0 17.548002 6.963893 4.1178303 10.428772 8.608899
1.103212 8.527544 11.190964 15.002554 13.9364395 -3.9302397 -22.207314 9.132095
22.090775 17.065403 2.2614512 -5.6298013 -4.051955 -11.164913 28.349985 15.302925
00000000: a18e 03c4 1418 05c4 eb7c 9fc3 ada7 48c3
00000010: 3378 39c3 d8d0 5ac3 cd3a 8cc3 88bd 9cc3
00000020: 913a 89c3 0ff1 99c3 15d4 c8c3 1385 cdc3
00000030: 8447 b0c3 e34f 95c3 8e88 8fc3 1322 8cc3
00000040: a391 a5c3 5e6d ddc3 ca8c 04c4 7b51 d3c3
00000050: 4c75 89c3 e5f6 43c3 8c6f 5dc3 c913 93c3
00000060: 8be5 c8c3 7922 91c3 4394 40c3 1448 28c3
00000070: 8e18 4cc3 29bd 91c3 25eb c5c3 6b56 d8c3
00000080: 6e25 eec3 45e4 00c4 e766 13c4 24e8 27c4
00000090: d658 36c4 cd49 3bc4 8378 3cc4 a777 3cc4
000000a0: ca77 3cc4 cab9 3cc4 f2ca 3cc4 20f0 3cc4
000000b0: ef1e 3dc4 ef1e 3dc4 ef1e 3dc4 4255 e141
000000c0: d8ca 2d42 a206 2643 1c0a 2843 d134 2843
000000d0: bb2f 1c43 3edc c542 2068 2342 1c9f a842
000000e0: 6397 1243 7197 3b43 f627 4943 c443 2743
000000f0: 1cc9 c242 3c7f 5842 a0d0 a142 c24d 0543
00000100: d4e7 3043 d122 1743 5672 2343 7c28 0443
00000110: bc5c 5f42 1ea0 86c1 d527 4fc2 92a9 a1c0
00000120: 30e1 c242 2c01 df42 1e1c e342 b437 d942
00000130: 2a42 e842 0211 e242 6675 2743 328b 4443
00000140: 43ec 3b43 5754 2743 146b c342 ea2a 0442
00000150: 7724 1941 08d7 6640 e0b0 6b40 feb0 6b40
00000160: 2988 0d40 d88a eb3f 9e3b 843f 0000 0000
00000170: 0000 0000 0000 0000 b43d 4642 d433 5842
00000180: 54b5 18c2 827c 98c2 9472 c5c2 fa7d 92c2
00000190: a136 24c1 c6b8 0d42 a92b 3d42 298d be41
000001a0: c60a 9dc0 5b74 d7bf 1a42 aa41 7874 a941
000001b0: ec7f 2341 99cf 0341 61ec 9a40 539b 8141
000001c0: 243b 5442 90f9 2242 95db 8d41 d0f5 ba40
000001d0: 3310 80c1 9ab4 2bc2 4c15 e0c1 68e1 d2c0
000001e0: 8046 fec1 4019 41c2 a44d 27c2 036e a1c1
000001f0: d94b b0c0 5a04 6d42 39ad ee42 540b fe42
00000200: 4a32 b842 6a02 3442 69af 9d41 1ba7 ef40
00000210: d3c9 5940 1811 6940 a2a7 6940 781b 0940
00000220: 1ea8 e53f 2ebc 833f 0000 0000 0000 0000
00000230: 0000 0000 40fc c942 c207 c742 58b9 f83e
00000240: 8c4f ee40 4446 5541 2259 fc40 1607 f8c0
00000250: e8db dcc0 7a45 b740 e9ac 7441 187a 1642
00000260: b190 3d42 b7b8 c741 dcc7 0b42 2f09 5c42
00000270: 74eb 5a42 aa27 6642 22af 7242 4cd8 6542
00000280: b373 f2bf c4fe 7d41 9ca0 3042 148c 8142
00000290: 61ab 7042 53c3 8842 3ef6 b142 0ef2 b542
000002a0: 03ce 9e42 da46 5e42 749b 0341 b474 39c2
000002b0: 1a62 85c1 195b 59c1 1419 02c1 4a33 fabf
000002c0: 7c25 c9c0 63bc 8d40 ff51 9c40 f4a0 4540
000002d0: cbbf 6440 254a 6640 e2fb 0140 164e dc3f
000002e0: 59e8 823f 0000 0000 0000 0000 0000 0000
000002f0: 16b9 7c42 2e4b 5442 e257 c8c1 ae95 09c2
00000300: 2864 07c2 620b 48c1 aa11 0ac0 6352 dfc0
00000310: f42c 90c0 6652 13c1 ff39 26c1 c835 43c1
00000320: 3e64 a8c1 d6f3 46c1 b23a 1941 f933 9940
00000330: 50d2 07bf 8e9a 0bc1 cc2b f1c0 b7b9 b7c1
00000340: b607 56c1 76f8 de3f 107e d241 cef9 1542
00000350: b0ed 3d42 edd7 953e aaa3 bdc1 92b9 08c2
00000360: ca44 d2c1 b34b 95c1 0408 0fc2 90c2 00c2
00000370: e24b 23c2 c524 35c2 1a0d 1ec2 2046 efc1
00000380: 56c6 cdc0 8f4c 2840 0c83 2c40 bad1 5e40
00000390: 30a3 6140 760b f13f d821 d03f d5c1 813f
000003a0: 0000 0000 0000 0000 0000 0000 4f62 8c41
000003b0: 36d8 de40 44c5 8340 40dc 2641 0dbe 0941
000003c0: 0d36 8d3f d270 0841 300e 3341 760a 7041
000003d0: a8fb 5e41 0c89 7bc0 94a8 b1c1 101d 1241
000003e0: e8b9 b041 f285 8841 9ebb 1040 5527 b4c0
000003f0: 9ea9 81c0 7ca3 32c1 c5cc e241 c8d8 7441
