output_mfcc/b896c14fb0bc5630a15739cceed0ea83_seg2.npy (npy, 7460 bytes, 1 tensors)

array f4 [39, 47]
-382.61407 -372.35175 -312.3746 -218.40872 -178.05692 -196.42607 -287.7998 -333.71805
-310.94238 -359.71106 -375.84576 -376.91647 -444.39093 -487.08374 -339.1479 -255.00607
-238.02216 -278.40472 -328.88434 -229.50027 -194.37727 -212.74013 -278.7857 -315.39764
-277.8106 -307.09363 -366.6864 -386.21326 -398.92316 -384.99155 -305.9338 -253.40878
-262.5716 -312.07935 -327.67096 -324.38297 -295.54388 -324.3544 -399.52988 -359.6137
-369.10767 -449.12302 -548.80194 -413.55853 -293.07986 -220.29008 -188.85004 127.991425
131.80106 89.72741 132.11636 159.41377 156.29364 152.54033 130.80646 150.3175
149.4301 63.873756 56.0849 108.57147 193.02225 174.995 151.01566 121.07793
63.775074 -4.274502 88.39816 125.5838 147.7456 161.56299 144.05853 132.78043
131.21411 124.621895 110.72208 86.69403 71.82422 90.91254 100.76373 111.223694
123.88226 92.91818 60.083534 66.942825 97.29122 149.17291 163.5185 187.12422
207.28043 166.32367 124.99611 163.26195 179.49263 185.58444 29.451214 10.248017
-30.079712 -45.51037 -80.95186 -84.55765 -50.296135 -0.79942626 20.059082 54.17344
58.005615 60.49742 82.33759 88.70863 35.820488 4.0643115 11.553663 22.527903
3.7878194 0.9547614 -34.123596 -52.175068 -32.998474 -22.938019 -26.239315 -19.814968
5.1891856 26.996231 34.336075 26.408375 -6.2180033 -32.195175 -30.121365 10.749997
47.313164 48.792374 38.06378 34.892967 30.225365 44.662117 62.34484 73.04645
59.481377 13.754046 19.782492 -26.468853 -50.820824 24.89491 15.008306 0.7439823
1.1748245 14.024312 12.783676 9.260726 31.649208 34.660095 8.175179 22.900866
30.247574 34.505806 21.91754 23.267849 11.540874 -3.8022084 -2.6677532 4.5274024
-3.7193432 20.658253 36.584072 26.351189 22.809444 37.896538 48.281464 47.532722
30.424717 39.30495 77.41817 94.283516 84.17314 65.67903 28.081482 6.18217
11.340703 20.987995 31.087437 -7.1815805 -13.2085 11.366753 31.988022 22.36567
7.7102337 23.223007 26.2181 30.602358 6.989419 5.656786 -6.891577 -21.479101
-44.420094 -47.436676 -32.65428 -29.052177 -40.126366 -25.663187 10.16028 20.370079
18.555098 -31.742126 -64.63752 -59.142174 -34.57518 -13.808733 -1.2815626 -29.63897
-58.07348 -78.44854 -63.46403 -19.23143 -10.593426 -8.084006 -2.0485203 7.6779747
18.731043 20.184149 -16.65143 -28.293865 -17.113918 3.290497 3.3595858 11.182096
18.882946 16.369047 -36.112984 -52.019737 -56.88499 -56.32747 -2.1889668 -21.826302
-80.20477 -98.169815 -71.09194 -3.9997058 -5.298959 6.0750923 3.1878653 9.362705
10.126014 7.9919777 -0.13192229 4.721113 3.1964722 -5.0606785 0.45265022 -5.577456
-3.5810237 6.4146314 13.593103 11.180803 16.049038 6.875182 6.961428 13.533765
00000000: 9a4e bfc3 062d bac3 f32f 9cc3 a268 5ac3
00000010: 920e 32c3 136d 44c3 60e6 8fc3 e9db a6c3
00000020: a078 9bc3 04db b3c3 42ec bbc3 4f75 bcc3
00000030: 0a32 dec3 b88a f3c3 ee92 a9c3 8e01 7fc3
00000040: ac05 6ec3 ce33 8bc3 3271 a4c3 1280 65c3
00000050: 9560 42c3 79bd 54c3 9264 8bc3 e6b2 9dc3
00000060: c2e7 8ac3 fc8b 99c3 dc57 b7c3 4c1b c1c3
00000070: 2a76 c7c3 eb7e c0c3 87f7 98c3 a668 7dc3
00000080: 2a49 83c3 280a 9cc3 e2d5 a3c3 0531 a2c3
00000090: 9ec5 93c3 5d2d a2c3 d3c3 c7c3 8ece b3c3
000000a0: c88d b8c3 bf8f e0c3 5333 09c4 7ec7 cec3
000000b0: 398a 92c3 434a 5cc3 9cd9 3cc3 9cfb ff42
000000c0: 12cd 0343 6f74 b342 ca1d 0443 ed69 1f43
000000d0: 2c4b 1c43 538a 1843 74ce 0243 4851 1643
000000e0: 1b6e 1543 ba7e 7f42 f056 6042 9824 d942
000000f0: b205 4143 b8fe 2e43 0204 1743 e627 f242
00000100: ad19 7f42 b8c8 88c0 dccb b042 e82a fb42
00000110: e0be 1343 2090 2143 fc0e 1043 cac7 0443
00000120: d036 0343 693e f942 b471 dd42 5863 ad42
00000130: 00a6 8f42 38d3 b542 0887 c942 8872 de42
00000140: b8c3 f742 1cd6 b942 8a55 7042 bae2 8542
00000150: 1b95 c242 442c 1543 bc84 2343 cd1f 3b43
00000160: ca47 4f43 dc52 2643 02fe f942 0f43 2343
00000170: 1d7e 3343 9e95 3943 169c eb41 e1f7 2341
00000180: 40a3 f0c1 9e0a 36c2 5ae7 a1c2 841d a9c2
00000190: 3e2f 49c2 33a7 4cbf 0079 a041 9ab1 5842
000001a0: c005 6842 5cfd 7142 d9ac a442 d26a b142
000001b0: 2e48 0f42 d70e 8240 cedb 3841 2539 b441
000001c0: a26b 7240 3e6b 743f 907e 08c2 45b3 50c2
000001d0: 70fe 03c2 1081 b7c1 1eea d1c1 0e85 9ec1
000001e0: cf0d a640 48f8 d741 2458 0942 5a44 d341
000001f0: e2f9 c6c0 dcc7 00c2 8ef8 f0c1 fdff 2b41
00000200: ae40 3d42 642b 4342 5041 1842 6692 0b42
00000210: 8ccd f141 02a6 3242 1e61 7942 c817 9242
00000220: eeec 6d42 9310 5c41 8b42 9e41 36c0 d3c1
00000230: 8648 4bc2 c728 c741 0522 7041 a075 3e3f
00000240: a660 963f 9563 6041 f089 4c41 ef2b 1441
00000250: 9431 fd41 f0a3 0a42 88cd 0241 f934 b741
00000260: 08fb f141 f205 0a42 1f57 af41 8e24 ba41
00000270: 6ba7 3841 6257 73c0 78bc 2ac0 7be0 9040
00000280: b809 6ec0 1a44 a541 1756 1242 3ccf d241
00000290: be79 b641 0e96 1742 3820 4142 8221 3e42
000002a0: d265 f341 4538 1d42 1ad6 9a42 2991 bc42
000002b0: a658 a842 aa5b 8342 e0a6 e041 56d4 c540
000002c0: 8573 3541 6ae7 a741 12b3 f841 82cf e5c0
000002d0: 0456 53c1 38de 3541 78e7 ff41 e4ec b241
000002e0: 3cba f640 b8c8 b941 abbe d141 a1d1 f441
000002f0: 52a9 df40 6404 b540 cc87 dcc0 33d5 abc1
00000300: 2dae 31c2 28bf 3dc2 fc9d 02c2 dc6a e8c1
00000310: 6681 20c2 354e cdc1 8290 2241 ecf5 a241
00000320: d770 9441 e0ef fdc1 6946 81c2 9691 6cc2
00000330: fc4c 0ac2 92f0 5cc1 3e0a a4bf 9c1c edc1
00000340: 3e4b 68c2 a7e5 9cc2 2bdb 7dc2 f8d9 99c1
00000350: ac7e 29c1 1758 01c1 f51a 03c0 f8b1 f540
00000360: 2dd9 9541 2379 a141 2136 85c1 d659 e2c1
00000370: 4ee9 88c1 8197 5240 7403 5740 dde9 3241
00000380: 4610 9741 cff3 8241 b273 10c2 3614 50c2
00000390: 3b8a 63c2 544f 61c2 0818 0cc0 449c aec1
000003a0: d868 a0c2 f256 c4c2 132f 8ec2 2efb 7fc0
000003b0: 1291 a9c0 2867 c240 fc05 4c40 a4cd 1541
000003c0: 2704 2241 48be ff40 a316 07be 5c13 9740
000003d0: 0093 4c40 14f1 a1c0 c5c1 e73e 857a b2c0
000003e0: 7e2f 65c0 a944 cd40 5a7d 5941 92e4 3241
000003f0: 6e64 8041 7e01 dc40 05c4 de40 4d8a 5841
