output_mfcc/b8f91935e3c0cb44a883f91b43a38062_seg0.npy (npy, 7460 bytes, 1 tensors)

array f4 [39, 47]
-792.28455 -790.81287 -788.96796 -787.54877 -789.0916 -791.0724 -790.6205 -789.7747
-791.7471 -705.4898 -491.22763 -344.28583 -281.9981 -288.97595 -348.924 -385.97382
-357.79688 -283.3968 -254.38913 -299.6532 -424.30048 -435.589 -405.84457 -414.03674
-434.66248 -280.9909 -242.50294 -266.32578 -284.29562 -271.5785 -254.80157 -297.57297
-313.90363 -269.69766 -315.6761 -451.83316 -350.61963 -275.91116 -287.5578 -330.92606
-328.84143 -291.21152 -244.69986 -271.5099 -328.04968 -297.59067 -224.8817 0.0
2.0719109 4.647251 6.619146 4.4668875 1.6968856 2.3058197 2.9813774 0.73345065
98.36052 105.23822 97.244255 85.73475 91.586044 93.21149 86.9988 126.36676
140.1516 120.640625 117.19934 129.91316 104.306595 98.09801 82.59093 84.34123
124.81122 138.61295 150.88098 170.44223 158.42685 138.9946 143.34085 149.1381
147.89789 152.14645 148.78217 165.94922 167.93095 155.55774 144.40845 78.35904
59.003128 95.27709 122.66728 100.13127 65.91594 102.578896 0.0 2.043775
4.5191364 6.3891993 4.3238783 1.645442 2.1760352 1.8013558 0.67355144 79.42653
21.53382 -8.465957 -25.795742 -32.91181 -16.192099 5.403096 -20.978241 -74.83917
-81.269165 -64.34852 -30.060402 -1.9939297 -4.504445 14.517953 25.44064 -18.405613
-43.69497 -68.35527 -68.96669 -60.63328 -58.18363 -47.12069 -21.049858 -18.594027
-8.6236515 27.792763 -12.691376 -45.478264 -63.082855 -38.28765 42.118675 23.872957
-12.962509 -41.851185 -3.1089594 7.169056 -28.248985 0.0 1.9975011 4.3097754
6.022093 4.0955353 1.562063 1.9960151 0.89336514 0.60898185 60.234303 126.668365
117.31746 91.053635 60.322865 33.528152 23.72962 47.963993 55.143585 53.2045
64.83905 61.77417 111.9509 140.73929 129.4538 56.132175 23.28307 31.693047
40.086105 53.04348 80.28287 87.05603 82.63787 47.14969 32.15798 22.557205
-4.465206 2.4898584 26.40622 45.982258 44.78105 11.884211 1.8025541 11.936453
42.382362 48.40555 61.891487 50.377052 0.0 1.9339502 4.025279 5.540251
3.7957466 1.450124 1.8013737 0.49224693 0.5345137 16.189207 -22.100975 -26.364677
-16.915346 -5.211084 13.237532 14.855194 -5.3282757 -22.296799 -30.626404 -26.28477
-19.101845 -35.484768 -41.553516 -32.074574 -22.180798 -41.068405 -54.378174 -65.082405
-54.56614 -55.415558 -50.41455 -39.496662 -39.053543 -54.586823 -57.530735 -56.65016
-35.225975 -37.150745 -30.038303 -15.555205 -1.2958764 6.5083323 -4.1187587 -19.555489
-1.9387853 -1.3470082 -9.374977 0.0 1.8543874 3.6738155 4.9716835 3.441969
1.3141602 1.6145327 0.3048228 0.42912805 -2.4464712 -3.3392298 -6.022975 -6.704817
-4.2265663 8.118456 21.20319 0.06768879 2.9794161 0.13093096 -3.4762979 -13.445307
00000000: 3612 46c4 06b4 45c4 f33d 45c4 1fe3 44c4
00000010: dd45 45c4 a2c4 45c4 b6a7 45c4 9571 45c4
00000020: d0ef 45c4 595f 30c4 239d f5c3 9624 acc3
00000030: c2ff 8cc3 ec7c 90c3 4676 aec3 a6fc c0c3
00000040: 00e6 b2c3 cab2 8dc3 9e63 7ec3 9cd3 95c3
00000050: 7626 d4c3 64cb d9c3 1bec cac3 b404 cfc3
00000060: cc54 d9c3 d67e 8cc3 c180 72c3 b329 85c3
00000070: d725 8ec3 0cca 87c3 34cd 7ec3 57c9 94c3
00000080: aaf3 9cc3 4dd9 86c3 8ad6 9dc3 a5ea e1c3
00000090: 504f afc3 a1f4 89c3 66c7 8fc3 8976 a5c3
000000a0: b46b a4c3 139b 91c3 2ab3 74c3 44c1 87c3
000000b0: 5c06 a4c3 9bcb 94c3 b7e1 60c3 0000 0000
000000c0: 309a 0440 48b6 9440 0bd0 d340 bef0 8e40
000000d0: 8c33 d93f 8d92 1340 e3ce 3e40 6cc3 3b3f
000000e0: 96b8 c442 f879 d242 0f7d c242 3178 ab42
000000f0: 0e2c b742 486c ba42 63ff ad42 c8bb fc42
00000100: cf26 0c43 0048 f142 1066 ea42 c5e9 0143
00000110: fa9c d042 2e32 c442 8e2e a542 b6ae a842
00000120: 589f f942 ea9c 0a43 88e1 1643 3671 2a43
00000130: 466d 1e43 9efe 0a43 4257 0f43 5b23 1543
00000140: dce5 1343 7e25 1843 3cc8 1443 00f3 2543
00000150: 53ee 2743 c88e 1b43 9068 1043 d4b7 9c42
00000160: 3403 6c42 df8d be42 a655 f542 3643 c842
00000170: f6d4 8342 6528 cd42 0000 0000 36cd 0240
00000180: c49c 9040 5274 cc40 365d 8a40 d89d d23f
00000190: 2944 0b40 d492 e63f de6d 2c3f 62da 9e42
000001a0: 4345 ac41 8f74 07c1 ae5d cec1 b2a5 03c2
000001b0: 6b89 81c1 2ae6 ac40 70d3 a7c1 a8ad 95c2
000001c0: d089 a2c2 71b2 80c2 b47b f0c1 1739 ffbf
000001d0: 6a24 90c0 8949 6841 6e86 cb41 b23e 93c1
000001e0: a6c7 2ec2 e6b5 88c2 f2ee 89c2 7b88 72c2
000001f0: 0abc 68c2 967b 3cc2 1c66 a8c1 91c0 94c1
00000200: 7afa 09c1 9457 de41 e00f 4bc1 bee9 35c2
00000210: d854 7cc2 8e26 19c2 8679 2842 d1fb be41
00000220: 7066 4fc1 9d67 27c2 31f9 46c0 e868 e540
00000230: ecfd e1c1 0000 0000 1eae ff3f aee9 8940
00000240: fcb4 c040 a00e 8340 aef1 c73f 6c7d ff3f
00000250: 94b3 643f 3ce6 1b3f edef 7042 3456 fd42
00000260: 8aa2 ea42 761b b642 9d4a 7142 d41c 0642
00000270: 43d6 bd41 21db 3f42 0893 5c42 68d1 5442
00000280: 98ad 8142 c018 7742 dce6 df42 42bd 0c43
00000290: 2c74 0143 5987 6042 ba43 ba41 5c8b fd41
000002a0: 2c58 2042 862c 5442 d490 a042 b01c ae42
000002b0: 9746 a542 4899 3c42 c6a1 0042 2875 b441
000002c0: f8e2 8ec0 d759 1f40 f03f d341 d5ed 3742
000002d0: cc1f 3342 ba25 3e41 18ba e63f b6fb 3e41
000002e0: 8a87 2942 489f 4142 e290 7742 1a82 4942
000002f0: 0000 0000 ae8b f73f 16cf 8040 bc49 b140
00000300: 83ed 7240 aa9d b93f 6a93 e63f ca07 fc3e
00000310: e4d5 083f 7f83 8141 ccce b0c1 dcea d2c1
00000320: a152 87c1 33c1 a6c0 eecc 5341 e0ae 6d41
00000330: 3c81 aac0 d85f b2c1 e002 f5c1 3547 d2c1
00000340: 94d0 98c1 67f0 0dc2 cd36 26c2 5d4c 00c2
00000350: 4672 b1c1 0c46 24c2 4083 59c2 312a 82c2
00000360: ba43 5ac2 88a9 5dc2 80a8 49c2 95fc 1dc2
00000370: d436 1cc2 e858 5ac2 791f 66c2 c499 62c2
00000380: 66e7 0cc2 5d9a 14c2 724e f0c1 1fe2 78c1
00000390: 47df a5bf 4244 d040 dfcc 83c0 a471 9cc1
000003a0: 1e2a f8bf c46a acbf e8ff 15c1 0000 0000
000003b0: 915c ed3f cb1f 6b40 0818 9f40 3849 5c40
000003c0: 6736 a83f 02a9 ce3f bc11 9c3e acb6 db3e
000003d0: fc92 1cc0 f1b5 55c0 36bc c0c0 dc8d d6c0
000003e0: 0840 87c0 32e5 0141 22a0 a941 6ca0 8a3d
000003f0: c1ae 3e40 c412 063e aa7b 5ec0 fa1f 57c1
