output_mfcc/b9367c467304a276973a135cbafe3723_seg1.npy (npy, 7460 bytes, 1 tensors)

array f4 [39, 47]
0	0xc38bf063	-279.87802
1	0xc397073f	-302.0566
2	0xc3c1066c	-386.05017
3	0xc3c62339	-396.27518
4	0xc3c800de	-400.00677
5	0xc3d30dc6	-422.1076
6	0xc3cc0681	-408.0508
7	0xc3c61e18	-396.2351
8	0xc3b9c458	-371.53394
9	0xc3b1d042	-355.627
10	0xc39ff815	-319.93814
11	0xc387b866	-271.4406
12	0xc3832d84	-262.3556
13	0xc39162d6	-290.77216
14	0xc394da6c	-297.70642
15	0xc3817abf	-258.95895
16	0xc37265a5	-242.39705
17	0xc389f8aa	-275.9427
18	0xc3be4562	-380.54205
19	0xc3e6151e	-460.16498
20	0xc3d0bc01	-417.46878
21	0xc3c77913	-398.9459
22	0xc3c794c7	-399.16232
23	0xc3b4d690	-361.67627
24	0xc3ab2a7f	-342.332
25	0xc3b0157a	-352.1678
26	0xc3c233ba	-388.4041
27	0xc3b15004	-354.62512
28	0xc39e7de7	-316.9836
29	0xc3ad525a	-346.64337
30	0xc3c0cd64	-385.6046
31	0xc3ac864e	-345.04926
32	0xc3a8af81	-337.37112
33	0xc3b9ea2f	-371.82956
34	0xc3c25036	-388.62665
35	0xc3c09a0f	-385.20358
36	0xc396697c	-300.8241
37	0xc364d8a8	-228.84631
38	0xc33ca033	-188.62578
39	0xc338e642	-184.89944
40	0xc36d1eb9	-237.12001
41	0xc37cc9ed	-252.78877
42	0xc389ed64	-275.8546
43	0xc3a44f2e	-328.6186
44	0xc3ba73da	-372.9051
45	0xc38f5af2	-286.7105
46	0xc371e781	-241.90431
47	0x431f163c	159.08685
48	0x432b3ca4	171.23688
49	0x432ee99c	174.91254
50	0x4319ee6f	153.93138
51	0x4328f4a6	168.95566
52	0x4334d364	180.82574
53	0x4328192b	168.09831
54	0x43266074	166.37677
55	0x4336b23d	182.69624
56	0x43375001	183.31252
57	0x432249a6	162.28769
58	0x42db9016	109.78142
59	0x428f2bba	71.5854
60	0x426050bc	56.078842
61	0x42c9d9e2	100.92555
62	0x431dd928	157.84827
63	0x431eb7c7	158.71788
64	0x4330abed	176.67159
65	0x4345d5ce	197.83517
66	0x434c8904	204.53522
67	0x43521328	210.07483
68	0x434a8b99	202.5453
69	0x433341fe	179.25778
70	0x4329d27d	169.82222
71	0x432b571c	171.34027
72	0x43196492	153.39285
73	0x4301b7f6	129.7186
74	0x42f3696e	121.70592
75	0x4308a51d	136.64497
76	0x43188e19	152.55507
77	0x4304dd14	132.86359
78	0x42d15a56	104.67644
79	0x4306a34d	134.6379
80	0x43306981	176.41212
81	0x4337af67	183.68517
82	0x43472a55	199.16536
83	0x4358b285	216.69734
84	0x4342aed9	194.683
85	0x432535f2	165.21072
86	0x431059ea	144.35123
87	0x4280eda0	64.46411
88	0x4249c814	50.44539
89	0x42accb92	86.3976
90	0x4293b983	73.86233
91	0xc1b20186	-22.250744
92	0x412cb03c	10.793026
93	0x4291e07e	72.93846
94	0x3f91e2b2	1.1397307
95	0xc075a58b	-3.838229
96	0xc0e15525	-7.0416436
97	0xc182c60e	-16.346706
98	0xc02dfa8a	-2.7184167
99	0x41630078	14.187614
100	0xc01c4887	-2.4419267
101	0xc0ab24f4	-5.348261
102	0xbfc3e8d8	-1.5305433
103	0xc194cc9c	-18.599907
104	0xc1d6c812	-26.84769
105	0xc13f2a50	-11.94783
106	0xc085cfce	-4.181617
107	0x41525fec	13.148418
108	0xbf3927eb	-0.72326535
109	0xc28fd76d	-71.92075
110	0xc2ac1b6f	-86.05358
111	0xc28ce8c0	-70.45459
112	0xc1fbdbf6	-31.482403
113	0x41816cdd	16.178156
114	0x419c47ab	19.534994
115	0x41949403	18.572271
116	0x414fc7e2	12.9862995
117	0xc19591ae	-18.696133
118	0xc1d362ec	-26.423302
119	0x4001c2f8	2.027525
120	0x41990a2c	19.129967
121	0xbfafc0f5	-1.3730761
122	0xc1b83911	-23.027864
123	0xc1d664f4	-26.799294
124	0xc223042e	-40.75408
125	0xc2591204	-54.267593
126	0xc19318ee	-18.387173
127	0x42378e9c	45.889267
128	0x41fae4ec	31.361778
129	0xc0a38b9a	-5.110791
130	0xc2328a72	-44.6352
131	0xc2b87491	-92.22767
132	0xc2ee61d0	-119.19104
133	0xc2ae591e	-87.17406
134	0xc1c3d2ba	-24.477894
135	0x40aee266	5.4651365
136	0x404c2ce1	3.1902392
137	0x41973fa3	18.906073
138	0x423bf5f6	46.990196
139	0x41a21e20	20.26471
140	0xc109da9a	-8.6158695
141	0x41f9d34c	31.228172
142	0x4219b801	38.42969
143	0x423ff2c0	47.98706
144	0x42853e50	66.621704
145	0x42787eba	62.123756
146	0x421a32e7	38.54971
147	0x424d32f8	51.299774
148	0x426dcde6	59.451073
149	0x4266d5d4	57.708817
150	0x423c8230	47.127136
151	0x41c40ce0	24.506287
152	0x410db2c0	8.85614
153	0x4191574a	18.167622
154	0x41f4868a	30.565693
155	0x41ba1b02	23.263187
156	0x41df19a9	27.88753
157	0x421340a7	36.813137
158	0x423ac7b8	46.695038
159	0x420c8dfa	35.13865
160	0x418ccc56	17.599773
161	0x41c99900	25.199707
162	0x41fd52c6	31.665417
163	0x4221bec4	40.436295
164	0x422905ce	42.25567
165	0x4234686e	45.101982
166	0x41cc0590	25.502716
167	0x416db620	14.856964
168	0x41d33414	26.400429
169	0x4261a201	56.408207
170	0x4293db93	73.928856
171	0x4280d197	64.409355
172	0x421ee77c	39.72606
173	0x423018a8	44.02408
174	0x41da68e4	27.301216
175	0x42155117	37.32919
176	0x421559c5	37.337666
177	0x418e412b	17.78182
178	0x41d90bbc	27.13073
179	0x421de30a	39.471718
180	0x41d28403	26.314459
181	0x412c7220	10.777863
182	0x4223eb12	40.97956
183	0x4293b1fb	73.84762
184	0x4290d1a4	72.409454
185	0x42a930d2	84.59535
186	0x42843acd	66.114845
187	0x4288fd88	68.49518
188	0xc26dc31b	-59.440533
189	0xc284e6f8	-66.45111
190	0xc28ae220	-69.44165
191	0xc27ccfd8	-63.202972
192	0xc25313bd	-52.769276
193	0xc24fe1a2	-51.970345
194	0xc2620af3	-56.510693
195	0xc27d84fa	-63.37986
196	0xc28aa46f	-69.32116
197	0xc2959070	-74.782104
198	0xc2837912	-65.736465
199	0xc2138470	-36.879333
200	0xc1d4a0af	-26.578459
201	0xc1ca9dd6	-25.327068
202	0xc1beb874	-23.840065
203	0xc23af24d	-46.73662
204	0xc25700d0	-53.750793
205	0xc2475304	-49.83107
206	0xc1caa109	-25.32863
207	0xc1b1ac88	-22.209244
208	0xc2367b56	-45.620445
209	0xc271f120	-60.485474
210	0xc28f3332	-71.59999
211	0xc29fbed5	-79.87272
212	0xc2981c76	-76.05559
213	0xc230d90c	-44.21196
214	0xc1332c86	-11.19837
215	0xc095831c	-4.6722546
216	0xc12b8fd3	-10.722613
217	0xc161e34c	-14.117992
218	0x413fd745	11.990056
219	0x40d06e93	6.513498
220	0xc0974135	-4.72671
221	0xc25bab58	-54.917328
222	0xc26add64	-58.7162
223	0xc250c820	-52.195435
224	0xc26b6870	-58.85199
225	0xc25ee946	-55.727806
226	0xc238b380	-46.175293
227	0xc1ab1ff8	-21.39061
228	0x3ed8e06c	0.4235872
229	0x410a39ee	8.639143
230	0x4156e6c4	13.431339
231	0x41c13b59	24.153978
232	0x41ec0508	29.502457
233	0x411ef039	9.933648
234	0x3fe6d67e	1.8034208
235	0xbfa4b6f3	-1.2868332
236	0xbfcfec64	-1.6244016
237	0xc1368534	-11.40752
238	0xc19ccebb	-19.600943
239	0xc1a2c87c	-20.347893
240	0xc0f7d033	-7.744165
241	0xc10e5c53	-8.89754
242	0xc19f2ea5	-19.897776
243	0xc1cca034	-25.578224
244	0xc1d27fe7	-26.312452
245	0xc18a8375	-17.314188
246	0x3fa13c24	1.2596478
247	0x414e982b	12.91215
248	0x4158bc1c	13.545925
249	0x400a0430	2.1565056
250	0x40de171e	6.940322
251	0x40b67573	5.701837
252	0x3e082f91	0.13299395
253	0xc1396501	-11.587159
254	0xc13cb6a8	-11.794594
255	0xc12a5710	-10.6462555
