output_mfcc/b9540e1f53432132c89badded09f0628_seg2.npy (npy, 7460 bytes, 1 tensors)

array f4 [39, 47]
0	0xc3efc9bd	-479.57608
1	0xc3c2f920	-389.9463
2	0xc3be20b7	-380.25558
3	0xc3cad214	-405.64124
4	0xc3ba2b38	-372.33765
5	0xc3a734eb	-334.41342
6	0xc3b4145a	-360.159
7	0xc3bf62dd	-382.77237
8	0xc3923f7f	-292.49606
9	0xc38958a8	-274.69263
10	0xc3a456c4	-328.67786
11	0xc3b46bce	-360.84222
12	0xc3a1d3bd	-323.6542
13	0xc39da527	-315.29025
14	0xc3addfcf	-347.7485
15	0xc3a1dcc8	-323.72485
16	0xc39066a4	-288.80188
17	0xc38eef08	-285.86743
18	0xc3b2ad2d	-357.35294
19	0xc3c779f2	-398.9527
20	0xc38e24b5	-284.28677
21	0xc383c9c0	-263.57617
22	0xc3a42cf1	-328.3511
23	0xc3b7b5a8	-367.4192
24	0xc3bcf6b7	-377.92746
25	0xc3cb4afe	-406.58588
26	0xc3dc9a8a	-441.20734
27	0xc3c421a1	-392.26273
28	0xc3b4630d	-360.77383
29	0xc3c3ca4c	-391.58044
30	0xc3b5f713	-363.93027
31	0xc3730c31	-243.04762
32	0xc349074c	-201.0285
33	0xc3585270	-216.32202
34	0xc376bde7	-246.7418
35	0xc393ab19	-295.3367
36	0xc388a45d	-273.2841
37	0xc3819bd5	-259.21744
38	0xc3984389	-304.52762
39	0xc3c6ca68	-397.5813
40	0xc3ff67f5	-510.81216
41	0xc41c9c4a	-626.442
42	0xc433c448	-719.0669
43	0xc43c58d1	-753.38776
44	0xc4329cc9	-714.44977
45	0xc429ba97	-678.91547
46	0xc4088584	-546.0862
47	0x42b961d6	92.691086
48	0x431d9066	157.56406
49	0x43454531	197.27028
50	0x433bbbe8	187.73401
51	0x4323e8ca	163.90933
52	0x43194494	153.26788
53	0x431ea408	158.64075
54	0x432f2e42	175.1807
55	0x432b64a1	171.39308
56	0x433bfd23	187.98882
57	0x434b7e7d	203.4941
58	0x433e5e78	190.36902
59	0x43332474	179.1424
60	0x4311b3f7	145.70299
61	0x42ccf2c0	102.47412
62	0x42cf9ad6	103.802414
63	0x42dc5b9d	110.17893
64	0x4280db3e	64.42821
65	0x410d70c6	8.840033
66	0x42140914	37.008865
67	0x42ebb158	117.846375
68	0x430c7168	140.443
69	0x43295aea	169.35513
70	0x432816b8	168.08875
71	0x432f2093	175.12724
72	0x433f4451	191.26686
73	0x4344e688	196.90051
74	0x4341351c	193.20746
75	0x43379624	183.58649
76	0x433c131f	188.07469
77	0x4306e083	134.877
78	0x42f14638	120.637146
79	0x42edfefc	118.99802
80	0x42e3b0ae	113.84508
81	0x42f0edea	120.464676
82	0x4305a6bb	133.65129
83	0x43049993	132.5999
84	0x4311fa78	145.9784
85	0x4323f780	163.9668
86	0x43235e5a	163.36856
87	0x43133916	147.22299
88	0x42f58792	122.764786
89	0x4291a734	72.82657
90	0x42294294	42.315018
91	0x42798319	62.378025
92	0x42522b84	52.542496
93	0x41e34bdb	28.412039
94	0xc1249cb3	-10.288257
95	0x40940810	4.625984
96	0xc0c7c192	-6.242379
97	0xc11b8b66	-9.721533
98	0xc165cec0	-14.362976
99	0xc1618e6b	-14.09727
100	0xc0bd29de	-5.9113607
101	0xc16cd690	-14.802383
102	0xc2958666	-74.7625
103	0xc2b1bd27	-88.86944
104	0xc288785c	-68.23508
105	0xc21c22ee	-39.03411
106	0xc230c54d	-44.192677
107	0xc11d3e16	-9.827658
108	0x41f1089e	30.129208
109	0x41cfba30	25.965912
110	0x41f2ef24	30.366768
111	0x4231020e	44.252007
112	0x4234ccea	45.20011
113	0x41d61921	26.76227
114	0xc13280cc	-11.156445
115	0xc1b473a3	-22.556463
116	0xc22158a2	-40.336555
117	0xc207fc21	-33.99622
118	0xc1ce054c	-25.752586
119	0xc0ff5904	-7.979616
120	0x419c57ed	19.542933
121	0x419cf82e	19.621181
122	0xc002e787	-2.0453813
123	0x4055347e	3.3313289
124	0x41430774	12.18932
125	0xc1632043	-14.195376
126	0xc22a5916	-42.586998
127	0xc26b122f	-58.767757
128	0xc26038b6	-56.05538
129	0xc27c6131	-63.094913
130	0xc29f32a8	-79.59894
131	0xc2914dae	-72.65172
132	0xc26ec7fd	-59.6953
133	0xc20af9b1	-34.74384
134	0xc1a5aabc	-20.708366
135	0xc0102cbc	-2.2527304
136	0x41b2ed1e	22.36578
137	0x41a8d0d4	21.101967
138	0x41603850	14.013748
139	0xc1854e4a	-16.663227
140	0xc28156d5	-64.66959
141	0x415cdc9c	13.80386
142	0x412b1743	10.693179
143	0x419c6947	19.551405
144	0x41ff92ae	31.94662
145	0x41fd8a72	31.6926
146	0x41869637	16.823347
147	0x414587e8	12.34568
148	0xbf4f5a81	-0.80997473
149	0x3f90855e	1.12907
150	0x41156c32	9.338915
151	0x417091ac	15.035564
152	0x41bef4d2	23.869541
153	0x4195541d	18.66607
154	0xc01ef2d4	-2.483571
155	0xbfcaa8a1	-1.5832711
156	0xc10d3b08	-8.826912
157	0xc16ba364	-14.72739
158	0xc170ed09	-15.05787
159	0xbf28882a	-0.6583277
160	0xc14a42f2	-12.641344
161	0xc15a56e2	-13.646212
162	0xc087a318	-4.238659
163	0x419ff8b5	19.996439
164	0x41cfeb2c	25.98983
165	0x41c6fd39	24.873644
166	0x41b6040f	22.751982
167	0x41cb7cb8	25.435898
168	0x40e84ebe	7.259612
169	0x4023c80a	2.5590844
170	0x40b0337e	5.5062857
171	0x419c2edb	19.522879
172	0x41aa57c5	21.292856
173	0x419e5db0	19.795746
174	0x41a9e36e	21.23605
175	0x4219a708	38.413116
176	0x42523aa3	52.557262
177	0x42374648	45.818634
178	0x421dcdc2	39.450935
179	0x421d7e5e	39.373405
180	0x421ec2de	39.6903
181	0x41eee9db	29.864187
182	0x3f6ed0cb	0.9328734
183	0xc0acb2ea	-5.39684
184	0xbee53b11	-0.44771627
185	0xc099e2da	-4.808942
186	0x41d6d700	26.85498
187	0x423c86f6	47.131798
188	0xc1b7634c	-22.923485
189	0xc2300dce	-44.01348
190	0xc2747a28	-61.119293
191	0xc25f4eac	-55.826828
192	0xc2936b06	-73.70903
193	0xc2a05a34	-80.17618
194	0xc28bcd32	-69.90077
195	0xc22e9cb7	-43.65304
196	0xc24e59bf	-51.587643
197	0xc25208e8	-52.508698
198	0xc2075ad4	-33.8387
199	0xc2026968	-32.602936
200	0xc20d450e	-35.317436
201	0xc188700a	-17.054707
202	0x3fafa1e5	1.3721281
203	0xc1840541	-16.502565
204	0xc1dbf0dc	-27.492607
205	0xc16558cd	-14.33418
206	0xc05680b7	-3.3516061
207	0xc0e09362	-7.017991
208	0xc1e3f819	-28.496141
209	0xc22231ee	-40.54876
210	0xc26416ee	-57.022392
211	0xc2489555	-50.145832
212	0xc235182c	-45.273605
213	0xc22d4a18	-43.322357
214	0xc27086fc	-60.13182
215	0xc2af9f44	-87.811066
216	0xc2bc08ec	-94.017426
217	0xc29a0a64	-77.020294
218	0xc1e6e456	-28.861492
219	0xc2315d72	-44.341255
220	0xc263ad1e	-56.91906
221	0xc2630efe	-56.76464
222	0xc2509407	-52.144558
223	0xc23ede2c	-47.716965
224	0xc265a924	-57.415176
225	0xc24d47bc	-51.320053
226	0xc2246626	-41.099754
227	0xc1e7380b	-28.902365
228	0xc0c5ef7a	-6.185483
229	0x4038c995	2.8873036
230	0xc14ea3d6	-12.914999
231	0xc150a4d8	-13.040245
232	0xc0b877fc	-5.7646465
233	0xc0d02bc4	-6.5053425
234	0xc0aa96bc	-5.3309
235	0x4092a4e9	4.5826306
236	0x411e2c10	9.885757
237	0x41b3b228	22.46199
238	0x41a2c906	20.348156
239	0x420eeb14	35.72957
240	0x421f5bd0	39.83966
241	0x4218ff5c	38.249374
242	0x416b05bf	14.688903
243	0x419e26fc	19.769035
244	0x41aa25bf	21.26843
245	0x4174da99	15.303369
246	0x415b5426	13.708044
247	0x41b2a84d	22.332178
248	0x419cb948	19.59047
249	0x4163e2ab	14.242839
250	0x41977243	18.930792
251	0x41c3bf20	24.468323
252	0x4189b57c	17.213615
253	0x4105b81f	8.357451
254	0x40922494	4.566965
255	0x419803b5	19.00181
