output_mfcc/b9f7a69ea9ad54a0e62a0f972767edff_seg1.npy (npy, 7460 bytes, 1 tensors)

array f4 [39, 47]
000000 c7 3e 9d c3 bf 50 84 c3 c7 4b 81 c3 9d 0e 96 c3
       -314.49045 -264.63083 -258.592 -300.11417
000010 00 59 b8 c3 d4 81 e8 c3 ab 55 08 c4 f8 ef 09 c4
       -368.6953 -465.01428 -545.33856 -551.7495
000020 44 bf 00 c4 43 36 bd c3 e5 c1 96 c3 ba 4e 8d c3
       -514.9885 -378.42392 -301.5148 -282.61505
000030 9d a5 8d c3 15 81 ad c3 b0 d9 c1 c3 b5 a5 b9 c3
       -283.29385 -347.00845 -387.70068 -371.2946
000040 a1 d2 b2 c3 10 74 a8 c3 49 6b a0 c3 e7 a4 aa c3
       -357.64554 -336.90674 -320.83817 -341.2883
000050 7b 32 a8 c3 87 b2 a0 c3 6e e8 ba c3 6d 55 d3 c3
       -336.39438 -321.39474 -373.81586 -422.6674
000060 01 43 ae c3 f1 10 87 c3 5b 9f 63 c3 c3 37 74 c3
       -348.52347 -270.13235 -227.62248 -244.21782
000070 96 ee 9e c3 86 53 af c3 05 a6 98 c3 ce 69 85 c3
       -317.86395 -350.65253 -305.29703 -266.8266
000080 23 77 92 c3 6c da ad c3 83 38 d7 c3 8a 17 c5 c3
       -292.93076 -347.70642 -430.4415 -394.1839
000090 c1 17 99 c3 cd 86 8a c3 cb dd 97 c3 a6 56 b5 c3
       -306.18558 -277.05313 -303.73276 -362.67694
0000a0 c2 5e bb c3 e5 d4 8f c3 e7 8f 7b c3 39 25 8b c3
       -374.7403 -287.66324 -251.56212 -278.2908
0000b0 b6 00 a2 c3 d1 42 9e c3 8d 0d 92 c3 33 0b 7d bf
       -324.00555 -316.522 -292.10587 -0.98845214
0000c0 28 4f 4c 41 00 17 7e 42 91 eb e3 42 7a df 0c 43
       12.769325 63.52246 113.96009 140.87296
0000d0 44 a2 1f 43 5c 92 1b 43 a6 ef 2c 43 cb c8 44 43
       159.63385 155.57172 172.93613 196.78435
0000e0 1a e5 37 43 1a 8a 1a 43 31 c6 0d 43 ac 75 11 43
       183.89493 154.53946 141.77419 145.45966
0000f0 c0 2a 0f 43 b2 d9 11 43 6a 01 1c 43 36 5a 1f 43
       143.16699 145.85037 156.00552 159.35239
000100 45 d8 14 43 47 ea e1 42 bc f2 81 42 72 f3 17 42
       148.8448 112.95757 64.97409 37.98774
000110 62 89 6b 42 f8 30 b1 42 00 75 ee 42 90 c0 13 43
       58.884163 88.59564 119.228516 147.7522
000120 92 61 08 43 ec e3 d2 42 4a a3 87 42 e4 37 f5 41
       136.38113 105.44516 67.818924 30.65229
000130 3e 74 8c 42 22 ae 02 43 ae fc f4 42 de d9 e0 42
       70.227036 130.6802 122.493515 112.42552
000140 e4 ee f0 42 dc 7d 05 43 5a 93 19 43 0e a5 11 43
       120.46658 133.49164 153.57559 145.64474
000150 54 04 cc 42 36 43 82 42 90 ce 56 42 e4 03 c4 42
       102.00845 65.13127 53.70172 98.0076
000160 65 a6 f8 42 5f 09 d9 42 b6 91 ca 42 28 b5 40 42
       124.32499 108.5183 101.28459 48.17691
000170 d2 3f c3 40 51 85 23 42 80 10 9f 41 34 06 9b 41
       6.1015406 40.88019 19.883057 19.378029
000180 d7 58 1e 41 1f 38 9d c0 03 9e dd 40 dc 34 02 42
       9.896689 -4.9131007 6.9255385 32.55162
000190 88 a5 55 42 ab bd b6 42 73 d2 d3 42 2d f6 26 42
       53.41165 91.370445 105.91103 41.740406
0001a0 5a 9a ed be eb 5e 10 c1 8c d4 81 41 d9 00 43 42
       -0.46406823 -9.023173 16.228783 48.750828
0001b0 fe 95 5c 42 87 b7 c0 41 d8 de 4b c0 44 61 a0 c1
       55.146477 24.089613 -3.1854763 -20.047493
0001c0 34 df 12 41 39 94 f8 41 53 88 ee 41 47 ef b0 41
       9.179493 31.072374 29.816565 22.116835
0001d0 bd 6d a3 41 12 2b 55 42 7e c2 a7 41 41 3a 3e c2
       20.428583 53.29206 20.969967 -47.55689
0001e0 e4 af 2f c2 ea d0 18 c1 d6 8b 53 41 b4 1a f2 41
       -43.92177 -9.551004 13.22164 30.263039
0001f0 20 c1 94 c1 51 aa 18 c2 a2 36 18 c2 16 6c 82 c1
       -18.5943 -38.166325 -38.053352 -16.302776
000200 0c 31 83 40 36 ff 93 c1 3c 0c 12 c2 7c 7f 78 c1
       4.099737 -18.499615 -36.511948 -15.531124
000210 b1 f6 83 41 32 f7 38 42 38 85 e8 41 18 c6 31 c2
       16.495455 46.2414 29.065048 -44.44345
000220 90 32 4b c2 54 0e 10 c2 22 bc b1 41 ac 25 da 41
       -50.799377 -36.013992 22.216862 27.268394
000230 97 c6 b8 41 02 ee 76 42 0a 17 88 42 46 0e 5b 42
       23.096968 61.73243 68.045 54.76394
000240 00 49 13 42 5c b8 a2 41 04 6b b1 41 61 58 7a 41
       36.82129 20.34002 22.177254 15.646577
000250 48 7a 76 41 a6 85 a8 41 89 0c 18 42 fc 1f 02 42
       15.404854 21.065258 38.01224 32.531235
000260 1a 6a e7 41 d4 ed 95 41 d2 34 2c 41 14 20 8d 41
       28.926807 18.741127 10.762896 17.640663
000270 ce 8a 06 42 ce 7d 0b 42 c8 bf dc 41 b0 a9 c2 40
       33.63555 34.872856 27.593643 6.083214
000280 ed 1f 74 40 b2 2f 59 41 50 93 5f 41 c7 d8 a1 41
       3.8144486 13.574144 13.973465 20.230848
000290 b0 78 31 41 0e 63 83 c1 68 4f ec 3d 19 7b 9f bf
       11.091965 -16.423367 0.11538583 -1.2459441
0002a0 a2 83 6f c1 47 ff bf c1 74 9f d5 bf 9a 8a 51 42
       -14.969637 -23.999647 -1.6689286 52.385353
0002b0 56 16 a0 42 da 1f d3 42 50 cc ed 42 96 60 d2 42
       80.043625 105.56221 118.89905 105.188644
0002c0 fc 8a 87 42 4c cb 8d 42 f5 f0 2a 42 b9 d1 88 41
       67.771454 70.897064 42.73531 17.102404
0002d0 60 08 d2 41 5f 89 12 42 04 78 47 42 7b 1b 57 42
       26.25409 36.63415 49.867203 53.776836
0002e0 2f 28 83 42 51 f5 6e 42 63 a3 9c 42 66 8b a9 42
       65.57848 59.739567 78.319115 84.77226
0002f0 54 35 3e c0 8e f6 38 41 b0 37 52 41 06 b5 34 c1
       -2.972005 11.560194 13.138596 -11.294195
000300 54 82 d4 c1 70 e2 f0 c1 50 db 81 c1 75 2c a0 c1
       -26.563637 -30.110565 -16.232086 -20.021708
000310 76 c0 29 c2 fa d8 ad c2 0a 93 c8 c2 96 fa cc c2
       -42.43795 -86.92378 -100.287186 -102.489426
000320 de a4 ac c2 d6 22 83 c2 92 60 75 c2 a4 95 8a c2
       -86.32201 -65.56804 -61.344307 -69.29227
000330 99 e7 89 c2 7b 72 52 c2 2e b5 01 c2 1e 78 84 c1
       -68.95234 -52.611797 -32.426933 -16.558651
000340 f4 4f ac 40 60 86 bb 3f 7b 26 1b c1 f8 46 04 c1
       5.38476 1.4650383 -9.696895 -8.267326
000350 32 c3 4b c2 0f 88 88 c2 de 22 29 c2 ee 43 54 c1
       -50.94062 -68.26574 -42.28405 -13.266584
000360 b5 dc 49 c0 3a 3d bd 40 49 bd 00 c1 f1 8e ec c1
       -3.154096 5.913724 -8.046212 -29.569796
000370 4e 07 4b c2 e8 de 4d c2 9e d8 e3 c1 be 65 46 c1
       -50.757133 -51.46768 -28.48077 -12.399839
000380 a6 1d b4 c1 6e 34 13 c1 7d d1 30 41 32 61 fa 41
       -22.514477 -9.2003 11.051145 31.297459
000390 fb a9 81 41 f4 80 82 c1 88 60 af c1 50 a5 ac c1
       16.207998 -16.312965 -21.922134 -21.580719
0003a0 a6 71 8d c0 ca 7a e5 40 9f 87 0e 41 50 dc 02 c2
       -4.420123 7.171239 8.908111 -32.71515
0003b0 8d 52 bf c1 ac 4d 81 40 e5 f1 e4 41 b2 17 f2 41
       -23.915308 4.0407314 28.618113 30.26157
0003c0 ea 7e 8d 41 de c7 88 40 58 cb 4c 3d 8e b3 2c c0
       17.68697 4.274398 0.04999861 -2.6984591
0003d0 67 38 98 3f d4 d5 e8 40 0a 20 fa 40 d6 13 2e 40
       1.1892213 7.276102 7.816411 2.7199607
0003e0 d0 27 a9 c0 9a 80 45 c1 7a c2 60 c0 36 e8 a8 40
       -5.28611 -12.343897 -3.51187 5.278346
0003f0 69 95 89 41 dc d6 9b 41 41 76 c5 41 22 fc ed 41
       17.197954 19.479912 24.682741 29.748112
