data/output_mfcc/b1ffba859393d5cff37e39bef3095b55_seg0.npy (npy, 7460 bytes, 1 tensors)

array f4 [39, 47]
00000000: 6b50 3fc4 2393 3ec4 6d39 3ec4 377c 3ec4
00000010: 9ae7 3ec4 2317 3fc4 45f2 3ec4 143b 3fc4
00000020: ab29 3fc4 46fc 3ec4 b20a 3fc4 0022 3fc4
00000030: 0e0e 3fc4 b6ff 3ec4 102e 3fc4 3a8e 31c4
00000040: 7487 14c4 6267 d8c3 e309 abc3 5e9a 9cc3
00000050: 369f a3c3 d20f acc3 f026 b9c3 4a0d dcc3
00000060: 6f70 03c4 8d9a dcc3 e1b1 a6c3 b70c 91c3
00000070: 0dba 99c3 c3af 86c3 b8cc 76c3 83c4 83c3
00000080: 1771 8ac3 5f78 93c3 ea61 91c3 9c39 7cc3
00000090: cc54 86c3 c3fc a3c3 03d7 a6c3 e532 a1c3
000000a0: c150 aac3 fc4b bfc3 6c71 bec3 b2c1 b4c3
000000b0: 3421 a9c3 d6bb b0c3 2e41 c2c3 822d 113e
000000c0: eabb 8540 bf81 c240 762c 9640 8ef1 1840
000000d0: bad0 b13f 96d0 0b40 732d 1d3f c2cc 773f
000000e0: ba12 f93f 669c d63f 9abd 943f 680c ca3f
000000f0: 3a50 f43f 77e4 5e3f bc3b 8f42 4676 3043
00000100: ebde 2743 c4ba 2443 dd95 2543 c0a0 3b43
00000110: 9c57 4243 0e55 4343 54ae 4443 d83f 4d43
00000120: c4d7 4c43 8af6 1643 c3b4 be42 9cd6 4542
00000130: ac18 9742 2ac1 ed42 c21e 0b43 9e58 0b43
00000140: 2ab6 cb42 7cd4 b042 78a9 ec42 96ad 2943
00000150: de33 4943 1cfe 2843 c405 0343 6891 e342
00000160: 0fff 9142 5851 0ebe 590a 38c2 1605 26c2
00000170: e854 14c1 5f8b 5b42 566e 0b3e 3338 7040
00000180: bf5f ad40 2735 8940 42de 0b40 e037 aa3f
00000190: a666 0440 8a3e 1c3f 8c5e 603f 42fc e33f
000001a0: 31ad d33f 6ced 913f 3804 bf3f ca5b ed3f
000001b0: f480 483f 36fb 5d42 bf1b 8b42 5e53 5841
000001c0: a60d 17c2 d589 4ac2 640b ffc1 c203 2dc0
000001d0: 0ab4 c141 568d 3742 b0e9 9042 d137 9441
000001e0: 6a08 923f 7e28 0441 f807 c441 56ef 5c41
000001f0: e497 4cc1 56bc cfc1 ec3b bbc1 88af 9041
00000200: 34c7 1142 6566 df40 c2f8 cac1 ccd5 f5c1
00000210: ded5 9cc1 6271 b4c1 64d4 9b40 d9f3 7c42
00000220: 8007 7a42 d6e4 fb41 c202 9f41 4a3c 3e41
00000230: 2a24 5cc1 0c20 023e f801 4640 a439 8d40
00000240: 342b 6a40 eea7 ee3f ff10 9e3f 7f48 f13f
00000250: 7ec4 1a3f 32d9 3c3f 04aa c33f 8ad5 ce3f
00000260: 2252 8d3f 6adf af3f 1039 e23f ae06 2a3f
00000270: 72c8 1142 bdb3 9b41 867e a142 c4c7 a042
00000280: f151 7142 846d 3a42 9152 2d42 c71c 1d42
00000290: 1a8f 1242 7ca1 a041 0a6c 0842 0e2e ac41
000002a0: 5ce1 a341 ec23 be41 6c4c 4a41 e727 6b41
000002b0: feec 0e41 f629 ae40 14a4 8fbf 7cb3 1841
000002c0: e418 6e41 545d 1942 a650 4a42 ac49 7242
000002d0: 98ce a542 0758 b642 c96e 7c42 bf78 a741
000002e0: 303a 9c3f 7a91 cc40 2faa 6c40 9909 90c1
000002f0: 534b eb3d 3036 1140 9238 4c40 3aa6 3740
00000300: 3625 ba3f 2e17 8e3f 64c4 d23f 71dc 183f
00000310: f601 123f acf1 9b3f 0a27 c83f 7b0a 873f
00000320: a115 a03f e28e d33f 0e43 0b3f d5f9 a541
00000330: 0cd2 7abf 86e3 5fc2 b063 7ac2 f51e 6ec2
00000340: 608d 5ac2 b886 61c2 f47f 74c2 0d57 7ac2
00000350: a5bf 30c2 8a04 3cc2 beb8 a0c1 b5c8 65c0
00000360: 4506 8f40 553a c0c0 00de 86c1 49fb d3c1
00000370: 6ee3 09c2 6cd0 c7c1 32ed a2c1 1f5d 0bc2
00000380: edea 3ac2 68d8 2ec2 7e53 58c2 df03 5ec2
00000390: 9edc 12c2 23af 0dc1 74d6 6441 6ad0 3b41
000003a0: d731 d141 b2cd ad41 0ea9 66c1 0b09 cd3d
000003b0: 6659 ae3f 3dd3 f23f 987e ff3f 3e3b 7d3f
000003c0: e97a 763f ec70 af3f e0aa 163f cc17 cb3e
000003d0: 47e4 623f 52bb bf3f ba80 7e3f b755 923f
000003e0: 7636 c23f 035c e63e a40b 2b41 a4b5 00c1
000003f0: 9604 28c1 206d aebe 7c1c 4940 738e 0fc0
-765.25653 -762.299 -760.8973 -761.94086 -763.6188 -764.3615 -763.78546 -764.9231
-764.65106 -763.9418 -764.1671 -764.53125 -764.2196 -763.9955 -764.7197 -710.2223
-594.11646 -432.80768 -342.07724 -313.206 -327.24384 -344.1236 -370.3042 -440.10382
-525.7568 -441.20743 -333.38968 -290.09933 -307.45352 -269.37314 -246.79968 -263.53525
-276.8835 -294.9404 -290.76495 -252.22504 -268.66248 -327.9747 -333.67978 -322.3976
-340.6309 -382.59363 -380.8861 -361.51324 -338.2594 -353.46747 -388.50922 0.14177516
4.1791887 6.078338 4.6929274 2.3897433 1.3891823 2.184606 0.61397475 0.9679681
1.945884 1.6766479 1.1620362 1.5785036 1.9086983 0.8706736 71.61667 176.462
167.87077 164.72955 165.5854 187.62793 194.34222 195.33224 196.68097 205.24939
204.84283 150.96304 95.35305 49.45958 75.54819 118.87727 139.12015 139.34616
101.85579 88.41501 118.33099 169.67807 201.2026 168.99261 131.02252 113.784
72.99816 -0.13898218 -46.010105 -41.504967 -9.270729 54.886105 0.13616309 3.7534301
5.4179378 4.2877383 2.1854405 1.3298302 2.0687652 0.6103293 0.8764427 1.7811358
1.6537229 1.140058 1.4923162 1.8543637 0.78321767 55.495323 69.55419 13.520353
-37.76333 -50.6346 -31.880562 -2.7033544 24.21291 45.888023 72.45642 18.527254
1.1408818 8.259886 24.503891 13.808432 -12.787083 -25.96696 -23.404259 18.085709
36.444534 6.9812493 -25.371464 -30.729393 -19.604427 -22.555363 4.8696766 63.238132
62.507324 31.486736 19.876347 11.889719 -13.758829 0.12707537 3.0938702 4.413286
3.658887 1.8644998 1.2348937 1.8850249 0.60456073 0.73768914 1.528626 1.6158917
1.104069 1.3740056 1.7673664 0.6641644 36.445747 19.462763 80.747116 80.39017
60.33002 46.60695 43.33063 39.278103 36.639748 20.07885 34.105507 21.522488
20.485039 23.76754 12.643658 14.697242 8.932859 5.442622 -1.1221948 9.543819
14.881077 38.34114 50.57876 60.571945 82.9035 91.17193 63.10819 20.933958
1.2205257 6.3927584 3.6978872 -18.004686 0.11488976 2.2689323 3.1909528 2.8695207
1.4542606 1.1100824 1.6466184 0.59711367 0.5703424 1.2183127 1.5636914 1.0550073
1.2506601 1.6527979 0.5439919 20.746988 -0.97976756 -55.97219 -62.59735 -59.53023
-54.63806 -56.38156 -61.124954 -62.58501 -44.187153 -47.004433 -20.090206 -3.5903752
4.4695153 -6.0071206 -16.858398 -26.497698 -34.4721 -24.976768 -20.365818 -34.84094
-46.72942 -43.711334 -54.081535 -55.50378 -36.715446 -8.855258 14.302357 11.738382
26.149336 21.725437 -14.416273 0.100114904 1.3621032 1.8970715 1.9960508 0.9891852
0.96281296 1.3706336 0.58854485 0.39666593 0.88629574 1.4979041 0.9941517 1.1432408
1.517287 0.44992074 10.690342 -8.044346 -10.50112 -0.3406763 3.1423635 -2.2430694
