data/output_mfcc/b3a649ebfcf0726b21e5fc8c5b8e0369_seg1.npy (npy, 7460 bytes, 1 tensors)

array f4 [39, 47]
000000 4d e4 77 c3 f4 d3 81 c3 b7 86 94 c3 b5 81 9d c3
       -247.8918 -259.65588 -297.05246 -315.01334
000010 58 3a 8f c3 a0 18 8c c3 71 5b 9e c3 48 ea b9 c3
       -286.4558 -280.19238 -316.7144 -371.83032
000020 7e 24 9f c3 50 fa 8c c3 35 7e b1 c3 a3 82 ff c3
       -318.2851 -281.95557 -354.986 -511.0206
000030 3d 02 e6 c3 cd 00 c5 c3 c5 52 a9 c3 f7 70 91 c3
       -460.0175 -394.00626 -338.64664 -290.88254
000040 d0 8b 8f c3 b0 05 9e c3 3d 32 a9 c3 47 6d a8 c3
       -287.0923 -316.04443 -338.3925 -336.85373
000050 d9 f9 a6 c3 05 0c ac c3 d9 74 b5 c3 90 9c c3 c3
       -333.95193 -344.0939 -362.91287 -391.22314
000060 c0 af bc c3 fb a8 9d c3 35 1c 94 c3 7f df 9a c3
       -377.37305 -315.32016 -296.22037 -309.74606
000070 dc 89 a5 c3 a7 ba 8c c3 8b d7 86 c3 d2 f5 5f c3
       -331.07703 -281.45822 -269.68393 -223.96024
000080 27 21 5e c3 75 d8 8b c3 4a ba af c3 9d d7 81 c3
       -222.1295 -279.69107 -351.45538 -259.68448
000090 b5 fa 62 c3 2d d9 88 c3 51 d3 c4 c3 10 5c b3 c3
       -226.97932 -273.6967 -393.6509 -358.71924
0000a0 96 a1 a1 c3 b0 f8 9e c3 8a 62 93 c3 71 bc a7 c3
       -323.2624 -317.94287 -294.76984 -335.4722
0000b0 a8 86 d7 c3 af b9 d4 c3 f8 fc cd c3 a3 66 03 43
       -431.052 -425.45065 -411.97632 131.40092
0000c0 77 b2 09 43 da fb f9 42 8e 18 a8 42 44 1c 83 42
       137.69713 124.9919 84.04796 65.55521
0000d0 16 f2 b0 42 44 98 b7 42 08 b2 51 42 42 54 b7 41
       88.472824 91.79739 52.42386 22.916142
0000e0 c7 06 81 42 74 7a fa 42 56 66 13 43 16 b7 ec 42
       64.51324 125.23917 147.39975 118.35759
0000f0 0a 40 1a 43 23 7e 0a 43 90 d7 9f 42 81 57 3e 42
       154.25015 138.49272 79.92102 47.585453
000100 de f2 35 42 e1 27 a2 42 20 aa ed 42 f6 ee e4 42
       45.487175 81.07789 118.832275 114.46672
000110 c4 d6 f1 42 2c da 15 43 e0 74 41 43 44 7c 3b 43
       120.919464 149.85223 193.45654 187.48541
000120 9c a1 e8 42 34 88 27 42 f6 4e d9 41 78 91 2e 42
       116.31564 41.88301 27.163555 43.64206
000130 16 f0 5a c1 f2 72 1c c2 c7 34 32 42 9e 42 de 42
       -13.683615 -39.11225 44.55154 111.13011
000140 49 cd 00 43 7c 8e b8 42 38 a4 b4 42 46 d5 e1 42
       128.8019 92.27829 90.32074 112.91655
000150 9a 5c f5 42 65 54 e4 42 84 8b 7e 42 14 59 ae 42
       122.68086 114.16483 63.636246 87.17398
000160 db ca fc 42 ba b6 04 43 a3 65 e7 42 4d dd 58 42
       126.3962 132.71378 115.69851 54.216114
000170 79 a9 8a c2 04 1d fe c2 b9 e6 10 c2 9a e9 47 c2
       -69.331 -127.05667 -36.225315 -49.978127
000180 c8 0c 56 c1 08 97 e2 41 34 a8 a5 40 8e 59 cc c1
       -13.37812 28.323746 5.1767826 -25.543728
000190 68 63 95 c1 5c 90 e6 41 08 a5 d3 41 02 27 9e 41
       -18.673538 28.820488 26.455582 19.769047
0001a0 3a 58 ad be 3c bf a5 41 fb ae 91 41 5c a9 9e 41
       -0.33856374 20.718376 18.21044 19.832695
0001b0 82 e8 08 41 01 a1 25 41 e1 a5 b3 41 be b0 14 42
       8.556765 10.351808 22.455996 37.1726
0001c0 3a 3b d1 41 56 f6 fa c1 60 ed 30 c2 42 cd 40 c2
       26.15392 -31.370281 -44.23181 -48.200447
0001d0 df e6 38 c2 56 73 c1 c1 04 ac bf bc a8 92 6e 41
       -46.22546 -24.181316 -0.023397453 14.910805
0001e0 26 f1 ee 40 be 2b 4e 41 62 a0 f5 41 94 7d 63 41
       7.466937 12.885679 30.703312 14.218159
0001f0 2b 95 ec c0 96 ad 02 3e f6 98 d9 c1 76 f6 0a c2
       -7.393209 0.1276153 -27.199688 -34.740685
000200 4c 07 62 41 9a 7a b2 c1 ba 0c 25 c2 ac b8 20 c2
       14.126781 -22.309864 -41.26243 -40.180344
000210 a4 77 d0 c0 be 51 c3 c1 17 5b 4d c1 46 f2 a5 c1
       -6.5146046 -24.414913 -12.834739 -20.743298
000220 42 e6 0e c2 25 57 bb c1 32 c7 06 42 0e 94 dc 3f
       -35.72486 -23.417551 33.694527 1.7232683
000230 cc 37 59 c2 a6 b8 29 42 aa 42 4e 42 a2 c5 10 42
       -54.30449 42.43032 51.5651 36.193
000240 b0 40 c5 41 b0 5a 6e 42 97 70 b4 42 fc d5 cf 42
       24.656586 59.588562 90.2199 103.91794
000250 1a fa 8e 42 2c df 49 42 f0 9c 27 42 6c f1 24 42
       71.48848 50.46794 41.90326 41.235764
000260 f9 c8 c0 41 be 64 cd 40 1f 6b 9f 41 14 80 36 42
       24.098131 6.4185476 19.927305 45.625076
000270 0a 1f 4a 42 cc b9 86 42 0d 69 8b 42 1e 3d 95 42
       50.53031 67.362885 69.70518 74.61937
000280 3c 85 dc 42 c2 27 e5 42 94 b8 dd 42 16 6f ac 42
       110.26022 114.57765 110.860504 86.216965
000290 da d9 52 42 7a 44 12 42 d2 dc c5 41 90 d5 51 42
       52.712746 36.56687 24.732822 52.458557
0002a0 0f a0 8f 42 44 ce bd 42 6c fb ce 42 7f d5 a1 42
       71.812614 94.90286 103.49106 80.916985
0002b0 d8 b5 55 42 96 f2 6a 42 5e f3 6a 42 de a3 eb 41
       53.42758 58.7369 58.737663 29.455013
0002c0 e0 9e 56 42 bc 3f 9a 42 0c e6 b8 42 48 a4 9e 42
       53.65515 77.12448 92.44931 79.32086
0002d0 8c 5d 10 42 0e 30 4e 42 c0 02 88 42 c1 b2 9a 42
       36.091354 51.54693 68.00537 77.34913
0002e0 5c 49 9a 42 30 b8 96 42 28 48 8a 42 1d 8f 20 42
       77.14328 75.35974 69.14093 40.13976
0002f0 f2 6d ce 3f bd 79 29 c1 49 46 3a c1 eb 06 7c 40
       1.6127303 -10.592221 -11.642159 3.9379222
000300 8c 2e cd 40 0e a2 f1 c0 46 82 cc c0 46 4d 56 41
       6.411932 -7.551032 -6.3909025 13.393866
000310 d9 e2 8f 41 80 8e 94 41 82 f8 82 41 a1 49 73 41
       17.985765 18.56958 16.371342 15.205476
000320 b9 72 ff c0 ab 2e b7 c1 53 03 0b c2 d8 e8 57 c1
       -7.982754 -22.897787 -34.753246 -13.494347
000330 70 fb e7 bf b1 5d 1c c1 6a 79 0c c2 78 4a 80 c2
       -1.8123608 -9.772874 -35.11857 -64.14545
000340 ba 75 99 c2 a5 f5 83 c2 04 ff 3a c2 c4 14 fe c1
       -76.729935 -65.979774 -46.74904 -31.76014
000350 81 8c 44 c2 54 f9 48 c1 48 c0 93 41 77 00 c0 41
       -49.13721 -12.560871 18.468887 24.000227
000360 12 e4 4b 41 9a b1 d5 41 26 2d a3 41 64 f7 bc 40
       12.743181 26.71172 20.397045 5.905199
000370 a3 fe b4 c0 22 60 fb c0 98 f8 28 41 a2 8e 87 40
       -5.6560836 -7.855485 10.560692 4.236161
000380 f4 9f a9 c0 86 6c b8 c0 82 50 2f 41 ca f8 0a 41
       -5.3007755 -5.7632475 10.957155 8.6857395
000390 fe 17 50 41 c2 b2 10 c0 0e 3e 65 c1 2f 41 16 c1
       13.005857 -2.2609105 -14.32765 -9.390914
0003a0 5e 45 a7 c0 02 b8 1a c1 8e 56 81 c0 cd 80 d0 c1
       -5.2272177 -9.669924 -4.0418158 -26.062891
0003b0 ff 6a b5 c1 74 db ac c1 4c ec e2 c0 a9 6c 07 c1
       -22.677244 -21.607155 -7.091345 -8.464028
0003c0 69 b5 6f c1 96 f2 53 c1 d2 a7 91 c0 04 1c fc bf
       -14.98179 -13.246725 -4.551736 -1.969605
0003d0 f7 9d 9c 3f 9e df c8 40 ee d9 73 41 0c e0 82 41
       1.2235707 6.277297 15.2407055 16.359398
0003e0 c4 37 a8 41 18 3a 3b 41 a3 88 8c 3f c0 2c 08 bd
       21.02723 11.701683 1.0979198 -0.033245802
0003f0 c0 a2 86 40 02 64 1f c1 92 81 b9 c1 0c 57 af c1
       4.207367 -9.961916 -23.188267 -21.917503
