data/output_mfcc/b455f860c3e34f62120b74ad0c833f78_seg2.npy (npy, 7460 bytes, 1 tensors)

array f4 [39, 47]
00000000: edcc adc3 65cc bac3 ff18 c3c3 90d9 bec3
00000010: b2f1 b0c3 62ac 97c3 2e0f 91c3 3795 8dc3
00000020: c215 93c3 4228 b2c3 001f ddc3 a881 89c3
00000030: 3466 46c3 1a24 60c3 4472 8fc3 03d4 a2c3
00000040: d39f bac3 e0f9 d0c3 1601 dcc3 3a9d e0c3
00000050: 2428 b7c3 24c8 94c3 6320 8dc3 7f72 93c3
00000060: ad86 9ac3 0a93 9ec3 6088 9dc3 7560 9bc3
00000070: d728 9fc3 00e8 adc3 20c8 c2c3 60e5 c4c3
00000080: 4b0b a9c3 50d7 adc3 98d6 c9c3 ee29 b8c3
00000090: b885 a1c3 cb36 82c3 df9f 76c3 34c8 96c3
000000a0: 47da c5c3 79b2 c5c3 645b bdc3 0934 e4c3
000000b0: 4b88 efc3 3201 aec3 1210 a0c3 8a85 0643
000000c0: 78cd fc42 b8c5 a442 bc1c a542 cb71 d842
000000d0: 5c41 df42 af30 d142 52b8 3242 a865 91c0
000000e0: 9af0 06c2 3a6c 2ac2 9af6 6141 3f07 8142
000000f0: 48b5 e442 6854 0c43 c85e 1843 7d7e 2143
00000100: 10aa 2c43 50be 2a43 7fc4 1c43 c63d 1b43
00000110: 7136 1843 5682 0743 b244 d342 748e cc42
00000120: 257e 1043 7022 2a43 6504 3343 265e 3943
00000130: 286b 3643 07bc 1d43 9216 e942 2406 1a43
00000140: 0c2d 3d43 d008 3b43 7e27 3c43 e767 2c43
00000150: 2c15 e942 7663 5942 9caf dd40 4e56 9940
00000160: f4a4 1242 ec61 ae42 4249 0443 6157 f842
00000170: e94f 1b43 d6a8 2a43 6655 4f40 5c93 7741
00000180: b3fd 1242 dc57 dd41 2ab3 00c1 448d 15c2
00000190: 84c9 fbc1 beb1 9b41 d62b f141 26d6 8841
000001a0: b6fb 1242 beeb 8d41 17fa 9bc1 ea1d 73c2
000001b0: 43fd 4bc2 7cbb e2c1 4a9d af40 6830 6f42
000001c0: c635 ad42 ca96 a442 6815 bd41 faf8 c3c1
000001d0: 7cdc aec1 a2c5 bfc0 5803 e7c0 8a5a 97c1
000001e0: 1417 28c2 dad7 65c2 bca7 5ec2 f34b 0fc2
000001f0: 7c91 bb40 0910 1141 7a66 5941 36da ca3f
00000200: 08a6 16c0 b6a2 8abf 4ee6 2240 1196 6d41
00000210: 2093 b03c c44e a2c1 e81a 91c1 467a 2b42
00000220: 0df2 3742 525a 0042 f1c8 6142 7c63 4442
00000230: acd7 f141 3435 cf41 7864 0042 dbef e541
00000240: 619e e641 da3d 7942 507b b942 bee7 cc42
00000250: 441e ba42 f1fa c142 0afd bf42 d826 ca42
00000260: b008 8f42 1689 8742 7670 9042 14be 4642
00000270: 2a42 4342 50aa 3042 2d9a 2642 e028 0e42
00000280: 3665 1642 bc0d fb41 4a74 b741 ca15 2b41
00000290: beaa 4941 cecc 7c41 8ef4 5841 a8ee 4241
000002a0: e89c 8241 33c6 0842 8a67 2742 c4cd 8041
000002b0: a6ab 8a40 c018 6441 44a9 d941 a65e 3f42
000002c0: 4608 7b42 9f33 4142 0d52 b941 6299 e041
000002d0: d168 0542 ce56 1e42 aed1 b142 7a03 a942
000002e0: 32c3 a142 2225 3241 d2f9 0741 1c49 9141
000002f0: 51e9 3941 5e49 5a41 c351 8641 d667 6541
00000300: 0038 2ebf 3bd4 7dc1 c4b7 bfc1 c047 d4c0
00000310: b6d3 2341 857c 8041 ea39 1441 2cf8 cbc0
00000320: 71f7 b5c0 aac0 b4c1 eeb5 0cc2 5f0f 2ac2
00000330: 045e 46c2 1e96 76c2 4944 9ac2 1ccb bac2
00000340: c6fc c5c2 f2f7 9dc2 36c5 3dc2 f03d eec1
00000350: e4ff d5c1 ee58 26c2 30d6 5dc2 3700 64c2
00000360: f6a1 68c2 82c4 47c2 3468 d3c1 020a 21c1
00000370: f8a6 1fc2 02fa 79c2 be01 24c2 7232 3dc2
00000380: 363a 7ac2 32f2 17c2 aab7 40c1 0758 8e40
00000390: 8cff 9640 aafb 1541 4c43 3341 94d4 2c41
000003a0: fa73 cec1 80a8 7fc2 f28c 94c2 4ee8 9741
000003b0: 386a b941 1641 9141 9b13 5641 d3e9 0bc0
000003c0: aaa8 7bc1 61ea dac1 3e27 00c2 560c dbc1
000003d0: 80f3 c3c1 0b5c 84c1 3d83 04c2 0c82 0cc2
000003e0: a608 94c1 5b2d 2940 5c5b 7741 2f9b 9b40
000003f0: 070e 9c40 e817 9241 cef8 6241 5741 ff40
-347.60098 -373.59683 -390.19528 -381.6997 -353.88824 -303.34674 -290.1186 -283.16574
-294.16998 -356.3145 -442.2422 -275.01294 -198.39923 -224.14102 -286.8927 -325.65634
-373.24863 -417.95215 -440.00848 -449.22833 -366.3136 -297.5636 -282.25302 -294.8945
-309.05215 -317.14874 -315.06543 -310.75357 -318.31906 -347.8125 -389.56348 -393.792
-338.08823 -347.68213 -403.6765 -368.32758 -323.04468 -260.42807 -246.6245 -301.5641
-395.7053 -395.39432 -378.714 -456.40652 -479.0648 -348.00934 -320.12555 134.52164
126.401306 82.38617 82.55612 108.22225 111.627655 104.595085 44.68 -4.543659
-33.734962 -42.60569 14.122705 64.51415 114.354065 140.32971 152.37024 161.4941
172.6643 170.74341 156.76756 155.2413 152.21266 135.50912 105.63417 102.27823
144.49275 170.13452 179.01717 185.36777 182.41858 157.73448 116.54408 154.02399
189.17596 187.03442 188.15427 172.40587 116.54135 54.34713 6.9276867 4.7917852
36.661087 87.19125 132.28616 124.17066 155.31215 170.65952 3.2395873 15.473476
36.747753 27.6679 -8.043741 -37.387955 -31.473396 19.461788 30.146404 17.104565
36.74581 17.740108 -19.497114 -60.779213 -50.997326 -28.341545 5.4879503 59.79727
86.60503 82.29451 23.635452 -24.49657 -21.857658 -5.992875 -7.219158 -18.919209
-42.022537 -57.460793 -55.663803 -35.82417 5.8615093 9.066415 13.587519 1.5847843
-2.3538837 -1.0830905 2.5453067 14.849137 0.02155453 -20.28846 -18.138138 42.869408
45.986378 32.088203 56.44623 49.097153 30.230309 25.900978 32.098114 28.742117
28.827333 62.310402 92.740845 102.45262 93.05911 96.99012 95.99422 101.07587
71.51697 67.767746 72.21965 49.685623 48.814613 44.16632 41.650562 35.539917
37.59884 31.381706 22.931782 10.69282 12.604185 15.800001 13.559706 12.183266
16.326614 34.193554 41.851112 16.100471 4.333453 14.2560425 27.20765 47.84243
62.75808 48.30041 23.165064 28.074894 33.35236 39.58477 88.90953 84.50679
80.88124 11.134066 8.498491 18.160698 11.619462 13.642912 16.789923 14.337851
-0.680542 -15.864314 -23.96473 -6.6337585 10.239187 16.0608 9.264139 -6.3740444
-5.6864552 -22.594074 -35.177666 -42.51501 -49.591812 -61.6466 -77.13337 -93.3967
-98.9937 -78.98427 -47.44259 -29.780243 -26.749947 -41.586845 -55.459167 -57.00021
-58.158165 -49.941902 -26.42588 -10.064943 -39.913055 -62.49415 -41.0017 -47.299263
-62.556847 -37.98652 -12.04484 4.4482455 4.7186947 9.373941 11.20393 10.801899
-25.80663 -63.91455 -74.27528 18.98843 23.176865 18.15678 13.3797865 -2.1861465
-15.728678 -27.364443 -32.038322 -27.381023 -24.493896 -16.544943 -33.128162 -35.127
-18.504223 2.6433933 15.459805 4.8626933 4.8767123 18.261673 14.185743 7.976726
