data/output_mfcc/b45f576da6a11d0f8c09f5c8bdf3ae2f_seg7.npy (npy, 7460 bytes, 1 tensors)

array f4 [39, 47]
0	0xc3d4298d	-424.32462
1	0xc3b2c111	-357.50833
2	0xc375b932	-245.72342
3	0xc345f043	-197.93852
4	0xc34feba2	-207.92044
5	0xc3763d0b	-246.23845
6	0xc383c187	-263.51193
7	0xc37d4ba1	-253.29543
8	0xc3816ac2	-258.83405
9	0xc37de41e	-253.89108
10	0xc38df615	-283.92252
11	0xc3a436c4	-328.42786
12	0xc39104c7	-290.03732
13	0xc384be1a	-265.48517
14	0xc39cfffb	-313.99985
15	0xc3dee939	-445.82205
16	0xc3d91c99	-434.22342
17	0xc386e717	-269.8054
18	0xc371bfe7	-241.74962
19	0xc398e0b5	-305.75552
20	0xc3cd3714	-410.4303
21	0xc37783f1	-247.5154
22	0xc32a0576	-170.02133
23	0xc33b5d6b	-187.36491
24	0xc3855b1c	-266.7118
25	0xc3a2d87c	-325.69128
26	0xc38443f1	-264.5308
27	0xc382bd64	-261.4796
28	0xc39528be	-298.3183
29	0xc389904b	-275.1273
30	0xc37f7fcc	-255.4992
31	0xc38ca2e1	-281.2725
32	0xc3b66ae2	-364.83502
33	0xc39df11e	-315.88373
34	0xc3792ef9	-249.18349
35	0xc378b69a	-248.71329
36	0xc38ca6f4	-281.30432
37	0xc383a1dc	-263.26453
38	0xc372d40e	-242.82834
39	0xc37df7bc	-253.96771
40	0xc3a1b95c	-323.44812
41	0xc3cc7b34	-408.96252
42	0xc3afd972	-351.6988
43	0xc3b6bed6	-365.4909
44	0xc3f749a8	-494.57544
45	0xc41c0a6e	-624.16296
46	0xc42dbbc6	-694.93396
47	0x4324cc04	164.79694
48	0x432e738e	174.45139
49	0x431828bb	152.1591
50	0x43058144	133.50494
51	0x42f962cc	124.69296
52	0x430709b6	135.03793
53	0x42f46d16	122.21306
54	0x42977b44	75.74075
55	0x425e0cbc	55.512436
56	0x42986708	76.20123
57	0x42f776f5	123.73234
58	0x43340ab4	180.04181
59	0x43331d24	179.11383
60	0x43260ee2	166.05814
61	0x43273aae	167.22922
62	0x433bc4f7	187.7694
63	0x433c0fb6	188.06137
64	0x42b6948a	91.290115
65	0x41f1e398	30.23613
66	0xc1cbeef4	-25.491676
67	0xc2003509	-32.051792
68	0x42c76b52	99.70961
69	0x42facef9	125.40424
70	0x4319392a	153.2233
71	0x432df7cd	173.96797
72	0x433edd88	190.86536
73	0x433cb4c2	188.70609
74	0x433a4dbc	186.30365
75	0x43399651	185.58717
76	0x43230a08	163.03918
77	0x4324b852	164.72
78	0x4335e082	181.87698
79	0x4333a0b4	179.62775
80	0x432fc27b	175.75969
81	0x432b81ef	171.50755
82	0x4329140a	169.07828
83	0x4326a050	166.62622
84	0x43113980	145.22461
85	0x43132d8f	147.17796
86	0x432136fa	161.21475
87	0x432af57a	170.9589
88	0x4303fb95	131.98274
89	0x429605a0	75.01099
90	0x4294fb28	74.49054
91	0x42c08df0	96.27722
92	0x42a65ac4	83.17728
93	0x4211aa3c	36.416245
94	0x4237833e	45.878166
95	0xbff47312	-1.9097617
96	0xc21b7a06	-38.869164
97	0xc257de18	-53.96689
98	0xc25ff352	-55.987617
99	0xc238f249	-46.236607
100	0xc1f218e8	-30.262161
101	0x41922226	18.266674
102	0x42343846	45.054955
103	0x417738b3	15.451343
104	0xc1c68bce	-24.818264
105	0xc20ee919	-35.727634
106	0xc249371a	-50.30381
107	0xc26ffa64	-59.994522
108	0xc2117fb8	-36.374725
109	0x41cb6742	25.425419
110	0x424c7d28	51.122223
111	0x41ae1b8e	21.763454
112	0x40bbb262	5.8655252
113	0xc13d9250	-11.848221
114	0x3fa7bfe0	1.3105431
115	0xc1a8d162	-21.102238
116	0xc2274ec4	-41.82692
117	0xc26d197c	-59.274887
118	0xc23ad1be	-46.704826
119	0xc1be696e	-23.80148
120	0xc269391e	-58.30578
121	0xc285800e	-66.75011
122	0xc2412a0d	-48.291065
123	0xc2154328	-37.315582
124	0xc233fbde	-44.995964
125	0xc2150cd2	-37.26252
126	0xc02e7a19	-2.7262022
127	0xc1f27202	-30.305668
128	0xc26144cf	-56.317196
129	0xc2760330	-61.503113
130	0xc22e2c2c	-43.543137
131	0xc2288418	-42.128998
132	0xc2408f06	-48.13967
133	0xc22b4785	-42.819843
134	0xc1c8ac2f	-25.084074
135	0x417c94c6	15.786322
136	0xc0a89e92	-5.2693567
137	0xc0f98704	-7.7977314
138	0xc1a236ee	-20.276821
139	0xc04ea4f9	-3.2288191
140	0x4182ad32	16.334568
141	0x4217c960	37.946655
142	0x42547c56	53.12142
143	0x4210659c	36.099228
144	0x41dfb0d8	27.96135
145	0x41f14a3e	30.161251
146	0x4252060c	52.505905
147	0x42817c34	64.742584
148	0x424b85f1	50.880802
149	0x4271ccef	60.45013
150	0x4254bf1c	53.18663
151	0x426cf380	59.237793
152	0x42405e52	48.09211
153	0x425809f8	54.009735
154	0x425789d0	53.884583
155	0x422e2214	43.53328
156	0x41c7749c	24.931938
157	0x3eb40819	0.35162428
158	0x410ce712	8.806414
159	0x410c07b0	8.751877
160	0xc0ba8e8d	-5.829901
161	0xc139582a	-11.584024
162	0xc1998baa	-19.193195
163	0xc166a818	-14.4160385
164	0xc11b8048	-9.718819
165	0xc16d376e	-14.826033
166	0xc1bc4ec0	-23.538452
167	0xc17dff9d	-15.874906
168	0xbff99cdc	-1.9500995
169	0x40d9ef12	6.8104334
170	0xc0206725	-2.5062954
171	0xc0e3d5cf	-7.1198497
172	0xc1102bf2	-9.010729
173	0xc14c9d24	-12.788364
174	0xc16134a0	-14.075348
175	0xc03e44b9	-2.9729445
176	0x415b39b7	13.701591
177	0x41dbbbf2	27.46677
178	0x41c0eec0	24.116577
179	0x41aec5d8	21.846603
180	0x41f32c0a	30.396503
181	0x4206f4da	33.739113
182	0x418496f2	16.573704
183	0x3fd3e922	1.6555521
184	0x40bfa1fe	5.9885244
185	0x3fe51563	1.7897152
186	0xc1bc096b	-23.504599
187	0xbfeb4f7f	-1.8383635
188	0xbf52c93d	-0.82338315
189	0xc1d33730	-26.401947
190	0xc2229a47	-40.65066
191	0xc239ae4a	-46.420204
192	0xc24e3702	-51.55372
193	0xc20128d2	-32.289864
194	0xc12b99a2	-10.725008
195	0x4020b4c3	2.5110328
196	0x402922e9	2.6427557
197	0xc16bdc9a	-14.741358
198	0xc208757e	-34.11474
199	0xc2301a1f	-44.02551
200	0xc236364e	-45.553032
201	0xc244f0ee	-49.235283
202	0xc229f991	-42.493717
203	0xc2034d1f	-32.825314
204	0xc1d5e777	-26.73802
205	0x40636035	3.552747
206	0x416d3f24	14.827915
207	0x4145bbd1	12.358354
208	0x41173b98	9.452049
209	0xc18033ec	-16.025352
210	0xc1c2ef50	-24.366852
211	0xc219585c	-38.33629
212	0xc22b28dc	-42.7899
213	0xc239c3dc	-46.44127
214	0xc2651adc	-57.27623
215	0xc26890bc	-58.141342
216	0xc2544f46	-53.077415
217	0xc287bfc2	-67.87453
218	0xc2808dfe	-64.27733
219	0xc255534a	-53.331337
220	0xc20906cb	-34.256634
221	0xc1a40048	-20.500137
222	0xc215bb46	-37.432884
223	0xc23cf003	-47.234386
224	0xc216e196	-37.7203
225	0xc211e832	-36.476753
226	0xc20f35f1	-35.802677
227	0xc1f6a429	-30.830156
228	0xc1968772	-18.816135
229	0xc19bfe57	-19.49919
230	0xc1ef0262	-29.876163
231	0xc1b9f71c	-23.245659
232	0xc154e480	-13.305786
233	0xc0f7b1e4	-7.740465
234	0xc121213c	-10.070614
235	0x3f1fe2ea	0.6245562
236	0xbe2190b6	-0.15777859
237	0x413a4e63	11.644137
238	0x412f6fd5	10.964803
239	0x40cfcdd4	6.4938755
240	0xc113f0be	-9.246275
241	0xc1d23dfa	-26.280262
242	0xc1b893c1	-23.072145
243	0xc1bcaa98	-23.583298
244	0xc204ef74	-33.23384
245	0xc1f2ee80	-30.366455
246	0xc1efcbd6	-29.97453
247	0xc19aff58	-19.37468
248	0xc092b432	-4.5844965
249	0x410244f4	8.141834
250	0x40d216c2	6.565278
251	0x412d4fae	10.831953
252	0x41dba53f	27.455687
253	0x41ffbced	31.967249
254	0x41c49328	24.571854
255	0x415a63ed	13.649396
