data/output_mfcc/b50a8c7b441a32effa7e4fc89a106f58_seg0.npy (npy, 7460 bytes, 1 tensors)

array f4 [39, 47]
0	0xc435b265	-726.7874
1	0xc435b265	-726.7874
2	0xc4334bb4	-717.18286
3	0xc432da39	-715.4097
4	0xc434c983	-723.1486
5	0xc42a3b9a	-680.9313
6	0xc4041d1b	-528.4548
7	0xc3d6b1f9	-429.3904
8	0xc3b5eb13	-363.83652
9	0xc399db3d	-307.7128
10	0xc3887b01	-272.96097
11	0xc398db47	-305.7131
12	0xc3a508d3	-330.06894
13	0xc37553f7	-245.32799
14	0xc3563fa3	-214.24858
15	0xc352480a	-210.2814
16	0xc35ecd81	-222.80275
17	0xc345bb63	-197.73198
18	0xc32df6bd	-173.96382
19	0xc3252170	-165.13062
20	0xc355583e	-213.3447
21	0xc393b3c4	-295.40442
22	0xc3a4f6ce	-329.92816
23	0xc3cb5051	-406.62747
24	0xc393e972	-295.8238
25	0xc368346b	-232.20476
26	0xc382f2b3	-261.8961
27	0xc3a8e58e	-337.7934
28	0xc3c7b1b0	-399.38818
29	0xc3b29ade	-357.2099
30	0xc3939040	-295.12695
31	0xc3988f4d	-305.11954
32	0xc3c6ea59	-397.83084
33	0xc3d171b7	-418.8884
34	0xc38f7687	-286.926
35	0xc36fc1d7	-239.75719
36	0xc38091c8	-257.13892
37	0xc38f1d79	-286.23026
38	0xc38fde61	-287.73734
39	0xc391a2be	-291.27142
40	0xc39403ba	-296.0291
41	0xc38f1bcf	-286.21725
42	0xc39b874b	-311.05698
43	0xc3cbde6f	-407.73776
44	0xc3a5ea1f	-331.82907
45	0xc370c4f6	-240.76938
46	0xc35917cb	-217.09294
47	0x00000000	0.0
48	0x00000000	0.0
49	0x3f60d5bd	0.8782614
50	0x3f8a36a5	1.0797926
51	0x40909579	4.518246
52	0x4225323e	41.299065
53	0x430fc689	143.77553
54	0x4321c33c	161.76263
55	0x43012846	129.15732
56	0x42c61e76	99.059494
57	0x42d28ef4	105.279205
58	0x42e37b7e	113.741196
59	0x42800f74	64.03018
60	0xc10365ea	-8.212381
61	0xc188d2b6	-17.102886
62	0x41f9cb1f	31.22418
63	0x4291c152	72.87758
64	0x42394928	46.32144
65	0x427452e0	61.080933
66	0x42d4b346	106.35014
67	0x431d7b14	157.48077
68	0x431a4452	154.26688
69	0x42e35acd	113.677345
70	0x42e1566c	112.66879
71	0x432384de	163.51901
72	0x433bff29	187.99672
73	0x434f1608	207.08606
74	0x434ecfaa	206.81119
75	0x433f0db6	191.05356
76	0x4309159e	137.08444
77	0x42fca196	126.3156
78	0x43219fa2	161.62357
79	0x4346e58f	198.89671
80	0x43159284	149.57233
81	0x43092134	137.1297
82	0x4317ef70	151.9353
83	0x431ceebe	156.93259
84	0x43029822	130.59427
85	0x42bc448a	94.133865
86	0x4253be9e	52.93615
87	0x4275171d	61.27257
88	0x42e71350	115.53772
89	0x431ad61c	154.83636
90	0x4329a1b4	169.63165
91	0x43330832	179.03201
92	0x4329e411	169.89088
93	0x431a8508	154.51965
94	0x00000000	0.0
95	0x00000000	0.0
96	0xc123edd4	-10.2455635
97	0xc1435d8a	-12.210337
98	0x404f5710	3.2396889
99	0x419bdb7e	19.482174
100	0x4212195e	36.524773
101	0x423e58a7	47.586575
102	0x42708d2d	60.137867
103	0x41e3d188	28.47731
104	0x3bccd580	0.006251037
105	0x3ef6f68f	0.48234984
106	0x41a6aea1	20.835268
107	0x40a3c608	5.1179237
108	0x41656320	14.3367
109	0x419ad8ba	19.355824
110	0x3efd8528	0.49515653
111	0xc11a556c	-9.645855
112	0xc1e0c48c	-28.09597
113	0xc2656bd0	-57.355286
114	0xc29172ae	-72.72398
115	0xc202ea84	-32.72902
116	0xc1a45bec	-20.544884
117	0xc1543746	-13.2634945
118	0xc1cab040	-25.33606
119	0xc20fefa0	-35.98401
120	0xc24f91fe	-51.89257
121	0xc20f84d7	-35.879726
122	0x408b91eb	4.3615623
123	0xc2364f24	-45.577286
124	0xc23c6700	-47.100586
125	0xc19f213c	-19.891228
126	0x40d3fd06	6.6246367
127	0xc13de40c	-11.8681755
128	0xc1ed1fd2	-29.640537
129	0xc20c5f0e	-35.092827
130	0xc23bf261	-46.9867
131	0xc1889fcd	-17.078028
132	0x40e75cee	7.230094
133	0xc1894887	-17.160414
134	0xc13e1198	-11.879295
135	0x3e95a60d	0.2922825
136	0xc10cd424	-8.801792
137	0x40f6af1e	7.7088766
138	0xc1129f3a	-9.163874
139	0xc213df6f	-36.968197
140	0xc24526a8	-49.28775
141	0x00000000	0.0
142	0x00000000	0.0
143	0xc053e85b	-3.3110569
144	0xc07ca1f2	-3.9473844
145	0x40192080	2.3926086
146	0x414e8378	12.907097
147	0x423667ac	45.601242
148	0x420d0974	35.25923
149	0x42268c4a	41.637
150	0x429d6028	78.687805
151	0x42d55a66	106.67656
152	0x42d6f404	107.47659
153	0x4260d210	56.20514
154	0x427721c6	61.78298
155	0x4297d16d	75.909035
156	0x428ec16e	71.37779
157	0x424b6338	50.846893
158	0x4226c5c0	41.693115
159	0x41f24840	30.285278
160	0x41fc97c6	31.574108
161	0x4241af22	48.42103
162	0x423fde7c	47.96727
163	0x424e3a1a	51.55674
164	0x4239fdf9	46.49802
165	0x40063449	2.0969412
166	0xbf94ef7d	-1.1635586
167	0x40ee6b4c	7.450598
168	0x4196e721	18.862856
169	0x41dd6cd2	27.678135
170	0x42438834	48.88301
171	0x425ae29a	54.72129
172	0x42746308	61.09671
173	0x426089d6	56.134605
174	0x42683fd3	58.06233
175	0x424e9b5e	51.651726
176	0x428087ee	64.26549
177	0x42a749ad	83.6439
178	0x42b322f8	89.5683
179	0x428fffbb	71.99947
180	0x424194d6	48.395348
181	0x425abe54	54.685867
182	0x42963ba2	75.11647
183	0x42a0de05	80.43363
184	0x428a605c	69.1882
185	0x40f7d0d2	7.7442408
186	0x41694a80	14.580688
187	0x4206567e	33.584465
188	0x00000000	0.0
189	0x00000000	0.0
190	0x403bf6ae	2.9369311
191	0x406c1c98	3.6892452
192	0x400f8926	2.2427459
193	0x40d8b7a3	6.7724166
194	0x4098fc5e	4.7808065
195	0x4137b3df	11.481414
196	0xc10859d4	-8.521931
197	0xc2263f86	-41.562035
198	0xc2585bf6	-54.089806
199	0xc23af366	-46.737694
200	0x41703172	15.012072
201	0x417fb1f6	15.9809475
202	0x4175f663	15.372653
203	0x40f84b4e	7.7591925
204	0x4077a0d2	3.8691907
205	0xc0736cd6	-3.8035178
206	0xc09b2aa8	-4.848957
207	0xc137ab81	-11.479371
208	0xc1828f04	-16.319832
209	0x402fa11a	2.7442079
210	0x40f12847	7.5361667
211	0x40f9195e	7.7843466
212	0xc1fbb9b9	-31.465685
213	0xc2206651	-40.09992
214	0xc22eb61d	-43.677845
215	0xc20d6dd2	-35.357246
216	0xc1df3af1	-27.90378
217	0x419512d8	18.634201
218	0x419b0ea9	19.382158
219	0x41524a8c	13.1432
220	0xc0fb298a	-7.8488207
221	0xc08b52fe	-4.353881
222	0xc19c2230	-19.516693
223	0xc1d46bfc	-26.552727
224	0xc228c43e	-42.191643
225	0xc20c4a92	-35.072823
226	0xc1bd8bc4	-23.693245
227	0xc1ccf958	-25.62175
228	0xc1c1c746	-24.222301
229	0xc1200065	-10.000096
230	0xc0b837f6	-5.756831
231	0x3f24ad97	0.6432738
232	0xc1c1bc3e	-24.216915
233	0xc229ac35	-42.41817
234	0xc22bb0d8	-42.9227
235	0x00000000	0.0
236	0x00000000	0.0
237	0x40cad40d	6.338385
238	0x40ebca8a	7.368474
239	0x3ffcc783	1.9748386
240	0x41375446	11.458075
241	0x4086b5d4	4.209696
242	0xc0de0a8a	-6.9387865
243	0xc0afb99a	-5.4914064
244	0xc1785c0e	-15.522474
245	0xc1a3fa79	-20.497301
246	0xc1966b4c	-18.802391
247	0xc1f0ae10	-30.084991
248	0xc1b61696	-22.761028
249	0xc1ad95a5	-21.698069
250	0xc1d5ae72	-26.710178
251	0xc1384e75	-11.519155
252	0xc13b5e50	-11.7105255
253	0xc154cced	-13.300031
254	0xc1995092	-19.164341
255	0xc17dca68	-15.861916
