data/output_mfcc/b587c18ab8a28a00d157301cc993df8a_seg0.npy (npy, 7460 bytes, 1 tensors)

array f4 [39, 47]
-770.82336 -770.2444 -770.3074 -770.17236 -769.7012 -769.4801 -769.97943 -770.05414
-770.28925 -770.3362 -769.47003 -756.37634 -626.9079 -464.29984 -353.0062 -338.60754
-403.0576 -421.6408 -316.5189 -289.96683 -306.29028 -331.66107 -381.3295 -481.04642
-616.0866 -700.66565 -742.14276 -761.26624 -753.1897 -697.7619 -607.3146 -574.7597
-425.31583 -309.0224 -264.2224 -284.6243 -362.05478 -446.50012 -445.06604 -315.12885
-281.23895 -320.20718 -369.53406 -361.06998 -285.42035 -267.37247 -302.50208 4.0347304
4.8491125 4.7601113 4.950794 5.612493 5.9235106 5.2226424 5.1183786 4.7870035
4.7197638 5.9193373 5.1102457 -37.187424 -9.531197 75.16533 134.27567 190.93561
167.9735 71.087326 4.6607294 -29.885933 -31.244942 -16.890732 10.688109 36.27641
26.467525 18.113417 11.939818 9.87945 -15.49519 -36.019985 -30.032082 112.712524
153.60022 166.58562 172.48329 144.63306 104.46619 73.43236 104.32019 124.18031
130.76447 63.08293 -3.7593982 57.568485 123.42891 147.74707 3.9840322 4.7851486
4.6964254 4.8857813 5.5347676 5.84121 5.155319 5.054652 4.7268267 4.656933
5.7814674 8.797212 -12.230181 -2.0197847 34.492302 35.64434 25.253042 39.879528
-9.914705 -43.526997 -65.647385 -71.310196 -68.02681 -51.145462 -33.12108 -23.3098
-10.430511 4.162118 -10.19873 -21.283714 -19.308784 -15.20791 -25.792835 -60.30134
-94.55359 -107.951675 -69.00752 -49.29979 -15.889635 -2.6423638 -23.30275 -26.913342
44.23764 37.380554 16.1828 -25.909512 -48.757397 3.900073 4.6792393 4.5909886
4.778138 5.408249 5.7076235 5.0438943 4.9491386 4.6272035 4.552949 5.555377
21.348911 35.529236 16.08158 28.511972 29.840288 51.839798 34.931522 24.506275
17.82296 10.101007 10.159383 9.666752 11.19066 9.49604 0.881761 0.7213232
5.958315 4.1763573 10.09802 -4.2367268 -4.3592424 -10.64649 -0.52759755 28.63205
48.11715 36.715916 -3.557866 7.6091223 44.19603 59.463318 60.01311 23.346977
25.62917 15.822594 29.960762 56.419632 3.7836497 4.5324306 4.44486 4.6289244
5.2370806 5.5276375 4.8895397 4.8028708 4.489139 4.408909 5.246501 -0.7131685
-18.113754 -24.003815 -12.975018 -32.28518 -62.687294 -44.48866 -4.3404636 -1.7473369
-7.01318 -9.361172 -10.587551 -3.4592013 10.746042 28.544447 24.574093 11.900766
21.152779 14.670601 6.7475147 9.729416 12.194351 6.233527 -5.997461 -15.4393425
0.19606394 15.239638 -15.612192 -13.940018 -12.978233 -4.4904356 15.419273 5.081562
-2.5514688 -15.659177 -27.828108 3.6358762 4.346158 4.25949 4.4396124 5.0262995
5.307186 4.6938725 4.617298 4.314024 4.2263207 4.8621707 9.393086 11.207142
0.5021685 5.8955417 -5.3149815 -10.016262 7.4003425 40.95152 47.84114 35.50435
00000000: b2b4 40c4 a48f 40c4 ac93 40c4 088b 40c4
00000010: e06c 40c4 ba5e 40c4 af7e 40c4 7783 40c4
00000020: 8392 40c4 8495 40c4 155e 40c4 1618 3dc4
00000030: 1bba 1cc4 6126 e8c3 cb80 b0c3 c44d a9c3
00000040: 5f87 c9c3 06d2 d2c3 6b42 9ec3 c1fb 90c3
00000050: 2825 99c3 9ed4 a5c3 2daa bec3 f185 f0c3
00000060: 8b05 1ac4 9a2a 2fc4 2389 39c4 0a51 3ec4
00000070: 244c 3cc4 c370 2ec4 22d4 17c4 9fb0 0fc4
00000080: 6da8 d4c3 de82 9ac3 781c 84c3 e94f 8ec3
00000090: 0307 b5c3 0440 dfc3 7488 dec3 7e90 9dc3
000000a0: 969e 8cc3 851a a0c3 5cc4 b8c3 f588 b4c3
000000b0: ceb5 8ec3 adaf 85c3 4440 97c3 831c 8140
000000c0: ee2b 9b40 d552 9840 e86c 9e40 8b99 b340
000000d0: 668d bd40 e31f a740 c2c9 a340 222f 9940
000000e0: 4e08 9740 366b bd40 2287 a340 ecbf 14c2
000000f0: c87f 18c1 a654 9642 9246 0643 84ef 3e43
00000100: 37f9 2743 b62c 8e42 b224 9540 6416 efc1
00000110: a4f5 f9c1 3820 87c1 7f02 2b41 0b1b 1142
00000120: 7ebd d341 47e8 9041 7f09 3f41 3a12 1e41
00000130: 4cec 77c1 7714 10c2 b441 f0c1 d06c e142
00000140: a899 1943 eb95 2643 b97b 2c43 10a2 1043
00000150: b0ee d042 5edd 9242 f0a3 d042 525c f842
00000160: b4c3 0243 ec54 7c42 fb99 70c0 2146 6642
00000170: 9adb f642 40bf 1343 62fa 7e40 f01f 9940
00000180: 1e49 9640 5258 9c40 d11c b140 31eb ba40
00000190: 60f8 a440 b6bf a140 2a42 9740 9805 9540
000001a0: c801 b940 61c1 0c41 d2ae 43c1 2744 01c0
000001b0: 1ef8 0942 ce93 0e42 3b06 ca41 a384 1f42
000001c0: a2a2 1ec1 a51b 2ec2 764b 83c2 d29e 8ec2
000001d0: ba0d 88c2 f494 4cc2 fc7b 04c2 787a bac1
000001e0: 60e3 26c1 1230 8540 002e 23c1 0c45 aac1
000001f0: 6478 9ac1 9953 73c1 ba57 cec1 9234 71c2
00000200: 701b bdc2 42e7 d7c2 da03 8ac2 fc32 45c2
00000210: f23b 7ec1 7d1c 29c0 086c bac1 864e d7c1
00000220: 58f3 3042 b085 1542 6076 8141 ae46 cfc1
00000230: 9307 43c2 cc9a 7940 54bc 9540 61e9 9240
00000240: 82e6 9840 6010 ad40 daa4 b640 9567 a140
00000250: 585f 9e40 0d12 9440 c2b1 9140 a6c5 b140
00000260: 92ca aa41 f01d 0e42 13a7 8041 8518 e441
00000270: e9b8 ee41 f45b 4f42 e1b9 0b42 da0c c441
00000280: 6c95 8e41 ba9d 2141 d58c 2241 04ab 1a41
00000290: f20c 3341 c8ef 1741 17bb 613f a3a8 383f
000002a0: 84aa be40 b8a4 8540 7d91 2141 4493 87c0
000002b0: ea7e 8bc0 0658 2ac1 a210 07bf 700e e541
000002c0: f677 4042 19dd 1242 14b4 63c0 ee7d f340
000002d0: bcc8 3042 70da 6d42 6d0d 7042 9cc6 ba41
000002e0: 8a08 cd41 5829 7d41 a4af ef41 b4ad 6142
000002f0: 5127 7240 ac09 9140 4b3c 8e40 2620 9440
00000300: 2a96 a740 68e2 b040 1c77 9c40 1eb1 9940
00000310: 07a7 8f40 c815 8d40 56e3 a740 3692 36bf
00000320: f8e8 90c1 d007 c0c1 ac99 4fc1 0624 01c2
00000330: cabf 7ac2 63f4 31c2 14e5 8ac0 bca8 dfbf
00000340: f86b e0c0 5cc7 15c1 9c66 29c1 8e63 5dc0
00000350: caef 2b41 075b e441 be97 c441 8a69 3e41
00000360: e438 a941 c8ba 6a41 a4eb d740 b0ab 1b41
00000370: 101c 4341 0e79 c740 33eb bfc0 8c07 77c1
00000380: fcc4 483e 8fd5 7341 8acb 79c1 500a 5fc1
00000390: d8a6 4fc1 a6b1 8fc0 58b5 7641 289c a240
000003a0: 444b 23c0 fd8b 7ac1 f79f dec1 32b2 6840
000003b0: ba13 8b40 be4d 8840 4e11 8e40 72d7 a040
000003c0: 78d4 a940 3434 9640 e8c0 9340 7c0c 8a40
000003d0: 053e 8740 e796 9b40 154a 1641 7450 3341
000003e0: 1d8e 003f 47a8 bc40 5414 aac0 9c42 20c1
000003f0: 9bcf ec40 5bce 2342 545d 3f42 7404 0e42
