data/output_mfcc/b7add1afb8ab9b6f1a243f4a9d08e03f_seg2.npy (npy, 7460 bytes, 1 tensors)

array f4 [39, 47]
000000 fb 3c 80 c3 89 17 6d c3 c9 25 84 c3 bc 35 80 c3
       -256.4764 -237.09193 -264.2952 -256.4198
000010 9d 98 50 c3 01 85 3b c3 bb 90 3a c3 f3 04 2d c3
       -208.59615 -187.51955 -186.56535 -173.01933
000020 02 d8 5b c3 5a b8 91 c3 81 c0 8f c3 27 93 7b c3
       -219.84378 -291.44025 -287.50394 -251.57481
000030 57 5c 69 c3 71 0d 85 c3 41 2e ad c3 72 d8 d8 c3
       -233.3607 -266.105 -346.36136 -433.69098
000040 51 5e 0b c4 82 47 27 c4 69 4f 36 c4 62 88 39 c4
       -557.4737 -669.1173 -729.2408 -742.131
000050 df e9 39 c4 63 09 3a c4 63 09 3a c4 63 09 3a c4
       -743.65424 -744.14667 -744.14667 -744.14667
000060 63 09 3a c4 63 09 3a c4 63 09 3a c4 63 09 3a c4
       -744.14667 -744.14667 -744.14667 -744.14667
000070 63 09 3a c4 63 09 3a c4 63 09 3a c4 63 09 3a c4
       -744.14667 -744.14667 -744.14667 -744.14667
000080 63 09 3a c4 63 09 3a c4 63 09 3a c4 63 09 3a c4
       -744.14667 -744.14667 -744.14667 -744.14667
000090 63 09 3a c4 63 09 3a c4 63 09 3a c4 63 09 3a c4
       -744.14667 -744.14667 -744.14667 -744.14667
0000a0 63 09 3a c4 63 09 3a c4 63 09 3a c4 63 09 3a c4
       -744.14667 -744.14667 -744.14667 -744.14667
0000b0 63 09 3a c4 63 09 3a c4 63 09 3a c4 4e 1e 20 43
       -744.14667 -744.14667 -744.14667 160.11838
0000c0 be 63 1e 43 26 48 14 43 aa 3e 27 43 72 4c ee 42
       158.38962 148.28183 167.24478 119.14931
0000d0 00 49 84 42 b8 87 24 42 28 05 93 42 8a 9d e8 42
       66.14258 41.132538 73.51007 116.30769
0000e0 7f b3 14 43 90 54 17 43 c8 63 0e 43 6a 54 ff 42
       148.70116 151.33032 142.38977 127.66487
0000f0 76 62 f8 42 c1 51 09 43 29 4b 01 43 28 d3 c6 42
       124.19231 137.31935 129.2936 99.412415
000100 4f 7b 82 42 ac 07 8c 41 7c c5 30 40 12 98 2f 3f
       65.24084 17.503746 2.7620535 0.68591416
000110 00 00 00 00 00 00 00 00 00 00 00 00 00 00 00 00
       0.0 0.0 0.0 0.0
000120 00 00 00 00 00 00 00 00 00 00 00 00 00 00 00 00
       0.0 0.0 0.0 0.0
000130 00 00 00 00 00 00 00 00 00 00 00 00 00 00 00 00
       0.0 0.0 0.0 0.0
000140 00 00 00 00 00 00 00 00 00 00 00 00 00 00 00 00
       0.0 0.0 0.0 0.0
000150 00 00 00 00 00 00 00 00 00 00 00 00 00 00 00 00
       0.0 0.0 0.0 0.0
000160 00 00 00 00 00 00 00 00 00 00 00 00 00 00 00 00
       0.0 0.0 0.0 0.0
000170 00 00 00 00 00 00 00 00 38 4f e7 c1 d5 9b 27 c2
       0.0 0.0 -28.913681 -41.90218
000180 98 ac 25 c2 96 05 1a c2 02 c5 c1 c1 32 62 c9 c0
       -41.41855 -38.505455 -24.221195 -6.2932367
000190 0c 18 e2 c0 6a 71 f2 c1 e4 14 68 c2 ec e9 83 c2
       -7.0654354 -30.305378 -58.0204 -65.95688
0001a0 cc 73 58 c2 00 94 66 c2 b2 86 81 c2 37 53 74 c2
       -54.113083 -57.64453 -64.76308 -61.081264
0001b0 4a 61 47 c2 d8 e8 34 c2 6b b0 80 c1 28 24 76 41
       -49.84501 -45.227386 -16.086142 15.383827
0001c0 de df 1e 41 56 49 20 40 c4 b3 27 3f 00 00 00 00
       9.929655 2.504476 0.65508676 0.0
0001d0 00 00 00 00 00 00 00 00 00 00 00 00 00 00 00 00
       0.0 0.0 0.0 0.0
0001e0 00 00 00 00 00 00 00 00 00 00 00 00 00 00 00 00
       0.0 0.0 0.0 0.0
0001f0 00 00 00 00 00 00 00 00 00 00 00 00 00 00 00 00
       0.0 0.0 0.0 0.0
000200 00 00 00 00 00 00 00 00 00 00 00 00 00 00 00 00
       0.0 0.0 0.0 0.0
000210 00 00 00 00 00 00 00 00 00 00 00 00 00 00 00 00
       0.0 0.0 0.0 0.0
000220 00 00 00 00 00 00 00 00 00 00 00 00 00 00 00 00
       0.0 0.0 0.0 0.0
000230 00 00 00 00 2e 7f 71 41 a1 e4 36 42 64 9c 79 42
       0.0 15.09355 45.72327 62.402725
000240 b2 85 25 42 a5 20 41 40 74 72 bf bf 3c 82 3e 41
       41.38056 3.0176175 -1.4956803 11.9067955
000250 12 f9 9c 41 d4 06 28 42 b4 aa 6d 42 e9 3e 9e 42
       19.621616 42.006668 59.416702 79.12287
000260 b0 3a be 42 22 36 a8 42 fd ef 8c 42 5a 45 49 42
       95.114624 84.10573 70.46873 50.317726
000270 98 bc 04 42 c8 52 d9 41 f7 8f 09 41 de 11 3c 40
       33.184174 27.16542 8.597648 2.9385905
000280 64 6e 06 40 24 0b 1b 3f 00 00 00 00 00 00 00 00
       2.1004877 0.60563874 0.0 0.0
000290 00 00 00 00 00 00 00 00 00 00 00 00 00 00 00 00
       0.0 0.0 0.0 0.0
0002a0 00 00 00 00 00 00 00 00 00 00 00 00 00 00 00 00
       0.0 0.0 0.0 0.0
0002b0 00 00 00 00 00 00 00 00 00 00 00 00 00 00 00 00
       0.0 0.0 0.0 0.0
0002c0 00 00 00 00 00 00 00 00 00 00 00 00 00 00 00 00
       0.0 0.0 0.0 0.0
0002d0 00 00 00 00 00 00 00 00 00 00 00 00 00 00 00 00
       0.0 0.0 0.0 0.0
0002e0 00 00 00 00 00 00 00 00 00 00 00 00 00 00 00 00
       0.0 0.0 0.0 0.0
0002f0 ac 25 4a c2 c2 f5 84 c2 d2 3e 8d c2 33 14 9f c2
       -50.53679 -66.479996 -70.622696 -79.53945
000300 78 b8 3f c2 f8 3a d8 c1 c4 04 30 c1 fe 7b 51 c0
       -47.930145 -27.028793 -11.0011635 -3.273193
000310 8b 91 f0 c0 5f 21 4b c1 0e 3a 4d c2 97 0b 69 c2
       -7.5177665 -12.695647 -51.306694 -58.26132
000320 7e 7f 3b c2 96 98 d4 c1 a6 75 fa bf 76 7d 2e 3e
       -46.874504 -26.574505 -1.9567153 0.17040047
000330 d5 38 81 c0 cd a5 89 c0 b6 86 34 c0 5c f1 ca 3f
       -4.0381875 -4.3014894 -2.820722 1.5854907
000340 ad 53 0a 3f 00 00 00 00 00 00 00 00 00 00 00 00
       0.5403393 0.0 0.0 0.0
000350 00 00 00 00 00 00 00 00 00 00 00 00 00 00 00 00
       0.0 0.0 0.0 0.0
000360 00 00 00 00 00 00 00 00 00 00 00 00 00 00 00 00
       0.0 0.0 0.0 0.0
000370 00 00 00 00 00 00 00 00 00 00 00 00 00 00 00 00
       0.0 0.0 0.0 0.0
000380 00 00 00 00 00 00 00 00 00 00 00 00 00 00 00 00
       0.0 0.0 0.0 0.0
000390 00 00 00 00 00 00 00 00 00 00 00 00 00 00 00 00
       0.0 0.0 0.0 0.0
0003a0 00 00 00 00 00 00 00 00 00 00 00 00 fc 9f 08 41
       0.0 0.0 0.0 8.539059
0003b0 60 9c dc 40 a7 64 23 c0 aa b3 df c0 c7 75 27 40
       6.8940887 -2.5530183 -6.9906816 2.6165636
0003c0 84 87 8f 41 c3 de 5f 41 04 f2 e5 be 1f 6f 1d c1
       17.94117 13.991885 -0.44911206 -9.839629
0003d0 f4 fe 6f c1 2c 80 c1 c1 1c 6f f1 c1 12 fe cb c1
       -14.999744 -24.187584 -30.179253 -25.499058
0003e0 28 d5 46 c1 08 09 e2 c0 2a 43 34 c1 ac 50 da c1
       -12.42704 -7.0636024 -11.266397 -27.28939
0003f0 12 5d c5 c1 3d 3f e9 c0 9a 8b 80 3f 0e f1 ec 3e
       -24.670444 -7.2889695 1.0042603 0.4627766
