data/output_mfcc/b7f7d232eda0268e389bc7e61b76160b_seg0.npy (npy, 7460 bytes, 1 tensors)

array f4 [39, 47]
00000000: c85a 3ec4 241f 3ec4 2809 3ec4 6cd8 3dc4
00000010: b9f2 3dc4 c852 3ec4 0a4d 3ec4 7e53 3ec4
00000020: b64e 3ec4 61ef 3dc4 b3a6 27c4 10a9 ddc3
00000030: 01ef aec3 e72a 97c3 769c a8c3 62f4 d2c3
00000040: 415f b5c3 4a49 a8c3 caa4 b7c3 d199 c4c3
00000050: 789c b9c3 4875 afc3 1734 aec3 cc46 adc3
00000060: 22b3 a9c3 0b91 c0c3 7078 f0c3 fbb1 f8c3
00000070: 836d ffc3 ba8f b3c3 4841 8cc3 d72d 70c3
00000080: b7b5 74c3 796f 8ec3 c730 99c3 e259 9fc3
00000090: c2e4 c0c3 27f2 dec3 f55f c8c3 52bd a4c3
000000a0: 82bf 8cc3 7174 8fc3 1cc0 9dc3 4ce2 8cc3
000000b0: b0b7 8ec3 5710 8ec3 94a1 9cc3 0000 0000
000000c0: f967 a43f 225d e23f bc63 3240 0619 0f40
000000d0: bc50 323e 4e53 973e 1271 213e c0a8 873e
000000e0: 0cf6 1640 746b 2d42 e4d2 e142 a731 1643
000000f0: 1cea 3843 0e30 4643 00bd 1243 2a15 0c43
00000100: ee71 2943 2b45 3543 4830 3743 f462 4143
00000110: cbcc 3143 30c5 0f43 db05 e642 ee18 f242
00000120: e64a 0d43 bfba 2e43 2476 4343 da29 4543
00000130: 7099 3243 e81b 2b43 de4d 1e43 9137 1543
00000140: db9f 0b43 5697 0c43 1d7e 0c43 5080 0e43
00000150: d65c f942 0e66 1043 4ef0 2643 a6da ec42
00000160: 0a07 5842 740d ce41 e71d ef42 6748 2743
00000170: 6ac7 3343 97be 3843 0000 0000 1e00 983f
00000180: 601c d53f 5326 2140 5483 0340 e820 2a3e
00000190: 82ed 8a3e 46b3 163e 29fd 843e 0631 1440
000001a0: f4d4 c541 e6f9 0641 c413 a8c0 9e47 bac1
000001b0: 9080 e9c1 064b 9041 6ada c641 66fe c041
000001c0: 8062 b740 fe95 c240 eb16 b43f 189d 95c1
000001d0: 5616 e8c1 3083 fac1 c4f9 ebc1 4bfa 52c1
000001e0: 9537 0442 e43d 9042 4435 8442 16f1 b4c1
000001f0: 9c53 4cc2 9a8f a6c2 888c cfc2 4e96 bbc2
00000200: 69c1 5ec2 f4a2 19c2 9638 a0c1 da34 db3f
00000210: 1ef5 8141 15e0 95c0 a0a8 9cc0 97b8 7dc1
00000220: 3fd7 16c2 c896 18c1 0d0e a0c1 67d9 60c2
00000230: 523c 36c2 0000 0000 74a4 843f 45f1 bf3f
00000240: b79e 0640 6c33 e43f 9ae4 1c3e f204 6e3e
00000250: d471 053e ae93 803e 219e 0f40 5c93 3842
00000260: 8d33 7741 bfeb 8e40 79db cc40 f0d7 1341
00000270: 4672 a5c1 dca7 4cc1 7f7d a5c0 21b3 1141
00000280: bc18 df41 9dbb 1542 cdec 7f42 6e6b bf42
00000290: 0293 d542 992d b042 8a9f 7542 e2d1 1342
000002a0: fe9d f841 2460 d541 4110 0a42 62ef 0c42
000002b0: 3ca4 1942 ba21 6042 1184 9942 3cfc b142
000002c0: 7597 c842 7e41 bd42 2e25 7641 86a5 33c1
000002d0: 9631 543f e1c5 c53f 0245 a241 2497 a841
000002e0: fade cc41 c1a4 2142 967b 3142 be2e 4042
000002f0: 0000 0000 3b4e 583f 732b a43f 4588 cb3f
00000300: 3c80 ba3f b032 0b3e e64d 393e 3437 dd3d
00000310: 9cf9 743e 704d 0940 61b2 bd41 de20 4a40
00000320: 10c8 4fc1 e680 f5c1 8bfc 0ec2 af65 79c1
00000330: 9600 b8c1 d0a4 54c2 580e 8bc2 7c86 8bc2
00000340: 8255 94c2 e2d2 92c2 68c1 87c2 86f9 7dc2
00000350: 867f 68c2 03c6 54c2 c870 1ac2 5f48 46c2
00000360: a19a 00c2 1da7 c0c1 5858 b1c1 a231 67c1
00000370: 60ce 96c1 1e84 f2c1 9e7c 73c2 de72 76c2
00000380: c087 3dc2 759c 07c2 60e6 21c2 76f7 2ac2
00000390: 5633 b8c1 c64e dbc0 08c5 47c1 b965 22c2
000003a0: b9ed 72c2 5ec9 1bc2 7fcc 8140 0000 0000
000003b0: 5191 213f 4e80 833f d83d 843f 2015 8f3f
000003c0: 68a3 eb3d f01d f53d dad9 a63d 449a 653e
000003d0: f454 0140 be3e 86c1 ee33 0e41 d02d a041
000003e0: 06a4 da41 b981 d041 669b 9b41 26a6 9941
000003f0: 087a d641 2460 0342 b2c9 a341 3efc 9741
-761.41846 -760.4866 -760.14307 -759.3816 -759.79254 -761.29346 -761.20374 -761.30457
-761.22986 -759.7403 -670.6047 -443.3208 -349.86722 -302.33517 -337.22235 -421.90924
-362.74417 -336.57257 -367.2874 -393.2017 -371.2224 -350.91626 -348.40695 -346.5531
-339.39948 -385.13315 -480.94092 -497.39047 -510.85556 -359.12286 -280.51 -240.17906
-244.70982 -284.87088 -306.38107 -318.7022 -385.78717 -445.8918 -400.74966 -329.47906
-281.49615 -286.9097 -315.50085 -281.76794 -285.43506 -284.12766 -313.26233 0.0
1.284423 1.7684672 2.7873373 2.2359023 0.1741361 0.29555744 0.15765789 0.26495934
2.3587675 43.354935 112.911896 150.19395 184.91449 198.18771 146.73828 140.08267
169.44504 181.27019 183.1886 193.38654 177.79997 143.77026 115.01144 121.04869
141.29257 174.72948 195.46149 197.16348 178.59937 171.10901 158.30417 149.21706
139.62444 140.59116 140.49263 142.50122 124.68132 144.39865 166.93869 118.42705
54.006874 25.756569 119.5584 167.28282 179.77896 184.74449 0.0 1.1875036
1.6649284 2.5179641 2.0548906 0.16614115 0.2713433 0.14716825 0.25974396 2.3154922
24.728981 8.43601 -5.252413 -23.28497 -29.187775 18.036633 24.856647 24.124218
5.730774 6.0808096 1.4069494 -18.701706 -29.010906 -31.314056 -29.496956 -13.186107
33.05428 72.12088 66.104034 -22.617718 -51.08165 -83.28047 -103.774475 -93.793564
-55.688877 -38.409134 -20.02763 1.7125504 16.244686 -4.683604 -4.895584 -15.857566
-37.7102 -9.536812 -20.00686 -56.212307 -45.558907 0.0 1.0362687 1.4995505
2.1034372 1.7828193 0.1532158 0.23244074 0.13031703 0.2511267 2.2440264 46.143906
15.450086 4.4662776 6.401791 9.240219 -20.680798 -12.790981 -5.1715693 9.106233
27.887077 37.433216 63.98125 95.70982 106.787125 88.08906 61.4058 36.954964
31.077145 26.671944 34.515873 35.233772 38.410385 56.032936 76.75794 88.992645
100.295815 94.627914 15.384077 -11.227911 0.8288816 1.5451013 20.283695 21.0738
25.608875 40.410892 44.37069 48.045647 0.0 0.8449437 1.282576 1.5900961
1.4570384 0.13593554 0.18096122 0.10801545 0.23923343 2.1453514 23.7121 3.158256
-12.986343 -30.687939 -35.746624 -15.587325 -23.000286 -53.16095 -69.528015 -69.762665
-74.16701 -73.41188 -67.87775 -63.493675 -58.124535 -53.19337 -38.610138 -49.570675
-32.151005 -24.081598 -22.168137 -14.449617 -18.850769 -30.31451 -60.871696 -61.612175
-47.38257 -33.90279 -40.474976 -42.74166 -23.025066 -6.853366 -12.485603 -40.59934
-60.73215 -38.946648 4.056213 0.0 0.6311236 1.027353 1.0331373 1.1178322
0.11505777 0.11968601 0.08147021 0.22422129 2.0208101 -16.780636 8.887678 20.02237
27.33009 26.063341 19.450878 19.206127 26.809586 32.843887 20.473484 18.998165
