data/output_mfcc/b802859f3051521faf839d3cf6704942_seg2.npy (npy, 7460 bytes, 1 tensors)

array f4 [39, 47]
000000 92 ef 4f c3 0e a5 2b c3 fc e3 32 c3 77 7f 44 c3
       -207.93582 -171.64474 -178.89056 -196.49791
000010 5d 26 6f c3 b0 5a ab c3 da 3d b7 c3 0e bf 89 c3
       -239.14986 -342.7085 -366.48322 -275.4926
000020 d1 26 7e c3 9d 1d 84 c3 e7 60 83 c3 bf 22 4a c3
       -254.15163 -264.23135 -262.75705 -202.13573
000030 73 c2 5d c3 8e d0 a6 c3 1f 97 b2 c3 dd b1 60 c3
       -221.75957 -333.62933 -357.18063 -224.69478
000040 e8 91 5a c3 8c 6d 94 c3 0d 40 ac c3 36 dd 99 c3
       -218.56995 -296.85583 -344.5004 -307.7282
000050 ce e8 80 c3 cd ca 91 c3 d7 7b cd c3 17 71 ce c3
       -257.8188 -291.58438 -410.9675 -412.8835
000060 d5 49 a6 c3 cb 6f 8b c3 ea 72 8b c3 6a ff a4 c3
       -332.5768 -278.87338 -278.89777 -329.99542
000070 5a 14 b7 c3 3e 46 ac c3 68 a1 be c3 bb ef f4 c3
       -366.159 -344.54877 -381.261 -489.8729
000080 69 a9 06 c4 12 72 0e c4 5a 24 fa c3 85 a7 e8 c3
       -538.64703 -569.78235 -500.284 -465.30875
000090 41 e5 f7 c3 87 23 0c c4 16 23 23 c4 02 97 2c c4
       -495.79105 -560.5551 -652.5482 -690.3595
0000a0 ca 32 33 c4 fd a6 35 c4 9b 3f 37 c4 e7 7d 38 c4
       -716.7936 -726.6092 -732.99384 -737.9672
0000b0 e7 7d 38 c4 e7 7d 38 c4 e7 7d 38 c4 10 d5 22 43
       -737.9672 -737.9672 -737.9672 162.83228
0000c0 b4 93 2f 43 4c 55 40 43 43 5d 3d 43 bc 9b 36 43
       175.57697 192.33319 189.3643 182.60834
0000d0 d9 4f 33 43 b4 40 04 43 fa 7c 24 43 06 a8 3b 43
       179.3119 132.25275 164.48819 187.65634
0000e0 ec 92 2c 43 36 e7 08 43 34 0f d0 42 d2 ac 93 42
       172.57391 136.90317 104.02969 73.83754
0000f0 80 2a 28 42 36 8e a0 42 1e f8 03 43 5b e3 24 43
       42.041504 80.277756 131.96921 164.8881
000100 0b 90 47 43 0f 62 34 43 02 e7 1c 43 e6 f6 1f 43
       199.56267 180.38304 156.90237 159.96445
000110 e7 56 2b 43 46 28 2d 43 a4 f2 24 43 12 c0 2f 43
       171.33946 173.15732 164.94781 175.75027
000120 f6 51 16 43 0e b8 cf 42 d0 3a dc 41 03 b4 11 c1
       150.32016 103.85948 27.528717 -9.106448
000130 a4 b2 7b 42 c2 be 16 43 60 4c 50 43 50 26 47 43
       62.924454 150.74515 208.29834 199.14966
000140 53 67 0f 43 68 83 63 42 cc e6 4f 42 94 cc 46 42
       143.40361 56.878326 51.975388 49.699783
000150 f0 13 7e 42 4e eb a0 42 52 33 5c 42 88 f3 dd 41
       63.51947 80.45958 55.050117 27.743912
000160 b6 42 7a 41 a0 d2 db 40 00 00 00 00 00 00 00 00
       15.641287 6.869461 0.0 0.0
000170 00 00 00 00 00 00 00 00 0e 1e 94 c2 dc 8f e6 c2
       0.0 0.0 -74.0587 -115.280975
000180 53 7c 0a c3 16 6b fc c2 d8 d3 a9 c2 cc 89 2b c2
       -138.48564 -126.20915 -84.91376 -42.884567
000190 40 84 a9 c1 b2 66 07 c2 ec 60 61 c2 b5 17 87 c2
       -21.189575 -33.85029 -56.34465 -67.5463
0001a0 24 72 9e c2 88 78 1c c2 c8 a4 15 be 96 65 f5 41
       -79.22293 -39.117706 -0.1461364 30.674603
0001b0 ee 39 71 41 12 41 98 c1 8c 38 3b c2 e0 85 8b c2
       15.076643 -19.031773 -46.80522 -69.761475
0001c0 67 a8 04 c2 9a c4 15 c1 a1 81 84 c1 f6 77 a0 c1
       -33.164455 -9.360498 -16.563295 -20.058575
0001d0 86 2c 67 41 8c b1 91 42 ee 21 03 42 3c 9d d6 41
       14.44837 72.84677 32.783134 26.826775
0001e0 3f 21 d0 41 02 a7 f7 40 cc a9 86 c1 cb 65 37 41
       26.016233 7.7391367 -16.832909 11.462352
0001f0 c2 58 22 42 e2 7e d0 42 a2 3e ec 42 a8 b0 83 42
       40.586678 104.24782 118.12233 65.84503
000200 44 ac 35 41 db d3 dc bf 78 28 6d c1 39 ea 35 c1
       11.354557 -1.7252153 -14.82238 -11.369683
000210 dd ae 8f 41 8a e9 e1 41 20 92 b0 41 ae 9a 66 41
       17.960382 28.239033 22.07135 14.412764
000220 f8 60 cc 40 00 00 00 00 00 00 00 00 00 00 00 00
       6.386837 0.0 0.0 0.0
000230 00 00 00 00 be c0 59 41 16 fb 6d 41 39 44 95 41
       0.0 13.609556 14.8738 18.658312
000240 22 6e 80 41 02 0c 8b 41 47 e7 91 40 26 25 d2 41
       16.053776 17.380863 4.559482 26.268139
000250 7c 1f 4f 42 84 7b 88 42 76 c2 90 42 50 fa 88 42
       51.780746 68.24124 72.37981 68.48889
000260 5b 53 05 42 9c 24 93 41 d6 bb 87 41 d4 7f 8b 41
       33.3314 18.392876 16.966717 17.437416
000270 18 c4 b6 41 9d 5c 18 42 4c 45 52 42 9e 28 64 42
       22.845749 38.090443 52.567673 57.039665
000280 1e 34 5c 42 62 82 2d 42 8d 94 0c 42 1f a7 95 41
       55.050896 43.377327 35.14507 18.706602
000290 5a 48 5c 42 2c 6e 80 42 e9 33 24 42 e6 f4 e3 41
       55.070656 64.21518 41.050694 28.49458
0002a0 04 7e 0a 42 40 5b a5 41 bf eb 0f 42 1c fc 06 42
       34.623062 20.669556 35.98022 33.7462
0002b0 36 ef 1d 42 95 ba 07 42 b2 7a a7 c0 92 d3 4b c2
       39.483604 33.93221 -5.2337275 -50.95661
0002c0 a0 2a 17 c2 77 18 82 c1 ce 2b 51 c1 63 53 8a c1
       -37.791626 -16.261946 -13.0731945 -17.290716
0002d0 36 76 d6 40 f4 42 73 41 1e b1 47 41 de 9c b3 40
       6.70193 15.203846 12.4807415 5.612899
0002e0 00 00 00 00 00 00 00 00 00 00 00 00 00 00 00 00
       0.0 0.0 0.0 0.0
0002f0 43 c8 1c 40 e1 70 a2 c1 07 20 2f c2 3e 14 35 c2
       2.449723 -20.305117 -43.781277 -45.269768
000300 26 4b 0d c2 04 f8 ce c1 6a f5 30 c2 b2 6d fc c1
       -35.323387 -25.871101 -44.239662 -31.553562
000310 86 40 0c c2 25 38 2f c2 64 26 04 c2 08 56 58 c1
       -35.06301 -43.80483 -33.03749 -13.521004
000320 50 b1 10 bd 66 3d 26 41 9e 82 6e c1 59 b1 b7 c1
       -0.03532535 10.38999 -14.906889 -22.961596
000330 1e 98 ee c1 5a a5 05 c2 94 a8 d5 c1 ec 13 e2 c1
       -29.824276 -33.411476 -26.707314 -28.259727
000340 18 a0 37 c2 a2 09 60 c2 39 04 69 c2 70 88 e5 c2
       -45.90634 -56.009407 -58.254124 -114.76648
000350 1e 7e fd c2 86 e4 9e c2 28 b0 b6 c1 6c 7b 4f 40
       -126.74632 -79.446335 -22.836014 3.241908
000360 55 b9 0d c0 d8 ec 05 41 72 42 06 c1 5a 40 3b c2
       -2.2144368 8.370323 -8.391222 -46.812843
000370 d8 f3 3d c2 0d 39 ed c1 f4 2b 11 c2 4a 8f 11 c2
       -47.48813 -29.652857 -36.292923 -36.38993
000380 13 0e db c1 dc 5a a0 c1 34 a5 c3 c0 e6 fc 70 3f
       -27.381872 -20.044365 -6.1139164 0.9413589
000390 8e b2 18 41 48 0f 20 41 b0 eb 92 40 00 00 00 00
       9.543592 10.003731 4.5912704 0.0
0003a0 00 00 00 00 00 00 00 00 00 00 00 00 d8 c8 6a c1
       0.0 0.0 0.0 -14.674034
0003b0 82 81 a5 c0 41 b2 27 bf fe 78 19 41 05 7d 80 41
       -5.172059 -0.6550637 9.592039 16.061045
0003c0 9a f9 78 41 96 11 5d 41 ca bd 14 40 79 77 06 c1
       15.560938 13.816793 2.3240838 -8.404168
0003d0 62 09 53 c1 30 6f ce bf d5 68 0b 41 b7 19 5d 41
       -13.189791 -1.6127682 8.713094 13.818778
0003e0 81 f6 87 41 45 72 60 41 b4 7f 27 41 84 80 ca 40
       16.995363 14.027898 10.4686775 6.328188
0003f0 33 a5 12 c1 56 83 a1 c1 7a 36 c4 40 d0 92 99 41
       -9.165332 -20.189129 6.13165 19.196686
