data/output_mfcc/b93e6f824f34d7ee37b4d2023c3a8bbf_seg0.npy (npy, 7460 bytes, 1 tensors)

array f4 [39, 47]
-742.8059 -733.89795 -651.34827 -441.48892 -311.1142 -303.36063 -330.42978 -297.7927
-278.20248 -330.7002 -330.5129 -276.61996 -210.7617 -199.61873 -181.94344 -165.76573
-212.99951 -262.57678 -266.12155 -240.39792 -270.85043 -363.5921 -376.66284 -270.8099
-272.36624 -341.62112 -376.2986 -314.5936 -297.90106 -344.43347 -402.35248 -378.4088
-313.5369 -270.5144 -264.22443 -267.4864 -256.19525 -280.41367 -312.62216 -366.06796
-405.3635 -469.88797 -586.5216 -681.88403 -718.4213 -735.89825 -741.65796 2.8822684
15.005754 116.91977 160.8363 147.47559 131.73929 33.286217 -22.83184 34.50537
147.05182 207.9046 205.42917 130.74155 61.525696 55.08914 105.43204 144.11249
148.45177 140.29288 89.89493 45.230377 1.7175381 66.55855 139.21365 179.71588
207.74538 174.70221 96.30743 78.239075 82.17673 85.64166 156.81805 199.43051
171.96954 109.22713 60.044586 92.97986 139.55424 144.17853 140.30856 127.72959
141.26906 118.848114 69.34912 32.96572 12.252121 4.4378033 2.8439298 13.595499
81.41329 9.925468 -7.4607077 1.225895 34.38124 -8.684915 1.7786021 16.732939
1.2094461 -21.45037 0.1436068 10.188769 -0.53072643 -26.325134 -63.990845 -53.07405
-33.109386 7.785019 27.793129 27.360245 12.5689535 -3.2705064 -25.883472 -49.89584
-9.745703 -13.231136 -29.272255 -3.4262016 44.527325 94.34788 30.894331 8.851066
0.16636926 -3.8994207 -2.3323925 -26.53492 -34.527267 -21.105942 -21.246906 -21.807526
-4.606123 27.267742 21.922298 11.107899 4.203207 2.782744 11.411184 46.27037
57.345276 69.02791 71.472626 72.55054 56.618935 46.299652 23.31491 18.868462
14.616545 -5.7438917 18.565916 28.00631 25.274632 59.428005 80.95452 66.992905
26.770206 17.75179 14.428002 12.765936 11.175357 19.36766 34.143265 43.541153
58.099625 27.29198 -9.053131 -18.321701 32.297024 42.283806 16.032267 14.033687
38.48491 27.941103 17.713121 23.211956 41.495693 47.794975 30.435726 -13.889555
-5.3587055 9.562583 9.470208 3.8379717 2.7024233 8.679702 23.33805 6.805623
-13.357276 -11.076199 20.601109 29.417126 32.582222 -0.9165615 -62.607964 -76.91158
-47.037636 -21.792088 -1.909811 -6.257181 -19.803127 -30.917503 -31.957684 -7.7122846
6.832634 8.608313 -10.087362 -15.32055 -12.722651 -15.720444 -11.314075 -10.136942
-25.608517 -48.49095 -67.81523 -80.6359 -89.01845 -58.918934 -21.21753 -1.3157307
-8.521807 -9.170822 -11.638273 -10.021651 2.405409 -2.8718252 -12.971683 -13.832428
1.2514745 7.6309605 3.3775978 2.6075523 5.677499 10.783525 8.166456 2.9516637
-4.2895355 -30.121658 -32.354774 -14.434406 -11.606363 -4.7231426 -2.3459363 -8.674539
-11.158184 -13.153835 -20.108044 -21.714819 -25.936298 -17.36539 -8.295445 -5.2012672
00000000: 94b3 39c4 7879 37c4 4ad6 22c4 95be dcc3
00000010: 9e8e 9bc3 29ae 97c3 0337 a5c3 77e5 94c3
00000020: eb19 8bc3 a059 a5c3 a741 a5c3 5b4f 8ac3
00000030: ffc2 52c3 659e 47c3 85f1 35c3 07c4 25c3
00000040: e0ff 54c3 d449 83c3 8f0f 85c3 de65 70c3
00000050: db6c 87c3 cacb b5c3 d854 bcc3 ab67 87c3
00000060: e12e 88c3 81cf aac3 3926 bcc3 fb4b 9dc3
00000070: 56f3 94c3 7c37 acc3 1e2d c9c3 5434 bdc3
00000080: b9c4 9cc3 d841 87c3 ba1c 84c3 42be 85c3
00000090: fe18 80c3 f334 8cc3 a34f 9cc3 b308 b7c3
000000a0: 87ae cac3 a9f1 eac3 62a1 12c4 9478 2ac4
000000b0: f79a 33c4 7df9 37c4 1c6a 39c4 1677 3840
000000c0: 9217 7041 ecd6 e942 18d6 2043 c079 1343
000000d0: 42bd 0343 1625 0542 9ca7 b6c1 8005 0a42
000000e0: 440d 1343 94e7 4f43 de6d 4d43 d6bd 0243
000000f0: 501a 7642 485b 5c42 34dd d242 cc1c 1043
00000100: a773 1443 fa4a 0c43 34ca b342 e8eb 3442
00000110: 4ad8 db3f fa1d 8542 b236 0b43 44b7 3343
00000120: d1be 4f43 c4b3 2e43 679d c042 687a 9c42
00000130: 7c5a a442 8848 ab42 6cd1 1c43 366e 4743
00000140: 34f8 2b43 4a74 da42 a82d 7042 b0f5 b942
00000150: e38d 0b43 b42d 1043 fe4e 0c43 8d75 ff42
00000160: e144 0d43 3cb2 ed42 c0b2 8a42 e6dc 0342
00000170: b008 4441 7c02 8e40 f202 3640 2a87 5941
00000180: 9bd3 a242 b8ce 1e41 1ebe eec0 21ea 9c3f
00000190: 6486 0942 69f5 0ac1 3ca9 e33f 0fdd 8541
000001a0: 21cf 9a3f 5c9a abc1 a90d 133e 3305 2341
000001b0: b0dd 07bf e099 d2c1 a0f6 7fc2 d44b 54c2
000001c0: 0370 04c2 e01e f940 5458 de41 c8e1 da41
000001d0: 6f1a 4941 fa4f 51c0 5a11 cfc1 5795 47c2
000001e0: 66ee 1bc1 bcb2 53c1 942d eac1 e346 5bc0
000001f0: fb1b 3242 1db2 bc42 9727 f741 f79d 0d41
00000200: b45c 2a3e 1c90 79c0 eb45 15c0 8447 d4c1
00000210: ec1b 0ac2 f8d8 a8c1 aaf9 a9c1 d075 aec1
00000220: 5c65 93c0 5624 da41 de60 af41 f4b9 3141
00000230: ac80 8640 7a18 3240 3694 3641 dc14 3942
00000240: 9061 6542 4a0e 8a42 fcf1 8e42 e019 9142
00000250: ca79 6242 d832 3942 f084 ba41 9cf2 9641
00000260: 5edd 6941 f6cd b7c0 ff86 9441 ec0c e041
00000270: 7232 ca41 47b6 6d42 b7e8 a142 5efc 8542
00000280: 6229 d641 aa03 8e41 19d9 6641 4641 4c41
00000290: 43ce 3241 f8f0 9a41 b492 0842 242a 2e42
000002a0: 0466 6842 fa55 da41 a0d9 10c1 d892 92c1
000002b0: 2730 0142 9e22 2942 1542 8041 fb89 6041
000002c0: 8cf0 1942 6187 df41 79b4 8d41 16b2 b941
000002d0: 97fb 2542 0e2e 3f42 5e7c f341 9e3b 5ec1
000002e0: 847a abc0 5700 1941 f985 1741 54a1 7540
000002f0: 81f4 2c40 0fe0 0a41 54b4 ba41 aac7 d940
00000300: 67b7 55c1 1c38 31c1 12cf a441 4656 eb41
00000310: 3254 0242 c6a3 6abf 8e6e 7ac2 bbd2 99c2
00000320: 8a26 3cc2 3256 aec1 b074 f4bf d43a c8c0
00000330: ce6c 9ec1 0c57 f7c1 56a9 ffc1 09cb f6c0
00000340: f0a4 da40 a6bb 0941 d665 21c1 f920 75c1
00000350: fa8f 4bc1 f086 7bc1 7406 35c1 ea30 22c1
00000360: 3ede ccc1 bcf6 41c2 66a1 87c2 9545 a1c2
00000370: 7209 b2c2 fdac 6bc2 80bd a9c1 dd69 a8bf
00000380: 5259 08c1 b0bb 12c1 5e36 3ac1 af58 20c1
00000390: 39f2 1940 fccb 37c0 038c 4fc1 a051 5dc1
000003a0: 5130 a03f d430 f440 902a 5840 23e2 2640
000003b0: 12ae b540 5289 2c41 cea9 0241 0fe8 3c40
000003c0: e043 89c0 28f9 f0c1 4a6b 01c2 54f3 66c1
000003d0: aab3 39c1 fc23 97c0 d223 16c0 e9ca 0ac1
000003e0: ec87 32c1 1c76 52c1 46dd a0c1 f3b7 adc1
000003f0: 8a7d cfc1 52ec 8ac1 25ba 04c1 c870 a6c0
