checkpoints/best_model.bin (torch, 773730 bytes, 22 tensors)

conv_layers.0.weight f4 [16, 1, 3, 5]
00000000: e47d 7fbd 3a5a 803e 752e b1bd aa0a 2bbd
00000010: 4990 dcbd 86cc 393e 3ccd 4e3e 94d2 543e
00000020: a53c 323e d492 ca3e 8189 7cbd ddf0 10be
00000030: e207 07be d1a4 223e 4c3f ab3c 2da1 a33d
00000040: f5bc 77be 470d 78bc 0dba a8bd 3303 813e
00000050: 8d69 22be 832d 883e 227c 793e 6b99 453d
00000060: d30e 85be 49e3 82be 0786 56be bc96 fd3d
00000070: c6b8 cebd 5a65 2ebe cc01 e33d 4fde 8bbe
00000080: fb85 e63d f97f 183e 5456 8a3c 0106 ab3d
00000090: be6d 82bc b375 d13d ba33 dd3d f210 86be
000000a0: 47e3 0ebe cc9e 773e 13cc 903e 2ba6 25be
000000b0: 2d26 1d3d 0114 50be 635a 82be b052 253e
000000c0: 3948 eb3b 9793 1a3e 9e60 8fbe 622e b23d
000000d0: c0c6 b2bd a80f 9f3d 9180 1a3e 7385 e7bc
000000e0: e942 ec3d c792 653e 8ddf b33d 0d27 3dbe
000000f0: fc9c adbc 7134 81bd a893 693e 6cab dd3c
00000100: 61ad 913e a12f 4b3e 2531 1e3e c1bc b6bd
00000110: 29fd 103e 63d5 54bd 3233 f23d 0d37 4cbe
00000120: ef4b 9dbe ff34 71bc 4a5f f4bc d44e 95bd
00000130: c2d4 9bbd b8c4 703e 4890 28be e05a 803e
00000140: a102 95bd fa75 49bb 2b12 b83e 0ed0 38be
00000150: 84fa 76bc 45a9 83be 3434 05be 3000 073c
00000160: 5e13 473e eeac ab3e 7c9d 09be 0f84 05be
00000170: 64ef 1ebd b4c5 c13e 3f48 d4bd 5d89 5a3c
00000180: 7ea2 0b3e 9db8 073e ef7b 1c3c 8c60 7a3c
00000190: feb8 e1bd 4d9d 373e 5ea8 4d3e bc92 9e3d
000001a0: 37d8 f83d 3a45 3cbe 3ac2 37be 1ae7 a33d
000001b0: b7aa bf3d 9937 e13d 9268 043e a406 3bbe
000001c0: 1fcb 30bd 3cda 40be 007c 363e a098 4fbe
000001d0: c611 83be bc69 70be 65a5 8ebd 9ec8 203e
000001e0: d7e1 893e ec4e 293e 8eb2 52be 7971 a0bd
000001f0: 8930 b4be 605a 5fbe d36f dc3d 03ef d53b
00000200: 3c1f 01bd 888d 6bbd bb44 5dbd 5abb 93bd
00000210: 5aed 2b3e 1f43 01bd 9f01 a0bd 57fc 343e
00000220: 4c79 5d3c 5fa6 4a3e 697c 56be ff38 69be
00000230: 32c6 163e 397d 61be ad4d d3bc 1f60 51be
00000240: 7d70 683e 8b0a be3d 4589 c2be 44c6 30be
00000250: b7b3 9cbd 1697 33be 38c7 95bd df2c 1ebe
00000260: a25b d3bd 1a94 6abc ca6a 783d c424 54bd
00000270: 2f6a 88be 421b d83d 4d89 61be 91c5 293e
00000280: 4a97 17be 7f95 b23d 1067 aebe 21cd 81be
00000290: 27f6 b0be 15af 8c3e 90fd 993e d595 e73c
000002a0: 4b30 123e 8603 7cbe 17d8 ecbd 236e 683e
000002b0: 0724 af3d aa65 213c de8e 15be ccb7 8ebe
000002c0: 908b 68bd 9b6b 473d faf8 fd3d 4d7b 51bd
000002d0: aa7e 02be 73c7 52be 1819 0b3e 67d8 6fbd
000002e0: f4d3 523e 45eb 153e 33d9 643e e7be 39be
000002f0: 2e5a 033e e77d 69be dd1e 96be 8d81 49be
00000300: a0a6 583e c21a 8c3e 8cee bd3d 9bcb 633e
00000310: d9ba 2ebe ed7c 5d3e ec35 0cbe 4299 0dbe
00000320: c862 a03d b562 3b3e f10b f03c 5664 9fbc
00000330: 15d6 ef3d 4d80 debd bfe6 b03b 6365 b53e
00000340: 7392 6a3e d21f 58be a50b f5bd bb60 cc3d
00000350: 5752 ea3c aab3 c53d 0a76 69be 5ad1 8fba
00000360: 1211 5a3e e952 e23b 5c18 9b3e 1522 c43d
00000370: 0573 8c3d 8c4e c3bd 0af5 9abe 4482 54bc
00000380: c4b2 37be 28af 633d 82a1 e4bd e740 78be
00000390: d7b0 e53d 47a2 ad3e 3df0 153d 211e 2bbe
000003a0: 9776 0fbd 4e8d adbd ac3a 803e fd3d 3d3d
000003b0: 3658 adbd af4d cd3d 9697 58bd 93fb 37bc
-0.062375918 0.25068837 -0.08651439 -0.041758217 -0.10769708 0.18144426 0.20195478 0.20783454
0.17405947 0.39565146 -0.06165457 -0.14154382 -0.13186601 0.15883185 0.020904206 0.07989726
-0.24193175 -0.015139884 -0.08238611 0.25197753 -0.15860577 0.26597223 0.24363759 0.048242014
-0.25987872 -0.2556403 -0.20949565 0.12382266 -0.100938365 -0.1703085 0.11084327 -0.27318045
0.112560235 0.14892568 0.016886868 0.083507545 -0.01592147 0.102275275 0.10800882 -0.26184803
-0.13953887 0.2418167 0.28280696 -0.1617667 0.038366485 -0.20320131 -0.25459585 0.16144824
0.0071802405 0.15095364 -0.280034 0.08700253 -0.08729315 0.07766658 0.15088107 -0.028261876
0.115361996 0.22419272 0.08782873 -0.18471928 -0.02119302 -0.063088305 0.22810233 0.02705928
0.2845259 0.19842388 0.15448435 -0.08922721 0.14159073 -0.051961314 0.11826171 -0.19942875
-0.30721995 -0.014722108 -0.029830594 -0.07290426 -0.0760894 0.23512542 -0.16461289 0.25069332
-0.07275892 -0.0030740486 0.3595136 -0.18048117 -0.015074376 -0.2571508 -0.13008195 0.008239791
0.19440982 0.33530372 -0.13438982 -0.13038658 -0.03880252 0.37846148 -0.10365342 0.013338414
0.13636205 0.13254018 0.009551032 0.015281808 -0.110216126 0.17931099 0.20083758 0.07742831
0.12150615 -0.18385783 -0.17945185 0.080030635 0.09358733 0.109969325 0.12930515 -0.18264252
-0.04316246 -0.1883325 0.1782074 -0.20273066 -0.25599498 -0.23477834 -0.0696514 0.1570153
0.26930115 0.16534013 -0.20575926 -0.07834143 -0.3519328 -0.21811819 0.10763516 0.0065287366
-0.031523928 -0.05750802 -0.054020625 -0.07213469 0.16789761 -0.031558152 -0.07812809 0.17674385
0.013517689 0.19790028 -0.20945896 -0.22775649 0.14724043 -0.22020425 -0.025793875 -0.20446824
0.22699161 0.09279355 -0.37995353 -0.17263132 -0.076514654 -0.17538103 -0.073133886 -0.15446804
-0.10320212 -0.014317537 0.060648717 -0.051792875 -0.26643512 0.10552074 -0.22025032 0.16579272
-0.14803806 0.0871992 -0.34063005 -0.25351813 -0.345628 0.27477327 0.30076265 0.028269688
0.14276235 -0.24610719 -0.11564653 0.22698264 0.085517935 0.009850899 -0.14605281 -0.278746
-0.056773722 0.048686605 0.12401004 -0.05114298 -0.12743631 -0.20583896 0.13583791 -0.058555987
0.20588666 0.1464053 0.2234848 -0.1813923 0.1282737 -0.22801934 -0.29320422 -0.19678326
0.21157312 0.27364165 0.09274015 0.22245638 -0.17063464 0.21629687 -0.13692445 -0.13827994
0.07831341 0.18299372 0.02930257 -0.019457024 0.11710755 -0.10864315 0.005398601 0.35428914
0.22907428 -0.21105888 -0.11965112 0.099793874 0.028603716 0.09653409 -0.22798935 -0.0010972426
0.21295574 0.0069068563 0.30292022 0.09576813 0.06857876 -0.09536466 -0.30265075 -0.012970511
-0.17939287 0.055586964 -0.11163618 -0.24243508 0.1121537 0.3391287 0.036606062 -0.16710712
-0.035025205 -0.08474217 0.25044763 0.046201695 -0.084640905 0.100245826 -0.05287894 -0.011229414

conv_layers.0.bias f4 [16]
00000000: 53a4 bcb5 9ed5 ce36 d64c 2532 1590 74b5
00000010: c491 0d36 e689 20b5 830f 93b6 9a4d 8136
00000020: d22e b3b5 e222 29b6 e44f 2b36 23db 7d36
00000030: 8d1e 31b6 0496 a033 0d33 4a35 6215 fe36
-1.4054916e-06 6.1641467e-06 9.6217345e-09 -9.110675e-07 2.1095484e-06 -5.9805313e-07 -4.382747e-06 3.8535336e-06
-1.3350166e-06 -2.5203267e-06 2.5527488e-06 3.7827492e-06 -2.6392838e-06 7.477868e-08 7.532515e-07 7.572279e-06

conv_layers.1.weight f4 [16]
00000000: 0cc7 453f 3ff0 833f fcaf 843f 8da0 793f
00000010: 018b 883f ca09 7d3f d3cf 7e3f 6597 7a3f
00000020: 5148 523f 99b4 803f 751b 653f 0b72 873f
00000030: c39d 803f b156 653f 042b 653f f626 8d3f
0.77256846 1.0307692 1.0366206 0.97510606 1.0667421 0.9884306 0.99535865 0.9788726
0.82141596 1.0055114 0.8949502 1.0581678 1.0048145 0.89585406 0.8951876 1.1027515

conv_layers.1.bias f4 [16]
00000000: 9f03 2e3d 74e7 923d dcbe a23d 6e69 37bd
00000010: 06e9 423d dff8 abbd ffce 0b3e 1076 8ebe
00000020: b0f6 85bd 7c9d d93d 8a18 14be 498b 51bc
00000030: dbf3 673d 74fe f43d 9e39 d03c a966 103e
0.042483922 0.071730524 0.0794656 -0.04477828 0.04758551 -0.08397078 0.13653181 -0.2782445
-0.065411925 0.10625741 -0.14462486 -0.012789556 0.056629043 0.119625956 0.025418099 0.14101662

conv_layers.1.running_mean f4 [16]
00000000: 7713 3fc1 109a 03c0 7a52 92bf 578a 0c40
00000010: cbea 11c1 3338 2fc0 d232 25c0 3b40 c73f
00000020: f126 8840 af92 2a3f a110 9f40 3986 cbc0
00000030: b2ff b2be 133f 6ec0 426a bbc0 300c b6bf
-11.942252 -2.0562782 -1.143142 2.1959436 -9.1198225 -2.7378051 -2.5812268 1.5566477
4.2547536 0.6663007 4.97078 -6.3601346 -0.34960705 -3.7225997 -5.856721 -1.4222469

conv_layers.1.running_var f4 [16]
00000000: 4d38 1c46 2998 1144 a86a 3f43 5dd6 ad43
00000010: 1ddd 1a45 dd0c b443 9b0f 2944 9810 a343
00000020: 67aa 3544 a516 b243 ddc6 9144 db7e fa44
00000030: 9136 8943 7b12 7b44 4b55 6545 9842 8f43
9998.075 582.3775 191.41663 347.6747 2477.8196 360.1005 676.24384 326.12964
726.66254 356.1769 1166.2145 2003.9642 274.4263 1004.28876 3669.3308 286.52026

conv_layers.4.weight f4 [32, 16, 3, 5]
00000000: b77f f6bc 4ac3 113c 66a9 ec3d 5f7d 973b
00000010: 1709 953d 17f0 bc3c acbf 273d 1bd0 26bd
00000020: 5d99 cdbd 4bea 96bd ed83 b3bc 826a b73d
00000030: 78fb 153e 7afb 273e 5706 4f3e 0b3c a4bc
00000040: efdf 673c 8758 873d 4180 153e 15f8 84bd
00000050: caa4 143c 8d9a d73a 1abd c83c 1452 703c
00000060: d2a3 d9bd 1aff 00be a520 a2bd af41 83bd
00000070: aee2 08bd faf1 fc3c 0569 6abd b745 8d3d
00000080: 25bf 8b3d 0c06 9cbd 85a5 52bd 9d9c 86bd
00000090: 271f 3a3e 5215 f93d fb95 2dbd 4304 45bc
000000a0: 6bfd c5ba 5635 da3d 4c5b cb3c ad88 bb3c
000000b0: d720 56be aab3 8c3c b101 9dbb 3888 773d
000000c0: 5bb2 2ebe 215c bdbd 273f 1d3d c410 703d
000000d0: 648f 86bc 3dbd 8cbc 3a93 15bc a8b2 3abd
000000e0: b423 84bc b0ca 93bc 6a2a 613d 9f2b 23bc
000000f0: f43f 473c 0153 c4bd 2d41 bbbc df4b fb3d
00000100: 1f7e 063d 90cd 7bbc a1d3 283d 6e92 10bc
00000110: 3140 d9bd 1cc3 20be 60db 8e3d 8c03 58bd
00000120: 6726 5ebc 836d 933c 368a 13bd 5df3 113c
00000130: f243 5a3d 4c7b 2bbd f98d 02bc 7744 c73b
00000140: a3f2 c93d 5469 003e f1a5 163d a5ca 25bc
00000150: f476 1ebd 3dac 3e3e d81e 8a3d ea76 f43d
00000160: 8bcc 9c3c 5dcf 5b3d 9cf6 0cbd b767 a33d
00000170: c299 6f3d 91d5 27bd 5f53 323c 50fe 6cbb
00000180: 6d0b 253e 3131 14bd 2b30 43bd e4b4 183d
00000190: c465 c33d 3725 953d d444 6abd 1ff4 fb3a
000001a0: 952f ed3d 5247 0f3e 2785 4a3d 210d 743c
000001b0: eaf1 613d 3723 f7bd 6404 843d 21d7 123d
000001c0: 7ce6 413d 7acf 663e dbb1 de3d 66a9 8c3c
000001d0: d079 b1bd b8dd 263e 6d61 1c3e e52b 0c3d
000001e0: ece7 d6bc 65f5 2dbd 3217 23be 4132 5e3c
000001f0: 8164 46bd 950e 8e3d 84b7 70bc 17a9 03bd
00000200: 1799 57bd c2b3 83bd 5abe 68bd 1466 023e
00000210: af56 9d3d 148d dbbd b1c7 cabd 5fa8 af3d
00000220: 932c 60bd 7d3f 483d bd5f a5bc 01e4 8ebd
00000230: 3cd6 00be 81ae 50bd 4c20 11bc b31b 243c
00000240: 8ab2 afbd 4b53 193d 7289 d03d 901f 133e
00000250: c713 5f3d f3ea d2bd 76c8 e33d a8af ed3c
00000260: c6e9 c73d a0de 823c 7233 26be a5a0 9abc
00000270: 938c 5e3b e8bf 023e 6416 ec3c a3b8 b33c
00000280: b4df b0bb 634c 973d 6ba3 3d3e 57a5 843d
00000290: 1766 d5bd 9757 bbbd 4b40 b9bc f395 dbbc
000002a0: d7d8 93bd b957 34bd 7f5d 64be 13d8 9bbd
000002b0: 2da1 34bd f3ee ee3c 0d4f a53c b6df 343c
000002c0: da87 533d 53d9 883c deed 15be 58ce 413d
000002d0: 43e4 54bd 2f4d 553d 1fbc 39bd 0f36 393b
000002e0: b3cf 22bd 126b 60bd 281c 9a3c 3abc 83bd
000002f0: ea8a 9cbd 9755 5dbd 4dac 0f3e 12f0 803d
00000300: 1423 783d 8c0c de3c 20c8 173e b0e1 dabc
00000310: b250 803c 8fa2 383b 3034 c8bc f023 59bd
00000320: 166b 053e c6ae 3f3d 4bca 2bbd 2af2 24be
00000330: ad46 88bd ea92 17bc 5f15 d3bc 1401 b33c
00000340: f4ae c1bd ccc4 a73b 299e b2bb 1571 cd3d
00000350: 20fe bf3d 32a4 c03d 4090 3a3d 519f 61bd
00000360: 1b41 c33d 3a32 f8bc edb7 d8bd b12f 1fbd
00000370: 87d7 cf3c f7b1 413e ecf1 1b3e 82b5 0f3e
00000380: 0575 c73c b689 6ebd a569 aebb 0001 92bd
00000390: 1fdd 92bd 9a05 16be e1f6 403e 21e2 bd3d
000003a0: 9b3b 0e3e cacf f83d 742b 97bd 245f 9fbd
000003b0: ab52 0fbe 5a84 31be d09d 093d a104 493d
000003c0: 8073 b83b 73c1 b03d 9661 1bbd ea2a ec3c
000003d0: c4eb 583c 657b e7bc 83b7 6a3d 5117 15bd
000003e0: a077 81bd faca 9fbc 8d14 a4bc 1414 dc3d
000003f0: 1e45 20be 458e 57be 99bb b6bd dbc3 f8bc
-0.030090196 0.008896658 0.11555748 0.0046230997 0.072771244 0.023063703 0.040954277 -0.04072581
-0.10039017 -0.073689066 -0.021913493 0.08955862 0.14646709 0.16404524 0.20217262 -0.020048162
0.014152511 0.06608682 0.14599706 -0.064926304 0.009072492 0.0016449258 0.024504233 0.014668006
-0.10626949 -0.12597314 -0.07916383 -0.064090125 -0.033419304 0.030877102 -0.05722906 0.06898063
0.06823567 -0.07618341 -0.051427383 -0.0657284 0.18175946 0.1216227 -0.04237936 -0.012024942
-0.0015105432 0.10654704 0.024823807 0.02289232 -0.20910965 0.017175514 -0.0047914614 0.060432643
-0.17060225 -0.09246088 0.038390305 0.05860974 -0.016425796 -0.01718008 -0.00912934 -0.045580536
-0.016130306 -0.018040985 0.05497209 -0.009959131 0.012161244 -0.09586144 -0.022858227 0.12270331
0.032835122 -0.015368834 0.04121745 -0.008823974 -0.10607947 -0.15699428 0.06975436 -0.052737758
-0.0135589605 0.017996555 -0.03602048 0.00890812 0.053287454 -0.041865632 -0.007968419 0.0060811597
0.098607324 0.1254018 0.036779348 -0.010119115 -0.03868766 0.18620391 0.06744164 0.119367436
0.019140502 0.053664554 -0.034414873 0.079787664 0.058496244 -0.040975157 0.010884135 -0.0036162324
0.1611764 -0.036179725 -0.04765336 0.037281886 0.09540895 0.07282489 -0.057194546 0.0019222534
0.11581341 0.1399205 0.04944339 0.014895708 0.055162348 -0.120672636 0.0644615 0.035849694
0.047338948 0.22540084 0.10873767 0.01717062 -0.08665812 0.16295516 0.1527154 0.03422155
-0.026233636 -0.042470355 -0.15926817 0.013561786 -0.04843569 0.06936375 -0.014692191 -0.03214368
-0.052636232 -0.064307705 -0.05682216 0.12734252 0.07682549 -0.10720268 -0.09901369 0.08577036
-0.05473001 0.048888672 -0.020187253 -0.06977082 -0.12581724 -0.05094767 -0.008857798 0.01001637
-0.085789755 0.03743295 0.101824656 0.14367509 0.05446222 -0.10298719 0.11122219 0.029014423
0.097613856 0.015975296 -0.16230562 -0.01887543 0.00339583 0.12768519 0.02881927 0.021938628
-0.0053977612 0.073876165 0.1851937 0.064768486 -0.10419863 -0.09147566 -0.022613665 -0.0268049
-0.07219093 -0.04402897 -0.22301291 -0.07609572 -0.04409902 0.029166674 0.020179296 0.011039665
0.05164323 0.01670519 -0.1464152 0.047315925 -0.0519755 0.05207556 -0.045345422 0.0028260981
-0.03974886 -0.05478961 0.018812254 -0.06432386 -0.07643683 -0.054036703 0.14030571 0.0629579
0.060580328 0.027105592 0.14822435 -0.026718944 0.015663479 0.0028173064 -0.024438947 -0.05301279
0.13029131 0.046797536 -0.04194097 -0.16108003 -0.06654105 -0.009251336 -0.025767026 0.0218511
-0.09457198 0.0051198956 -0.005450983 0.10031334 0.09374642 0.09406318 0.045547724 -0.055083577
0.09533902 -0.030297387 -0.10581956 -0.03886384 0.025371326 0.18915544 0.15229005 0.14034083
0.024347791 -0.0582368 -0.0053226524 -0.07129097 -0.07171082 -0.14650574 0.18844177 0.09271646
0.13889925 0.121490076 -0.07381335 -0.077818185 -0.13996379 -0.17335644 0.033597767 0.04907668
0.005629003 0.086306475 -0.037934862 0.028829057 0.013239805 -0.028257081 0.057303917 -0.03639919
-0.06321645 -0.019505966 -0.02002933 0.10746017 -0.15651366 -0.21050365 -0.089225 -0.030366829

conv_layers.4.bias f4 [32]
00000000: 3dfb 4d38 a70a f6b7 9525 2f38 396f 6cb7
00000010: 9034 7437 b26e 9938 76d0 d136 f216 0ab7
00000020: cf0d f538 9aa8 85b7 9eb0 35b8 6dc2 af37
00000030: 3df0 ecb6 21c1 1238 b19d 62b5 9ca3 6db8
00000040: 41c0 f536 b9ff de36 3ba3 92b8 24da 80b7
00000050: bf46 6ab8 2e53 0338 2fc3 1b38 3879 0336
00000060: dffe 00b8 5aaa 1bb7 c8e8 1438 a192 3139
00000070: 0f71 7d38 4e49 a038 9b00 8738 9e6c beb6
4.9109793e-05 -2.9330446e-05 4.1758252e-05 -1.4092592e-05 1.45557715e-05 7.316227e-05 6.2529534e-06 -8.230783e-06
0.000116850824 -1.5933347e-05 -4.331825e-05 2.0952162e-05 -7.0613155e-06 3.4988978e-05 -8.442103e-07 -5.6657576e-05
7.3239503e-06 6.6458856e-06 -6.9922266e-05 -1.5360369e-05 -5.5855835e-05 3.13103e-05 3.713666e-05 1.959108e-06
-3.0754945e-05 -9.278383e-06 3.5502744e-05 0.00016934659 6.0425195e-05 7.6430486e-05 6.4374144e-05 -5.675086e-06

conv_layers.5.weight f4 [32]
00000000: 9491 563f 9dce 8f3f a7c6 883f 9dc1 6e3f
00000010: f091 2b3f 74d1 753f 9e61 5e3f ab84 923f
00000020: 6c56 873f aba3 2a3f d1c8 853f 8182 8c3f
00000030: 5b42 8d3f 55ae 603f e719 873f f6d0 853f
00000040: 8cc3 543f 593f 503f 0535 853f 1966 513f
00000050: a977 853f cde9 863f 5ae4 853f 472b 693f
00000060: 8575 663f b2eb 883f dcbc 833f 4642 893f
00000070: 9926 853f 10c8 8b3f e1c6 7d3f eb6b 6a3f
0.83815885 1.1234928 1.0685624 0.9326418 0.6701956 0.96022725 0.868677 1.1446737
1.0573249 0.6665599 1.0451909 1.0977327 1.1035875 0.8776601 1.055478 1.0454395
0.8311088 0.8134666 1.0406805 0.81796414 1.0427142 1.05401 1.0460312 0.9108166
0.9002307 1.0696929 1.029201 1.072335 1.0402404 1.0920429 0.9913159 0.9157092

conv_layers.5.bias f4 [32]
00000000: b163 3bbe da42 ccbd 22f6 183c 96b2 883c
00000010: 4c31 75be 868d 8f3c 97f3 75be a68e 41be
00000020: f895 033e ef2d 82be 45c1 bb3d 37c9 3ebd
00000030: 6a95 dbbd d73d 11be 3d35 e7bc c8eb 5bbd
00000040: a8cc 28be 27e0 95bd 4330 8abe a6f6 883c
00000050: a328 733c 9485 8cbd 1c69 88bc a823 e4bd
00000060: 95c7 77bd b7eb eb3d 9a62 c53d 2bbb 50bd
00000070: 7d73 af3d 04b3 7dbc c4c2 463e 6276 833c
-0.18299748 -0.099736884 0.009336026 0.016686719 -0.23944587 0.017523538 -0.24018703 -0.18902072
0.12850177 -0.2542567 0.091677226 -0.046578612 -0.10721858 -0.14183746 -0.028223628 -0.053691655
-0.1648432 -0.07318144 -0.26989946 0.016719174 0.0148412315 -0.068614155 -0.016651683 -0.111396134
-0.06049307 0.115195684 0.096379474 -0.050959747 0.085669495 -0.015484575 0.19410235 0.01604766

conv_layers.5.running_mean f4 [32]
00000000: 5bbb 903e f120 74bf 6c54 a1bf 60bd 05be
00000010: 4fb8 ae3f 6073 89bf ad5b 40be 662f a1bf
00000020: 2578 3cbf 7dcd 633f 23d3 f4bf 225c 88bf
00000030: 944f 96bf 22ed c9be fb72 7cbf 381c 68bf
00000040: cf74 41bf 5a07 64be 6162 a9bf 0e98 ebbf
00000050: 7fa5 3cbf d908 b8bf 1745 7fbf 2cb4 5dbf
00000060: 4e43 6dbf ba75 51bf 9a94 22bf 9a9b 22bf
00000070: a21e 8dbf bb85 6bbf 0be8 2abf c78e a1be
0.2826794 -0.95362765 -1.2603889 -0.13060522 1.3649997 -1.0738335 -0.18784972 -1.259259
-0.73620826 0.88985425 -1.9126934 -1.0653117 -1.1743035 -0.3943873 -0.98612946 -0.9066806
-0.7556886 -0.2226843 -1.3233148 -1.8405778 -0.73690027 -1.43777 -0.997148 -0.86603045
-0.92680824 -0.8182026 -0.63508 -0.6351868 -1.1024973 -0.9200093 -0.6676032 -0.31554243

conv_layers.5.running_var f4 [32]
00000000: 8ff2 633f 512b 903f f642 da3f ac1b 3540
00000010: c212 4940 4920 983f 780b 0140 c321 d73f
00000020: 5f83 fd3f 5f3a 1340 63a1 9440 25fc b73f
00000030: 0847 2240 a6fe cf3f b599 a63f d9ec ac3f
00000040: 066d b63f 7524 b03f 47d8 c13f b420 c440
00000050: b5cd 993f bf15 1940 9e9d 8a3f 93c5 0a40
00000060: b86d ba3f 8106 b83f 06e3 fa3f 3d55 333f
00000070: 8535 2540 6d4b c03f b5a1 4840 41ec 5440
0.8904199 1.1263219 1.7051685 2.829814 3.14177 1.1884853 2.016325 1.6807178
1.9805716 2.3004377 4.6447005 1.4373823 2.5355854 1.6249588 1.3015658 1.350978
1.4252021 1.3761126 1.5144128 6.128992 1.2015902 2.3919523 1.0829351 2.168309
1.4564734 1.4376985 1.9600532 0.7005194 2.5813916 1.5023018 3.1348698 3.3269198

conv_layers.8.weight f4 [64, 32, 3, 3]
00000000: d94c 403d 0df8 d2bc d4f6 943b 8b57 ecbc
00000010: c428 33bd fd3b 2f3d 668d 4a3d 40b8 0abd
00000020: 41ef 23be 98d4 e6bd fb86 c4bd 1f82 7cbd
00000030: f4f6 003e 3380 243c 4160 f73c 216e cd3d
00000040: c8a1 fa3b 333f 1c3d 15dc f43d 4c15 653d
00000050: a6e5 ddbd eeab db3c 1cc1 b93d 233a a7bd
00000060: 5e9b 333d d1b7 a3bc fc0c 9ebd ecc1 18bd
00000070: 4cd9 99bc a02c 693d 2a3b 78bd 1b13 983d
00000080: b3a6 cebc d4e1 93ba 919b d9bd 2d11 793c
00000090: d2bb bb3d bd9e f83c 72d3 89bd 57cc b6bc
000000a0: 03a2 3a3c 4056 33bd 472b 31be 79b5 72bd
000000b0: ea5a 193d 4d0d 01be 7fa1 103c c992 723d
000000c0: 4091 f13c 0965 103d 2314 bc3d e875 003e
000000d0: be20 d8bd 88c9 43bd 2221 38bc c974 6abc
000000e0: bfd7 b9bc bcf4 00bc 282a 263d c9ef 68bd
000000f0: 5e31 9b3d 9e6a 42bd e5e0 7bbd 1391 443e
00000100: 3b89 7e3e b70a 9c39 78fe 323d 1c38 c83c
00000110: c224 68bd e6bb 0abe a5b8 66bb 42d7 e13d
00000120: 9cb4 473d 34c3 02be 27e0 2e3d e4fb aebb
00000130: 8385 b83c 38ba 563d 7274 04be 2646 91bd
00000140: 0488 2bbd e3b3 0f3c 21b8 ebbc 6d0b d1bd
00000150: f3e7 8bbc 4723 d73c 6801 823d a2ef 403d
00000160: e8ad ebbd 12fb 4dbe c496 043d f9a6 063d
00000170: 4d29 f5bd d4bf 033d 3543 1d3e d92c 0c3d
00000180: a157 d0bc c437 55be d0d2 5bbe fc37 e4bb
00000190: e383 263d 19da edbd f868 873d 5604 203d
000001a0: 4cd3 56bd 68b1 0aba f838 c33b a789 203e
000001b0: a0c1 503e e2cf c93d c187 08bd fe2f 16bd
000001c0: 8e45 b13d 7ae0 fcbd 0ef0 04bd 9e07 1ebd
000001d0: 1952 65bd a822 d6bc cc78 98bc 2def 273c
000001e0: 811f 6dbd 90c6 923d e0a7 f4bd c352 613c
000001f0: 31d2 a53d 9040 f4bd 2a27 d53d aca1 de3c
00000200: eecd 3fbd 2b09 333c 5b50 a93d 26ae cb3c
00000210: c589 e0bc a09d 5abd 10dc 8fbd 42c3 8fbd
00000220: 5291 3cbd 11d9 013d 5811 603d 10b8 a23c
00000230: c32a 17be 860b 283d df51 05be c1e4 90be
00000240: 01ec 5539 793f 3d3d 93e8 7d3d 05c8 d0bd
00000250: e21c b23d d530 24bd 2cc0 d2bb 87ab b7bd
00000260: 3c66 0ebe dcbb ca3d 67b1 ee3d bfc4 0cbe
00000270: fc8e 9e3d f407 e63b 0cbb 0cbd af47 f2bd
00000280: 7533 85bd d367 7bbd 8d84 2e3e d26b d43d
00000290: c024 d4bd 4eee 4d3b e325 f4bd c988 e5bb
000002a0: 31bc 803d ea24 2f3d 1f39 083d 49ff 95bd
000002b0: 6d06 fb3c 9e75 2a3d b406 2f3d 07a3 283c
000002c0: 72c4 423d 56d9 ac3b 9a41 34bd 0569 8cbd
000002d0: 582b a43d c98d 8dbc b2eb 9ebd 036d 473d
000002e0: 4192 453e 1217 b6bd 4280 623d c04f 4ebd
000002f0: 70fd 2fbd 49f4 253e 9f9b ee3d a845 933d
00000300: 78e0 9a3c 959e 25bd 3d34 ebbd c85b 7f3c
00000310: 60da 463e d9f4 8d3d c975 69bc f229 8cbd
00000320: 0a43 6f3d cf6b d83c e385 ab3c 0766 acbc
00000330: b7a8 103e 13b5 f8bd 727b 0bbe aeda bfbd
00000340: 5453 b33d afb7 bd3b 0cb2 83bd 1300 b33b
00000350: d3e2 e43c 98a5 e3bd 6e11 e1bd a11c b73d
00000360: f9bb 7abc eea7 dc3d 23c1 ac3b 311e 51bd
00000370: d788 013d 543f 9bbc 492d b6bd 4950 37bd
00000380: 867c 403d 4113 c8bd 873d 1e3e c323 8fbd
00000390: f09c c4bd 3ac3 fa3d 67c9 02bd 7420 12be
000003a0: 79e5 2d3d 5ec3 9cbd 42f7 0cbd 454b 5a3d
000003b0: b67b ba3d a4c1 a4bd baca b03d 6acb 00bc
000003c0: 5e92 c73d 5739 bdbd c353 4fbd 4ef6 80bb
000003d0: 0cb3 56bc d20e 913c 11e0 0dbc 1bb2 d8bd
000003e0: 95b4 a73b 7027 6dbc d485 b53d d168 063d
000003f0: b2c4 a83d c9da 64bc 7d30 7fbd 3416 04be
0.046948288 -0.025753045 0.004546026 -0.028850337 -0.04374005 0.04278182 0.049451254 -0.03386712
-0.16009237 -0.11271018 -0.09596058 -0.06164753 0.12594205 0.010040331 0.030197265 0.10030771
0.0076486804 0.03814621 0.1195604 0.055928513 -0.108348176 0.02681538 0.09070036 -0.081653856
0.04384934 -0.019985111 -0.0771732 -0.037294313 -0.018780373 0.056927323 -0.0606033 0.07425519
-0.025225973 -0.0011282512 -0.10625375 0.015201849 0.09166683 0.03034913 -0.06729783 -0.022314234
0.011391166 -0.043783426 -0.17301665 -0.059255097 0.037440218 -0.1260273 0.008827566 0.059222016
0.029488206 0.035252605 0.09183528 0.12544978 -0.1055312 -0.047799617 -0.011238368 -0.01431007
-0.022685884 -0.007870849 0.040567547 -0.056869302 0.075777754 -0.04746496 -0.061493773 0.19195966
0.24857037 0.00029762622 0.04369971 0.024440818 -0.05667568 -0.1354824 -0.0035205272 0.11027385
0.048756227 -0.12769777 0.042694237 -0.0053400863 0.0225246 0.052423686 -0.12935045 -0.07093458
-0.04187776 0.008770916 -0.028774323 -0.102072574 -0.017078375 0.026261939 0.063479245 0.04710353
-0.11507779 -0.20115307 0.032370344 0.03287408 -0.11970768 0.032165363 0.15357669 0.034222458
-0.02543241 -0.20822054 -0.21467137 -0.0069646817 0.04065312 -0.116138645 0.06611818 0.039066635
-0.052447602 -0.0005290718 0.005957719 0.1567751 0.20386362 0.098541036 -0.03333259 -0.036666863
0.08655845 -0.12347503 -0.032455496 -0.038581483 -0.055986498 -0.026139572 -0.018612288 0.010249895
-0.057891373 0.07166779 -0.11946082 0.013752642 0.080967315 -0.11926377 0.104078606 0.0271767
-0.04682725 0.010927479 0.0826728 0.024863314 -0.027409444 -0.05337298 -0.070243955 -0.07019664
-0.046037026 0.03170115 0.05470404 0.019863158 -0.14762406 0.041026615 -0.13019513 -0.28299525
0.00020401181 0.04620311 0.06198938 -0.10194401 0.08696915 -0.040085632 -0.0064316 -0.08968263
-0.13906187 0.098991126 0.116549306 -0.13746928 0.07742116 0.007019991 -0.03435807 -0.11830079
-0.06503955 -0.06137831 0.17042752 0.103721276 -0.10358572 0.0031422558 -0.11921289 -0.0070048315
0.06285895 0.042759813 0.0332576 -0.073240824 0.030642712 0.041616075 0.042731002 0.010292775
0.047550626 0.005274932 -0.044007875 -0.068559684 0.0801608 -0.017279522 -0.07759799 0.048687946
0.19294073 -0.08891119 0.055298097 -0.050369024 -0.042966306 0.16206469 0.11650776 0.0719102
0.018905863 -0.04043444 -0.11484573 0.015585847 0.19419241 0.069314666 -0.014249274 -0.06843938
0.058413543 0.026418595 0.020937866 -0.021044744 0.1412686 -0.12143912 -0.1362131 -0.09367882
0.08756128 0.005789719 -0.06430444 0.0054626553 0.02794019 -0.11115569 -0.109896526 0.089410074
-0.015303605 0.107742175 0.005272047 -0.051054183 0.03162464 -0.018951096 -0.08895356 -0.0447543
0.046993755 -0.097692974 0.15453158 -0.06989243 -0.09600246 0.12244268 -0.031930353 -0.14270192
0.04245517 -0.07654451 -0.03441549 0.05329444 0.09105627 -0.080447465 0.08632417 -0.007860998
0.09744714 -0.09239452 -0.05061699 -0.003935612 -0.013104212 0.017707262 -0.008659379 -0.10580846
0.0051179626 -0.014474735 0.08863416 0.032814804 0.08240642 -0.013968178 -0.0623021 -0.12899095

conv_layers.8.bias f4 [64]
00000000: 4790 5436 bab6 c7b6 b4fa b635 587b 9236
00000010: 887d 3f37 0379 91b7 6e2a 4238 647e f6b6
00000020: 4676 bf36 5f82 d2b6 aa4e 2eb6 0e8d a9b7
00000030: 390e 2837 ce6d fab6 5bdd 1035 d6af 41b8
00000040: db06 3ab6 2862 91b7 635c 6b36 7910 b9b7
00000050: 1c12 ddb6 a889 dfb7 83b7 5937 33d2 69b7
00000060: d475 6fb7 8abb 21b5 24fe 1e37 8846 ecb5
00000070: f37f c3b7 e1de 88b7 1cd4 7bb6 5c63 73b8
00000080: 94f8 ba37 456f aeb5 7a01 31b7 b185 9037
00000090: 3b01 35b8 e060 9635 0794 5437 1552 b437
000000a0: 89d0 8d36 ca0d 8733 56fc 5e37 f102 7ab6
000000b0: abee 88b7 326d 34b7 08e0 0a35 d0d1 37b6
000000c0: 3de4 7fb7 be07 9a37 c6d5 a1b6 68e0 90b5
000000d0: e9db 2134 ba8d dbb6 78c5 0935 f9a8 93b7
000000e0: 50d0 0eb8 90f7 01b9 b2a0 4cb6 ded3 7b35
000000f0: 01e1 93b6 48af c2b6 2e9e e8b7 0b16 9738
3.1674442e-06 -5.9519343e-06 1.3633021e-06 4.365498e-06 1.1413715e-05 -1.7341697e-05 4.629272e-05 -7.346085e-06
5.7060124e-06 -6.273665e-06 -2.597381e-06 -2.0212054e-05 1.0016892e-05 -7.4633635e-06 5.3966295e-07 -4.6178546e-05
-2.772015e-06 -1.7331055e-05 3.5071505e-06 -2.206139e-05 -6.5884215e-06 -2.6647773e-05 1.2976935e-05 -1.3936823e-05
-1.4272944e-05 -6.025008e-07 9.476706e-06 -1.7603898e-06 -2.3305392e-05 -1.631625e-05 -3.7525379e-06 -5.802825e-05
2.2288681e-05 -1.2996394e-06 -1.0550366e-05 1.7228393e-05 -4.315491e-05 1.1204065e-06 1.267065e-05 2.1495895e-05
4.226404e-06 6.2889356e-08 1.3290983e-05 -3.7254615e-06 -1.6323602e-05 -1.075426e-05 5.1735014e-07 -2.7391252e-06
-1.5252325e-05 1.8361836e-05 -4.8230604e-06 -1.0794147e-06 1.5074296e-07 -6.5432077e-06 5.132383e-07 -1.760245e-05
-3.4049444e-05 -0.00012394623 -3.0491906e-06 9.3813094e-07 -4.4071353e-06 -5.802056e-06 -2.7730213e-05 7.204347e-05

conv_layers.9.weight f4 [64]
00000000: cf2a 893f f329 5b3f 2d39 6e3f f022 753f
00000010: ddfe 5b3f 5132 813f 9a47 713f 4523 413f
00000020: bb70 5b3f 0cd7 643f 84f7 7e3f e557 813f
00000030: c404 743f c26f 873f 7950 4e3f b2f0 873f
00000040: a9ac 6f3f a035 4e3f d7a7 643f 5065 853f
00000050: 118d 503f 1357 6b3f 2d15 593f 930b 873f
00000060: 2a82 623f f88c 633f 0299 893f e499 8b3f
00000070: 2545 853f ae7b 753f f833 573f f64b 833f
00000080: b74c 673f c4a2 673f 6d37 443f 7abc 703f
00000090: cd40 973f a8ef 813f b539 883f 109e 8d3f
000000a0: cdca 3e3f 1293 403f 8907 6a3f dac1 813f
000000b0: 6450 5d3f 4a21 853f 67c3 433f f5d7 7c3f
000000c0: f404 493f 2345 893f 6fa3 553f dc3c 363f
000000d0: 2370 5c3f 596a 563f 79d3 583f 6079 223f
000000e0: 278b 883f 809f 6f3f 6c66 5b3f 5f38 523f
000000f0: 3ce2 523f 9baf 7b3f 8485 643f 67bb 8b3f
1.0716189 0.85610884 0.93055993 0.95756435 0.85935766 1.009348 0.9424988 0.7544444
0.8571889 0.89390635 0.9959643 1.0104948 0.9531977 1.0580981 0.8059154 1.0620329
0.93622833 0.80550575 0.89318603 1.0421543 0.8146525 0.9192974 0.84797937 1.0550407
0.88479865 0.88886976 1.0749819 1.0906339 1.0411726 0.95891845 0.84063673 1.0257556
0.9035143 0.90482736 0.76647073 0.9403759 1.1816651 1.0151262 1.0642611 1.1063862
0.745282 0.7522441 0.9141775 1.0137284 0.8645079 1.0400784 0.76470035 0.98767024
0.7852318 1.0724224 0.83452505 0.71186614 0.8610861 0.83756024 0.8469768 0.63466454
1.0667466 0.9360275 0.8570316 0.82117265 0.82376456 0.9831483 0.8926623 1.0916566

conv_layers.9.bias f4 [64]
00000000: 160b 95be f38c 88be 208a 86be b9b5 8dbe
00000010: 4712 3bbe 96a6 4cbe 1cd1 10be bce9 45be
00000020: 1561 3fbe 1751 83be 4659 54be 12b9 a2be
00000030: 46ff 97be a75f 9bbe a428 25be df17 bfbe
00000040: be7f 87be 0e1a 92be ce75 81be 0487 cbbe
00000050: 485b 38be 4470 fcbd 7eb0 54be 268d 97be
00000060: e969 50be 9e1c a5be 9a30 7fbe e1d9 cdbe
00000070: 4491 9fbe 0559 43be 8a94 2ebe 015a 81be
00000080: 9f34 45be 734d 67be 1b31 54be 243c 82be
00000090: 3628 c0be 379f aabe 871e a8be f7c1 b5be
000000a0: c9bc 5fbe ce4c 89be 4217 8dbe 97a6 71be
000000b0: 4e10 07be 2c9d 7bbe d01b 6fbe 9c4f b2be
000000c0: c115 65be 0a7e a6be 7708 51be 413d 75be
000000d0: fa7b 63be 6df7 28be 7917 72be dcca 9abe
000000e0: 45e8 cbbe 09f6 4fbe 29c1 93be 6290 97be
000000f0: ad4d 9fbe 8f8a 8cbe b8d1 82be ebd7 9cbe
-0.2911002 -0.26670036 -0.26277256 -0.27677706 -0.18268691 -0.19985422 -0.14142269 -0.19327444
-0.18689378 -0.25647804 -0.2073718 -0.31781822 -0.29686946 -0.30346414 -0.16128784 -0.373229
-0.26464647 -0.28535503 -0.2528519 -0.39751446 -0.18003571 -0.123261005 -0.20770451 -0.29599875
-0.20352902 -0.32248396 -0.24920884 -0.4020529 -0.31165516 -0.19076927 -0.1704885 -0.2526398
-0.19258355 -0.22588138 -0.20721857 -0.2543651 -0.3753068 -0.33324596 -0.3283579 -0.35499546
-0.2184936 -0.2681641 -0.27556807 -0.23598705 -0.13189813 -0.24571675 -0.23350453 -0.34826362
-0.2237158 -0.32518035 -0.20413385 -0.23949148 -0.22215262 -0.16500635 -0.23641767 -0.30232894
-0.39825645 -0.20308699 -0.28858307 -0.29602343 -0.3111395 -0.27449462 -0.25550628 -0.30633482

conv_layers.9.running_mean f4 [64]
00000000: 3452 4dbf caab 39bf 52bd d5bf 0ec0 92bf
00000010: 6ba0 c3bf a77c 85bf 4c66 83bf 8bad b9bf
00000020: 006b f7bf a04e f83d 8854 99bf 7b16 97bf
00000030: 3c5b 4abf 455b d0bf 47de e1bf 64de c7bf
00000040: 7d23 c7bf 49cf 93be 643e eabf 4320 90bf
00000050: f114 07c0 e046 a9bf a507 77bf 0a64 83bf
00000060: 949c 98bf 8e78 9bbf 0a4b a0bf 92c8 89be
00000070: d346 85bf cd96 1bc0 8128 b9bf 581e afbf
00000080: 955a 07c0 0ec2 e0bf e168 05c0 7b7a 01c0
00000090: 008d a1bf 54c0 95bf d29f c9be f2f7 28bf
000000a0: fb32 e7bf 87fa bebf 698b f8bf c27f 8fbf
000000b0: 3bb1 c5bf 9d16 a1bf 41c9 04c0 266a 95bf
000000c0: d351 ffbf 69d6 a8bf 1b79 a7bf 127c f0bf
000000d0: c553 cebf a0f3 ecbf d3be 0cc0 e4e5 ac3f
000000e0: 1420 bfbf f5ef b63e 9668 a3bf 089c edbf
000000f0: 012f b5bf e6e3 a2bf ffb9 ecbe 3032 7cbf
-0.80203557 -0.72527754 -1.6698401 -1.146486 -1.5283331 -1.0428666 -1.0265594 -1.4506086
-1.9329529 0.121243715 -1.1978922 -1.1803735 -0.7904546 -1.6277853 -1.7645959 -1.5614743
-1.5557705 -0.28869084 -1.830029 -1.1259845 -2.1106532 -1.3224754 -0.9649604 -1.0264904
-1.1922784 -1.2146165 -1.25229 -0.26910836 -1.0412239 -2.4310791 -1.4465486 -1.3681135
-2.1149037 -1.7559221 -2.0845263 -2.0231006 -1.2621155 -1.1699319 -0.39379746 -0.66003335
-1.8062433 -1.4920205 -1.9417545 -1.1210864 -1.5444711 -1.2585026 -2.0747836 -1.1673019
-1.9946846 -1.3190433 -1.3083833 -1.8787863 -1.6119314 -1.8511848 -2.199147 1.3507657
-1.4931664 0.35729948 -1.2766292 -1.8563242 -1.415497 -1.2725799 -0.46235654 -0.9851408

conv_layers.9.running_var f4 [64]
00000000: b80c 053f 7158 c83e 6fcd 803f 81d4 fe3e
00000010: 73ed 7b3f b941 e73e f851 353f 7bdc 4e3f
00000020: 3752 963f a399 fc3e 7086 2c3f 919d 3f3f
00000030: f8dd 103f aae3 4e3f 0cf0 8c3f 6a86 e63e
00000040: ba30 533f d885 243f b5d9 683f 8e3d 373f
00000050: fb62 8a3f 11dc 2c3f aa1a 613f a595 363f
00000060: fb5e 423f 476c 4f3f 112e 133f 99c4 ce3e
00000070: 60bd 113f 107f 383f bd4c 483f fcaf 3e3f
00000080: b02e 4e3f d542 433f 9860 813f 0552 393f
00000090: 28bc 2e3f f7da 763f 267c f63e 73c1 093f
000000a0: 6e0e 6b3f cfc1 5f3f 55a1 353f 2426 143f
000000b0: 6584 9f3f e456 323f 0b3c 6e3f 355f 513f
000000c0: 2f65 523f d0df 333f 9648 3b3f 3fb1 4c3f
000000d0: 3e2c 413f 8efd 5f3f 2ede 3f3f 59af 063f
000000e0: 4649 043f 5b29 5e3e 621b 613f 0fdc 563f
000000f0: 4d05 2a3f 812f 283f db09 033f ddec 223f
0.5197253 0.39129975 1.0062693 0.49771503 0.98409194 0.4516733 0.708282 0.80805176
1.174384 0.49335966 0.67392635 0.748498 0.565887 0.8081614 1.1010756 0.45024425
0.82496226 0.6426673 0.90957195 0.715783 1.0811456 0.67523295 0.8793131 0.7132209
0.7592618 0.81024593 0.57492167 0.40384367 0.5692959 0.7206888 0.78242093 0.7448728
0.8053999 0.7627385 1.0107603 0.72390777 0.68255854 0.96427864 0.48141593 0.53810805
0.9181889 0.87405103 0.709493 0.578707 1.2462279 0.69663835 0.9306037 0.817859
0.82185644 0.70263386 0.7315763 0.79957956 0.75458133 0.8749627 0.74948394 0.5261131
0.51674306 0.21695463 0.8793241 0.8392953 0.6641434 0.65697485 0.51186913 0.63642675

fc_layers.1.weight f4 [128, 1280]
00000000: 48f5 d43a 872b 9dbc 39aa 94bc 31ae 02bc
00000010: ba8a bfbb e487 e8ba ec02 f73a 4fec 2e3b
00000020: 8eeb 58bb 85bd cdba d115 bbba 7e3f 25ba
00000030: 4d55 ecba 62a2 2439 f34a 18bb 830c d8ba
00000040: da61 99b8 1006 b0b9 ec20 813a cd6e 54ba
00000050: 5525 80bc 6b98 5e3c f40e 48bc 0280 c13b
00000060: cf56 1ebc cccb 03ba 7443 0c3b ee7e f538
00000070: fc28 3938 5f18 fa39 47a2 0580 5848 0600
00000080: 386c 0580 b658 0500 9375 a824 3569 0580
00000090: aa75 0635 abd2 8224 5484 0600 73d0 0580
000000a0: fa5e 903c d3c3 aabb b77a 1fbc b081 d5b9
000000b0: 9e27 de3b dc7a ef3b 149f 81bb c2b2 253b
000000c0: 5e90 4fbb 8a82 97bb dffb e63a 6a7f 8f3b
000000d0: 86f0 18bb ede9 8a3b 8bd4 b2ba e0fc 6dbb
000000e0: 9465 1fbb e838 96bb b27a ffbb 2235 2fbb
000000f0: a8fb 003c 1f5b 64bc 9f45 98bc 7a0b 8ebb
00000100: 6c29 4e3c 7eae 6c3a cb13 1a3c a375 4e3b
00000110: d3fb ca3b a3dc 9b3b 0de9 8334 7903 3f37
00000120: dcca 4631 49fe c333 2b3a 0e35 d8d2 a4b0
00000130: ff70 1dba c87f 5a39 8101 0cb0 338c 872f
00000140: ca4e e2b9 4a8f 84b4 3e5c 1636 2b5b 2ab8
00000150: 0d18 9837 c71e 573a a6a2 7abb ec65 abbb
00000160: 4a8c 93bb f777 0236 1ebd debb 8b5f 723b
00000170: 3a54 ba3b 8326 abbb a1be 2339 af80 abbb
00000180: 2d2b 553b c43b 99bb bd05 fa3b 11d8 933b
00000190: 9c7e 243c 7436 3fbc db82 0abb 100f 7bbb
000001a0: 9b4a 7bbc 88c9 2cbc e9e0 08bc cdff e83a
000001b0: 78fd 823b 78e9 9b3b fb94 883b 80c2 af3b
000001c0: 5f55 82bb f64b 0cba bf15 8939 f564 063b
000001d0: e2a8 abbb 15cc 34bb 494b 94ba 56bd 2f3a
000001e0: 4915 73bc 858d abbc 2954 dbbb 2b04 f63a
000001f0: 89d1 323c 6445 eeba b25b cfb9 bf47 52ba
00000200: e1bf 07b9 51d6 3abb 0ac7 15ba bde0 5939
00000210: c730 843a 9178 bcba b1f4 16bb 7d52 ebba
00000220: d76c 4dba c24e c9b8 be10 87bb c27c 46ba
00000230: 2bce 763b aad0 9dbb 6383 5cbb 0b38 e4bb
00000240: b2d4 d539 953b 1039 ade7 96b7 3e19 3d3b
00000250: dec7 5c3b fbca 5e3b 0579 59bb 4669 933b
00000260: 7307 403b ae4e 06bb 52d3 b53b d659 abba
00000270: 4a76 94bb f1c5 c6bb b40c 5e3b 53d0 1c3a
00000280: 0007 b93b 9bfe 53bc 862c 21bc c992 bebb
00000290: 2dff 6dbc e06d f03a d06a d7ba 13e5 3cbb
000002a0: 0518 45bb beed 783b 964e 423a 0407 023a
000002b0: 3f54 a4bb 2e33 203a 9a4e 02bc 52dc f7bb
000002c0: 6065 253b 917f adbb 0daf 193a dacd 903a
000002d0: 312c 99bc 6667 b2bc 7b05 57bb e99a 393b
000002e0: 69d1 f1bc a142 16bb 88b5 823b 4186 493c
000002f0: 37ec 643b b5e0 78b8 fe2e 71b9 ac69 9d3a
00000300: c052 4ab8 c40c 5c3a 2148 3d3a 0c46 44ba
00000310: aee4 6d3a 2bc0 09ba addd cbb8 c258 8739
00000320: dcd5 ec3b c06c 6abc 8592 db3a 77dd 2cbc
00000330: f601 a1bc c2b7 c73a f8bc 59ba aa7f 92ba
00000340: e60c 51ba 2ac1 63ba 639c 38b9 46d0 a839
00000350: 4129 61b9 a1c7 ac39 f98d 9039 fdcb 05bb
00000360: ffec 283a 6747 a3ba 773b 673a f68d 01bb
00000370: 04ff 9335 c04b 1d36 3715 c832 0668 0bb2
00000380: b2a5 bdb1 63a2 15ba c8e9 513b 2395 90bb
00000390: e275 73bb a28e 04bc 44d4 a3ba be1d ccbb
000003a0: 990a 773b 55e1 7ebb e8dd bebb 2cc9 acbb
000003b0: 3d2f 3c3a b75b b53b 2305 c9bb 9574 8e3b
000003c0: 499a 2ebc 1817 ceba fc4f 9839 1564 8e3b
000003d0: c522 5f3c b1d3 fd3a 26e9 193b dc3a 5bb9
000003e0: d76d 8838 fa7e a637 0b63 0580 183c 2e17
000003f0: d7aa 0500 6459 e5a3 ca04 0430 e9ee 0500
0.0016247416 -0.019185795 -0.018147575 -0.007976101 -0.005845395 -0.0017740694 0.0018845475 0.0026691144
-0.0033099386 -0.001569674 -0.001427347 -0.00063037116 -0.0018030793 0.00015700751 -0.0023238033 -0.0016483221
-7.313835e-05 -0.00033573853 0.000985173 -0.0008103669 -0.015642801 0.013586144 -0.012210596 0.0059051523
-0.0096642515 -0.00050276215 0.002140251 0.00011706153 4.4145607e-05 0.00047701874 -5.17392e-40 5.76965e-40
-4.97999e-40 4.91001e-40 7.3057564e-17 -4.96919e-40 5.0090114e-07 5.67354e-17 5.98483e-40 -5.33955e-40
0.017623413 -0.0052113323 -0.009733847 -0.0004072315 0.006779625 0.007308347 -0.003955731 0.002528355
-0.0031671743 -0.0046237158 0.0017622671 0.0043792026 -0.0023336723 0.004239312 -0.0013643665 -0.0036314055
-0.002432202 -0.0045844205 -0.007796609 -0.002673455 0.0078724995 -0.013937741 -0.018587885 -0.004334864
0.012583118 0.0009028687 0.009404133 0.0031503222 0.0061945706 0.0047565266 2.4570218e-07 1.1385296e-05
2.8928104e-09 9.126649e-08 5.298377e-07 -1.1992496e-09 -0.00060059124 0.00020837702 -5.093384e-10 2.4655974e-10
-0.00043164782 -2.4691172e-07 2.2405434e-06 -4.0616065e-05 1.8131012e-05 0.00082061853 -0.0038243919 -0.005230656
-0.0045028077 1.9441338e-06 -0.006797447 0.0036983218 0.00568631 -0.005223097 0.00015615906 -0.005233846
0.0032526955 -0.004676314 0.0076300786 0.004511841 0.010039952 -0.0116706975 -0.0021135125 -0.0038308538
-0.015337612 -0.010546096 -0.008354404 0.001777643 0.003997501 0.0047580563 0.0041681505 0.0053637624
-0.003977462 -0.0005351895 0.00026146878 0.0020506952 -0.0052386383 -0.0027587463 -0.0011313941 0.00067039335
-0.014836618 -0.020941505 -0.0066933823 0.0018769553 0.010914215 -0.0018178639 -0.00039550435 -0.0008021555
-0.00012946084 -0.002850909 -0.0005713558 0.00020778454 0.0010085338 -0.0014379193 -0.002303403 -0.001795366
-0.0007836348 -9.599097e-05 -0.004121869 -0.0007571691 0.0037659507 -0.0048161345 -0.0033647649 -0.0069646887
0.00040784996 0.00013755106 -1.7989276e-05 0.0028854157 0.0033688466 0.0033995498 -0.0033183706 0.0044986336
0.0029301315 -0.0020493674 0.005548873 -0.0013073038 -0.0045307027 -0.006066077 0.0033882083 0.00059819705
0.0056465864 -0.012939121 -0.009837275 -0.005815838 -0.014526171 0.0018343292 -0.0016435031 -0.0028823062
-0.0030074131 0.0037983502 0.0007412223 0.0004960152 -0.0050149257 0.0006111142 -0.00795331 -0.007564106
0.0025237426 -0.005294748 0.00058625714 0.0011047677 -0.01869783 -0.02177782 -0.0032809663 0.0028321093
-0.0295188 -0.0022927898 0.0039889254 0.012300075 0.0034930834 -5.9337082e-05 -0.00023001057 0.0012009642
-4.823762e-05 0.0008394236 0.0007220526 -0.00074872444 0.00090749084 -0.00052547705 -9.721085e-05 0.00025815336
0.0072276425 -0.014308155 0.001675204 -0.010550848 -0.019654255 0.0015237259 -0.00083060516 -0.0011176963
-0.00079746393 -0.00086881465 -0.00017605866 0.00032198633 -0.0002147304 0.00032955132 0.00027571598 -0.0020415776
0.00064440066 -0.0012457193 0.00088208116 -0.0019768453 1.1026573e-06 2.3438915e-06 2.3292712e-08 -8.114517e-09
-5.5194613e-09 -0.00057080964 0.0032030214 -0.0044123097 -0.003714912 -0.008090647 -0.0012499173 -0.0062291315
0.0037695526 -0.0038891633 -0.005824793 -0.005273005 0.000717867 0.005534615 -0.0061346455 0.0043473938
-0.010656902 -0.0015723435 0.00029051292 0.004345427 0.01361913 0.0019365457 0.0023484915 -0.00020907394
6.5054446e-05 1.984787e-05 -4.94707e-40 5.629828e-25 5.20463e-40 -2.4866088e-17 4.8028126e-10 5.44882e-40

fc_layers.1.bias f4 [128]
00000000: 2689 3fbc a473 c33b 40d5 83bc dccb 55bc
00000010: 447d 29bb 996b b8bb 32cf c6bb c73a 9ebc
00000020: 3ec2 1739 2880 d3b9 3c5e 0500 23dd 17b9
00000030: 8b19 6fbc 2cd0 02bc c573 583d e20e 9a3b
00000040: ef86 d2b9 617e beb8 37d3 42b8 11fb 4c3b
00000050: 9070 1d3c bc61 5dbc 786e 1b9d e2f8 e936
00000060: 7a19 b4b7 74b2 833d 199a 12bb 6d48 7cbc
00000070: c02b fc38 68fe 37bc def2 423c 1c4a deb9
00000080: a35c ccb9 beaa 20bc ae0f 12bd 3fec 673d
00000090: 6c76 0c3c 8e61 7cbb 943f 70ad 19b0 8abc
000000a0: e216 20b9 c87d 92b7 03ce 9cba 3e5b 0500
000000b0: 25ee 0eb6 df24 3ab9 48e7 bdb9 90cb a8ba
000000c0: 5cbd 3bbd 86e4 6dbc f733 793c 8ede ae3c
000000d0: f885 37b9 af23 d4bb 8baf ccb9 e3da e3b3
000000e0: d75d 9bbc 1727 caba e3aa d139 a250 01ba
000000f0: 9c42 b33c 129e e1ba 5f6d 173d f6be 7b3c
00000100: 3a6c 633c 8b03 55bc 8630 c33c b3f8 e13b
00000110: bdc1 28bb bb35 91bc a2a4 46a4 8590 0ebd
00000120: 4cf7 88bc 1fa0 e7b9 4e07 c439 7e12 f0ae
00000130: e51d 5ebb 4bff f7b7 8baf 0400 f30b 54ac
00000140: 9d28 6c3c 8aec 30bc 22b9 fcb9 bf00 83bc
00000150: 2c30 b1bb 8733 47bc a0af 33bc 4073 f23c
00000160: afd5 96bb 2630 8fbb c670 6ab7 6d5d 0580
00000170: d206 01bd 7393 8939 edfa 653b 2765 153d
00000180: d83e f73c c55a 313b aaa8 803a f854 7bbd
00000190: 0d29 f53a 2bf9 efbb dbe7 85b9 7a6c 6dbb
000001a0: 8ad7 bab0 41e7 55bb 4735 3ebb f7a9 00b6
000001b0: 791b 343c 045b 143c fd19 173d 66ae 2bbc
000001c0: 7770 0f3d 77b5 59bc 7f85 8cb6 d65e 27bd
000001d0: ef20 16bc 8f90 6ebc 5eab 2f3c 9060 c4bc
000001e0: 7f69 04bd 8c70 41bc 933c 91bc cf05 d6b9
000001f0: 6428 12b0 660c f1ae 7f92 2bbc 6008 2d3c
-0.011690414 0.005964713 -0.016092896 -0.013049092 -0.0025862018 -0.005628061 -0.00606718 -0.019315137
0.00014472843 -0.0004034054 4.92982e-40 -0.00014482862 -0.014593492 -0.007984202 0.05284478 0.004701481
-0.00040154855 -9.083446e-05 -4.6449913e-05 0.0031277577 0.0096093565 -0.013512071 -2.057119e-21 6.972915e-06
-2.1469536e-05 0.064305216 -0.0022369681 -0.015398127 0.000120244455 -0.011230089 0.011898724 -0.00042398355
-0.00038978932 -0.009806333 -0.035659485 0.056621786 0.008573156 -0.0038510296 -1.3656538e-11 -0.016929673
-0.00015267314 -1.7463128e-05 -0.0011963252 4.91909e-40 -2.1298267e-06 -0.00017752078 -0.00036221207 -0.0012878049
-0.045834884 -0.014519816 0.015210143 0.021346357 -0.00017502147 -0.0064739804 -0.00039040702 -1.06103265e-07
-0.018965645 -0.0015423027 0.00039990907 -0.00049329747 0.021882348 -0.0017213246 0.03696954 0.015365353
0.013880784 -0.013001333 0.023826849 0.0068961023 -0.0025750243 -0.017725816 -4.3073855e-17 -0.034805793
-0.016719483 -0.00044179053 0.00037389476 -1.0917221e-10 -0.003389233 -2.9563575e-05 4.30315e-40 -3.0133645e-12
0.01441398 -0.010798583 -0.0004820312 -0.015991567 -0.005407354 -0.012158281 -0.010967165 0.029595971
-0.00460311 -0.0043697534 -1.3973744e-05 -4.92692e-40 -0.031500645 0.00026240534 0.003509219 0.03647342
0.030181333 0.002706216 0.0009815891 -0.06136033 0.0018704251 -0.0073234043 -0.00025540483 -0.0036227987
-1.3594541e-09 -0.0032639059 -0.0029023455 -1.917242e-06 0.010992878 0.009054903 0.03689002 -0.010478592
0.035019364 -0.0132878935 -4.187866e-06 -0.040861927 -0.009163125 -0.014560833 0.010722009 -0.023971826
-0.03232717 -0.011806618 -0.01772908 -0.00040821588 -5.317189e-10 -1.09616136e-10 -0.010471939 0.010561079

fc_layers.4.weight f4 [3, 128]
00000000: 6021 81bd 7b5f d13c 9918 51bc c748 c43c
00000010: d08d 173d 3d0f 76bd 7b72 06bd e000 a2bc
00000020: 9fd9 eb3b 8265 0580 596a 2bb8 52b7 863c
00000030: 7047 18bd 3d4f b4bc 6d49 a03d c7cd 633d
00000040: 0652 38bb 6661 15bc 51b6 f1bc 73ce b43d
00000050: bdc1 64bd 409f 1ebd 8bea 9d91 0f50 d93c
00000060: 02c5 20ba e688 153e acaa 1a3c ad97 713d
00000070: 49fb 913d 6335 15bd 1d8b 8fbc bb96 7fbc
00000080: 8745 54b9 f603 8b3d f78e dd3c b408 773d
00000090: d9f1 623c 15e0 fbb6 d865 0580 b232 e73c
000000a0: 6c46 8bbc ab08 55ba 6bb5 06bd 7e71 0500
000000b0: 391f 9137 b1c2 413d 6858 b33a 9082 043c
000000c0: 1f05 5bbc e824 4e3d 73e8 6b3d c4f4 7dbc
000000d0: bdcb 393d 0970 f8bc ee13 573b e4e6 0fbc
000000e0: bafb 35bd 55be f739 b223 323b 9593 90bc
000000f0: e339 9ebb d819 97bc a598 2e3d 2cdb 553d
00000100: 751a 9b3d 28b8 0f3d e4b3 0d3d de82 dfbd
00000110: ecb2 04bd d1ff 3fbd 2678 0580 f11a 39bc
00000120: 5b5c 8ebd bdba 14bc 26bc ffbc e8b5 2bb9
00000130: 9ff9 033d 0bfe c03b 9972 5d28 6ca2 a913
00000140: ce06 86bd 17eb a33c 572c 853a af28 633c
00000150: 1bb3 60bc a97f 39bb b7bd 593b 9d69 b73b
00000160: b487 0bbd 31ca 8abc 18f4 30b8 385b 0580
00000170: 7b43 2ebd 6404 69bc ed18 41bb 18b3 a53d
00000180: 1b4c 113c e199 c23d 3781 c03c a76f 37bb
00000190: 0795 16bd fdc2 debc 6b96 5f3c 1567 583d
000001a0: e301 54bc 394f 6e3d 6449 ff3c ece4 a6ba
000001b0: d7ac 893d 5754 843d 4167 a43c 4f4e b13d
000001c0: 218b b53d 4a12 03bc 20da 373c 5a0f 1c3b
000001d0: fed5 d53c 8b8d 9c3d 6d2a 0d3e 4c5c b43d
000001e0: f170 533c 8cb7 a3bc 737b 8bbc 6454 603a
000001f0: dbbf d33b fca9 e03a 8114 33bc 95b5 993d
00000200: ce6a 483c 9f10 053d afa6 093d 0c87 d8bc
00000210: 03a8 863d 50f6 083b 18e0 803d 5fa9 7f3d
00000220: f17e 483a f25c 0500 5489 8739 225f 4f3b
00000230: 6d82 04bd 82a4 3f3b 95a2 b9bd 8403 acbb
00000240: 17b7 d63b 0c63 c4bb 9c35 43bc de6d c13d
00000250: cb6a 2f3c 792a b43b 7159 0500 195d 6f3c
00000260: 40fb 8dba 1d95 1dbd 8385 16bd c1a9 493c
00000270: 699f acbc 6ced fb3c b2d5 99bd 04f9 c0bb
00000280: 6a08 c93c 29ad 893d be9d 363d 515a 82bd
00000290: 4f46 72bd e759 92bc 475e 0580 618b 8e3b
000002a0: e3ed 9f3c 315a 59b6 f512 01bd 6b73 0580
000002b0: cf5c 0500 0f0a 6f3d c435 9439 0839 b13c
000002c0: db22 af3c 5ed4 063d 4b82 743d e19c 13be
000002d0: 0cf4 323d 2d01 ee3c fa6a 44bc 69d4 ebba
000002e0: f7a3 07bd 7bd9 2ebb dc27 ef39 5d2c a13c
000002f0: 9f83 3dbe 1d35 1dbd c66f 1ebe 312c 993d
00000300: 3bbb 61be fbcf 803d 6d2b 17be c7e3 5dbc
00000310: ff96 54bd 598a 28bd 496c 0500 d993 053d
00000320: 2f23 923d 85eb 763c 1727 8cbd d0d9 de31
00000330: 7c06 4abd fe56 8cbb 4759 0580 9943 9c93
00000340: c025 44bd f06a 15bb acd4 a7bc 78b0 863b
00000350: 9cb5 f3b9 d20b 523d abb4 d5bb 7e4f 26be
00000360: eba3 653d 6bad 09bd c159 b9bc 8c5b 0580
00000370: 897b 97bd 1880 443c 0b15 b43c 1838 27be
00000380: 5663 e93c 4b99 db3d b03a 84bc 2faf 89bd
00000390: 62a2 a0bd efb2 1fbd 7320 9e3b 42dc 823c
000003a0: f22f 7138 29fd 8a3d 34ff 4e3d 8202 65bb
000003b0: 2920 3dbd 2b66 7bbd ed3e 46be 57dc b23d
000003c0: ec34 f2bd eded b4bc 512c 863c 5731 003d
000003d0: 399b 1b3b 9f32 b7bc 076a 7cba 3d0c 123e
000003e0: 88bc c7bd 93be fdbb 4d26 7f3d 3237 113b
000003f0: e2a3 c2bb 29d5 9f3a 56c3 a0bd 0785 71bd
-0.06305194 0.025558224 -0.012762212 0.023960484 0.037000477 -0.060073126 -0.03282402 -0.019775808
0.0071975733 -4.95592e-40 -4.086862e-05 0.016444836 -0.037177503 -0.02201044 0.07826505 0.055616166
-0.0028125062 -0.00911746 -0.02950588 0.088284396 -0.055848826 -0.03872609 -2.491478e-28 0.026527433
-0.0006132872 0.14603004 0.009440105 0.05898254 0.07128007 -0.036427867 -0.01752239 -0.015599902
-0.00020243796 0.06787865 0.02704571 0.060311034 0.013851606 -7.5064695e-06 -4.95712e-40 0.028222416
-0.017001353 -0.0008126597 -0.032887857 4.99891e-40 1.7299886e-05 0.047304813 0.0013682963 0.008087769
-0.01336792 0.050328165 0.057594728 -0.015500251 0.045360316 -0.03032686 0.0032818276 -0.008783076
-0.04442952 0.0004725332 0.002718192 -0.017648498 -0.004828678 -0.01844494 0.042626042 0.05221097
0.07573406 0.035087734 0.034595385 -0.10913633 -0.032397196 -0.046874825 -5.02279e-40 -0.011297927
-0.06951209 -0.009077725 -0.031217646 -0.00016375596 0.03222048 0.0058896593 1.2292814e-14 4.282176e-27
-0.06544267 0.02000956 0.0010160309 0.01386468 -0.013714577 -0.002830485 0.003322465 0.005597307
-0.034064963 -0.016942116 -4.2189e-05 -4.919e-40 -0.042544823 -0.014222238 -0.002946432 0.080908
0.008868243 0.09502006 0.023499114 -0.0027990134 -0.036763217 -0.027192587 0.013646702 0.05283268
-0.012939903 0.05818102 0.031162925 -0.0012733019 0.0672242 0.06461399 0.020068767 0.08657514
0.08864427 -0.007999966 0.011221439 0.0023812861 0.026103016 0.07644185 0.13785715 0.08806667
0.012905345 -0.019984983 -0.017026639 0.0008557497 0.00646208 0.0017140503 -0.0109301815 0.07505337
0.0122324955 0.032486554 0.033606227 -0.026431583 0.065750144 0.0020898767 0.062927425 0.062417384
0.000764831 4.9252e-40 0.00025851524 0.0031642397 -0.032350946 0.0029242341 -0.09064213 -0.0052494425
0.0065525877 -0.0059932526 -0.011914637 0.09444784 0.010706614 0.005498227 4.91263e-40 0.014609599
-0.0010832325 -0.038472284 -0.03674842 0.012308539 -0.021072106 0.03075286 -0.07511462 -0.00588906
0.024540145 0.06722481 0.04458403 -0.06364883 -0.059149083 -0.017865134 -4.92998e-40 0.0043501114
0.019522613 -3.2388018e-06 -0.03151222 -5.00582e-40 4.92471e-40 0.058359202 0.00028268818 0.02163364
0.021378925 0.032917373 0.05969457 -0.14415313 0.043689772 0.029053295 -0.011988396 -0.001799238
-0.033115353 -0.0026679921 0.0004561533 0.019674474 -0.1850724 -0.03838073 -0.15472326 0.07479132
-0.22044079 0.06289669 -0.1476266 -0.013543076 -0.051901814 -0.041147564 4.98023e-40 0.0326117
0.07135617 0.015070801 -0.06843393 6.4858128e-09 -0.04932259 -0.004282831 -4.91204e-40 -3.9446593e-27
-0.047887564 -0.0022799335 -0.020487152 0.004110392 -0.0004648388 0.051280804 -0.0065217814 -0.16241261
0.056064527 -0.03361265 -0.022625806 -4.92018e-40 -0.07396609 0.011993431 0.02198269 -0.16329992
0.02848975 0.10722598 -0.016141266 -0.06722867 -0.07843472 -0.038989004 0.0048256456 0.015974168
5.750353e-05 0.06786568 0.05053635 -0.0034944122 -0.04617325 -0.06137673 -0.19359942 0.08733433
-0.118265 -0.022086108 0.016378554 0.031297054 0.0023743643 -0.022363005 -0.00096288364 0.14262481
-0.09752756 -0.0077436655 0.062292386 0.0022158143 -0.0059399465 0.0012194264 -0.078497574 -0.058964755

fc_layers.4.bias f4 [3]
00000000: ac83 0fbe 59be c03d d889 0f3e
-0.14015073 0.09411306 0.14017427
